…
weight_decay: 0.0001
snapshot: 10000
snapshot_prefix: "snapshot_rmsprop"
solver_mode: GPU
device_id: 0
rms_decay: 0.9
type: "RMSProp"
I0514 14:43:24.184648 29140 solver.cpp:81] Creating training net from train_net file: ub_trimese_inceptionv4_train.prototxt
I0514 14:43:24.190922 29140 net.cpp:49] Initializing net from parameters: 
name: "ubv4_train"
state {
  phase: TRAIN
}
layer {
  name: "data"
  type: "ROOTData"
  top: "data"
  top: "label"
  root_data_param {
    batch_size: 10
    filler_config: "train_filler.cfg"
    filler_name: "train"
  }
}
layer {
  name: "data_trimese"
  type: "Slice"
  bottom: "data"
  top: "Slice1"
  top: "Slice2"
  top: "Slice3"
  slice_param {
    slice_point: 1
    slice_point: 2
    axis: 1
  }
}
layer {
  name: "stem_conv1_plane0_conv"
  type: "Convolution"
  bottom: "Slice1"
  top: "stem_conv1_plane0_conv"
  param {
    name: "par_stem_conv1_plane0_conv_w"
  }
  param {
    name: "par_stem_conv1_plane0_conv_b"
  }
  convolution_param {
    num_output: 32
    kernel_size: 3
    stride: 2
    weight_filler {
      type: "msra"
    }
    bias_filler {
      type: "constant"
      value: 0
    }
    pad_h: 0
    pad_w: 0
  }
}
layer {
  name: "stem_conv1_plane0_bn"
  type: "BatchNorm"
  bottom: "stem_conv1_plane0_conv"
  top: "stem_conv1_plane0_conv"
  param {
    lr_mult: 0
  }
  param {
    lr_mult: 0
  }
  param {
    lr_mult: 0
  }
  batch_norm_param {
    use_global_stats: false
  }
}
layer {
  name: "stem_conv1_plane0_scale"
  type: "Scale"
  bottom: "stem_conv1_plane0_conv"
  top: "stem_conv1_plane0_conv"
  scale_param {
    bias_term: true
  }
}
layer {
  name: "stem_conv1_plane0_relu"
  type: "ReLU"
  bottom: "stem_conv1_plane0_conv"
  top: "stem_conv1_plane0_conv"
}
layer {
  name: "stem_conv2_plane0_conv"
  type: "Convolution"
  bottom: "stem_conv1_plane0_conv"
  top: "stem_conv2_plane0_conv"
  param {
    name: "par_stem_conv2_plane0_conv_w"
  }
  param {
    name: "par_stem_conv2_plane0_conv_b"
  }
  convolution_param {
    num_output: 32
    kernel_size: 3
    stride: 2
    weight_filler {
      type: "msra"
    }
    bias_filler {
      type: "constant"
      value: 0
    }
    pad_h: 0
    pad_w: 0
  }
}
layer {
  name: "stem_conv2_plane0_bn"
  type: "BatchNorm"
  bottom: "stem_conv2_plane0_conv"
  top: "stem_conv2_plane0_conv"
  param {
    lr_mult: 0
  }
  param {
    lr_mult: 0
  }
  param {
    lr_mult: 0
  }
  batch_norm_param {
    use_global_stats: false
  }
}
layer {
  name: "stem_conv2_plane0_scale"
  type: "Scale"
  bottom: "stem_conv2_plane0_conv"
  top: "stem_conv2_plane0_conv"
  scale_param {
    bias_term: true
  }
}
layer {
  name: "stem_conv2_plane0_relu"
  type: "ReLU"
  bottom: "stem_conv2_plane0_conv"
  top: "stem_conv2_plane0_conv"
}
layer {
  name: "stem_conv3_plane0_conv"
  type: "Convolution"
  bottom: "stem_conv2_plane0_conv"
  top: "stem_conv3_plane0_conv"
  param {
    name: "par_stem_conv3_plane0_conv_w"
  }
  param {
    name: "par_stem_conv3_plane0_conv_b"
  }
  convolution_param {
    num_output: 32
    kernel_size: 3
    stride: 2
    weight_filler {
      type: "msra"
    }
    bias_filler {
      type: "constant"
      value: 0
    }
    pad_h: 0
    pad_w: 0
  }
}
layer {
  name: "stem_conv3_plane0_bn"
  type: "BatchNorm"
  bottom: "stem_conv3_plane0_conv"
  top: "stem_conv3_plane0_conv"
  param {
    lr_mult: 0
  }
  param {
    lr_mult: 0
  }
  param {
    lr_mult: 0
  }
  batch_norm_param {
    use_global_stats: false
  }
}
layer {
  name: "stem_conv3_plane0_scale"
  type: "Scale"
  bottom: "stem_conv3_plane0_conv"
  top: "stem_conv3_plane0_conv"
  scale_param {
    bias_term: true
  }
}
layer {
  name: "stem_conv3_plane0_relu"
  type: "ReLU"
  bottom: "stem_conv3_plane0_conv"
  top: "stem_conv3_plane0_conv"
}
layer {
  name: "stem_mp1_plane0"
  type: "Pooling"
  bottom: "stem_conv3_plane0_conv"
  top: "stem_mp1_plane0"
  pooling_param {
    pool: MAX
    kernel_size: 3
    stride: 2
    pad_h: 0
    pad_w: 0
  }
}
layer {
  name: "stem_conv4_plane0_conv"
  type: "Convolution"
  bottom: "stem_conv3_plane0_conv"
  top: "stem_conv4_plane0_conv"
  param {
    name: "par_stem_conv4_plane0_conv_w"
  }
  param {
    name: "par_stem_conv4_plane0_conv_b"
  }
  convolution_param {
    num_output: 32
    kernel_size: 3
    stride: 2
    weight_filler {
      type: "msra"
    }
    bias_filler {
      type: "constant"
      value: 0
    }
    pad_h: 0
    pad_w: 0
  }
}
layer {
  name: "stem_conv4_plane0_bn"
  type: "BatchNorm"
  bottom: "stem_conv4_plane0_conv"
  top: "stem_conv4_plane0_conv"
  param {
    lr_mult: 0
  }
  param {
    lr_mult: 0
  }
  param {
    lr_mult: 0
  }
  batch_norm_param {
    use_global_stats: false
  }
}
layer {
  name: "stem_conv4_plane0_scale"
  type: "Scale"
  bottom: "stem_conv4_plane0_conv"
  top: "stem_conv4_plane0_conv"
  scale_param {
    bias_term: true
  }
}
layer {
  name: "stem_conv4_plane0_relu"
  type: "ReLU"
  bottom: "stem_conv4_plane0_conv"
  top: "stem_conv4_plane0_conv"
}
layer {
  name: "stem_concat_plane0_concat"
  type: "Concat"
  bottom: "stem_mp1_plane0"
  bottom: "stem_conv4_plane0_conv"
  top: "stem_concat_plane0_concat"
  concat_param {
    axis: 1
  }
}
layer {
  name: "stem_conv5a_plane0_conv"
  type: "Convolution"
  bottom: "stem_concat_plane0_concat"
  top: "stem_conv5a_plane0_conv"
  param {
    name: "par_stem_conv5a_plane0_conv_w"
  }
  param {
    name: "par_stem_conv5a_plane0_conv_b"
  }
  convolution_param {
    num_output: 64
    kernel_size: 1
    stride: 1
    weight_filler {
      type: "msra"
    }
    bias_filler {
      type: "constant"
      value: 0
    }
    pad_h: 0
    pad_w: 0
  }
}
layer {
  name: "stem_conv5a_plane0_bn"
  type: "BatchNorm"
  bottom: "stem_conv5a_plane0_conv"
  top: "stem_conv5a_plane0_conv"
  param {
    lr_mult: 0
  }
  param {
    lr_mult: 0
  }
  param {
    lr_mult: 0
  }
  batch_norm_param {
    use_global_stats: false
  }
}
layer {
  name: "stem_conv5a_plane0_scale"
  type: "Scale"
  bottom: "stem_conv5a_plane0_conv"
  top: "stem_conv5a_plane0_conv"
  scale_param {
    bias_term: true
  }
}
layer {
  name: "stem_conv5a_plane0_relu"
  type: "ReLU"
  bottom: "stem_conv5a_plane0_conv"
  top: "stem_conv5a_plane0_conv"
}
layer {
  name: "stem_conv5b_plane0_conv"
  type: "Convolution"
  bottom: "stem_conv5a_plane0_conv"
  top: "stem_conv5b_plane0_conv"
  param {
    name: "par_stem_conv5b_plane0_conv_w"
  }
  param {
    name: "par_stem_conv5b_plane0_conv_b"
  }
  convolution_param {
    num_output: 64
    stride: 1
    weight_filler {
      type: "msra"
    }
    bias_filler {
      type: "constant"
      value: 0
    }
    pad_h: 0
    pad_w: 3
    kernel_h: 1
    kernel_w: 7
  }
}
layer {
  name: "stem_conv5b_plane0_bn"
  type: "BatchNorm"
  bottom: "stem_conv5b_plane0_conv"
  top: "stem_conv5b_plane0_conv"
  param {
    lr_mult: 0
  }
  param {
    lr_mult: 0
  }
  param {
    lr_mult: 0
  }
  batch_norm_param {
    use_global_stats: false
  }
}
layer {
  name: "stem_conv5b_plane0_scale"
  type: "Scale"
  bottom: "stem_conv5b_plane0_conv"
  top: "stem_conv5b_plane0_conv"
  scale_param {
    bias_term: true
  }
}
layer {
  name: "stem_conv5b_plane0_relu"
  type: "ReLU"
  bottom: "stem_conv5b_plane0_conv"
  top: "stem_conv5b_plane0_conv"
}
layer {
  name: "stem_conv5c_plane0_conv"
  type: "Convolution"
  bottom: "stem_conv5b_plane0_conv"
  top: "stem_conv5c_plane0_conv"
  param {
    name: "par_stem_conv5c_plane0_conv_w"
  }
  param {
    name: "par_stem_conv5c_plane0_conv_b"
  }
  convolution_param {
    num_output: 64
    stride: 1
    weight_filler {
      type: "msra"
    }
    bias_filler {
      type: "constant"
      value: 0
    }
    pad_h: 3
    pad_w: 0
    kernel_h: 7
    kernel_w: 1
  }
}
layer {
  name: "stem_conv5c_plane0_bn"
  type: "BatchNorm"
  bottom: "stem_conv5c_plane0_conv"
  top: "stem_conv5c_plane0_conv"
  param {
    lr_mult: 0
  }
  param {
    lr_mult: 0
  }
  param {
    lr_mult: 0
  }
  batch_norm_param {
    use_global_stats: false
  }
}
layer {
  name: "stem_conv5c_plane0_scale"
  type: "Scale"
  bottom: "stem_conv5c_plane0_conv"
  top: "stem_conv5c_plane0_conv"
  scale_param {
    bias_term: true
  }
}
layer {
  name: "stem_conv5c_plane0_relu"
  type: "ReLU"
  bottom: "stem_conv5c_plane0_conv"
  top: "stem_conv5c_plane0_conv"
}
layer {
  name: "stem_conv5d_plane0_conv"
  type: "Convolution"
  bottom: "stem_conv5c_plane0_conv"
  top: "stem_conv5d_plane0_conv"
  param {
    name: "par_stem_conv5d_plane0_conv_w"
  }
  param {
    name: "par_stem_conv5d_plane0_conv_b"
  }
  convolution_param {
    num_output: 64
    kernel_size: 3
    stride: 1
    weight_filler {
      type: "msra"
    }
    bias_filler {
      type: "constant"
      value: 0
    }
    pad_h: 1
    pad_w: 1
  }
}
layer {
  name: "stem_conv5d_plane0_bn"
  type: "BatchNorm"
  bottom: "stem_conv5d_plane0_conv"
  top: "stem_conv5d_plane0_conv"
  param {
    lr_mult: 0
  }
  param {
    lr_mult: 0
  }
  param {
    lr_mult: 0
  }
  batch_norm_param {
    use_global_stats: false
  }
}
layer {
  name: "stem_conv5d_plane0_scale"
  type: "Scale"
  bottom: "stem_conv5d_plane0_conv"
  top: "stem_conv5d_plane0_conv"
  scale_param {
    bias_term: true
  }
}
layer {
  name: "stem_conv5d_plane0_relu"
  type: "ReLU"
  bottom: "stem_conv5d_plane0_conv"
  top: "stem_conv5d_plane0_conv"
}
layer {
  name: "stem_conv6a_plane0_conv"
  type: "Convolution"
  bottom: "stem_concat_plane0_concat"
  top: "stem_conv6a_plane0_conv"
  param {
    name: "par_stem_conv6a_plane0_conv_w"
  }
  param {
    name: "par_stem_conv6a_plane0_conv_b"
  }
  convolution_param {
    num_output: 96
    kernel_size: 1
    stride: 1
    weight_filler {
      type: "msra"
    }
    bias_filler {
      type: "constant"
      value: 0
    }
    pad_h: 0
    pad_w: 0
  }
}
layer {
  name: "stem_conv6a_plane0_bn"
  type: "BatchNorm"
  bottom: "stem_conv6a_plane0_conv"
  top: "stem_conv6a_plane0_conv"
  param {
    lr_mult: 0
  }
  param {
    lr_mult: 0
  }
  param {
    lr_mult: 0
  }
  batch_norm_param {
    use_global_stats: false
  }
}
layer {
  name: "stem_conv6a_plane0_scale"
  type: "Scale"
  bottom: "stem_conv6a_plane0_conv"
  top: "stem_conv6a_plane0_conv"
  scale_param {
    bias_term: true
  }
}
layer {
  name: "stem_conv6a_plane0_relu"
  type: "ReLU"
  bottom: "stem_conv6a_plane0_conv"
  top: "stem_conv6a_plane0_conv"
}
layer {
  name: "stem_conv6b_plane0_conv"
  type: "Convolution"
  bottom: "stem_conv6a_plane0_conv"
  top: "stem_conv6b_plane0_conv"
  param {
    name: "par_stem_conv6b_plane0_conv_w"
  }
  param {
    name: "par_stem_conv6b_plane0_conv_b"
  }
  convolution_param {
    num_output: 96
    kernel_size: 3
    stride: 1
    weight_filler {
      type: "msra"
    }
    bias_filler {
      type: "constant"
      value: 0
    }
    pad_h: 1
    pad_w: 1
  }
}
layer {
  name: "stem_conv6b_plane0_bn"
  type: "BatchNorm"
  bottom: "stem_conv6b_plane0_conv"
  top: "stem_conv6b_plane0_conv"
  param {
    lr_mult: 0
  }
  param {
    lr_mult: 0
  }
  param {
    lr_mult: 0
  }
  batch_norm_param {
    use_global_stats: false
  }
}
layer {
  name: "stem_conv6b_plane0_scale"
  type: "Scale"
  bottom: "stem_conv6b_plane0_conv"
  top: "stem_conv6b_plane0_conv"
  scale_param {
    bias_term: true
  }
}
layer {
  name: "stem_conv6b_plane0_relu"
  type: "ReLU"
  bottom: "stem_conv6b_plane0_conv"
  top: "stem_conv6b_plane0_conv"
}
layer {
  name: "stem_concat2_plane0_concat"
  type: "Concat"
  bottom: "stem_conv5d_plane0_conv"
  bottom: "stem_conv6b_plane0_conv"
  top: "stem_concat2_plane0_concat"
  concat_param {
    axis: 1
  }
}
layer {
  name: "stem_conv7_plane0_conv"
  type: "Convolution"
  bottom: "stem_concat2_plane0_concat"
  top: "stem_conv7_plane0_conv"
  param {
    name: "par_stem_conv7_plane0_conv_w"
  }
  param {
    name: "par_stem_conv7_plane0_conv_b"
  }
  convolution_param {
    num_output: 192
    kernel_size: 3
    stride: 1
    weight_filler {
      type: "msra"
    }
    bias_filler {
      type: "constant"
      value: 0
    }
    pad_h: 0
    pad_w: 0
  }
}
layer {
  name: "stem_conv7_plane0_bn"
  type: "BatchNorm"
  bottom: "stem_conv7_plane0_conv"
  top: "stem_conv7_plane0_conv"
  param {
    lr_mult: 0
  }
  param {
    lr_mult: 0
  }
  param {
    lr_mult: 0
  }
  batch_norm_param {
    use_global_stats: false
  }
}
layer {
  name: "stem_conv7_plane0_scale"
  type: "Scale"
  bottom: "stem_conv7_plane0_conv"
  top: "stem_conv7_plane0_conv"
  scale_param {
    bias_term: true
  }
}
layer {
  name: "stem_conv7_plane0_relu"
  type: "ReLU"
  bottom: "stem_conv7_plane0_conv"
  top: "stem_conv7_plane0_conv"
}
layer {
  name: "stem_mp7_plane0"
  type: "Pooling"
  bottom: "stem_concat2_plane0_concat"
  top: "stem_mp7_plane0"
  pooling_param {
    pool: MAX
    kernel_size: 3
    stride: 1
    pad_h: 0
    pad_w: 0
  }
}
layer {
  name: "stem_concat3_plane0_concat"
  type: "Concat"
  bottom: "stem_conv7_plane0_conv"
  bottom: "stem_mp7_plane0"
  top: "stem_concat3_plane0_concat"
  concat_param {
    axis: 1
  }
}
layer {
  name: "ia1_plane0_IA_bypass"
  type: "Convolution"
  bottom: "stem_concat3_plane0_concat"
  top: "ia1_plane0_IA_bypass"
  convolution_param {
    num_output: 256
    bias_term: false
    pad: 0
    kernel_size: 1
    stride: 1
    weight_filler {
      type: "msra"
    }
  }
}
layer {
  name: "ia1_plane0_IA_conva_conv"
  type: "Convolution"
  bottom: "stem_concat3_plane0_concat"
  top: "ia1_plane0_IA_conva_conv"
  param {
    name: "par_ia1_plane0_IA_conva_conv_w"
  }
  param {
    name: "par_ia1_plane0_IA_conva_conv_b"
  }
  convolution_param {
    num_output: 32
    kernel_size: 1
    stride: 1
    weight_filler {
      type: "msra"
    }
    bias_filler {
      type: "constant"
      value: 0
    }
    pad_h: 0
    pad_w: 0
  }
}
layer {
  name: "ia1_plane0_IA_conva_relu"
  type: "ReLU"
  bottom: "ia1_plane0_IA_conva_conv"
  top: "ia1_plane0_IA_conva_conv"
}
layer {
  name: "ia1_plane0_IA_convb1_conv"
  type: "Convolution"
  bottom: "stem_concat3_plane0_concat"
  top: "ia1_plane0_IA_convb1_conv"
  param {
    name: "par_ia1_plane0_IA_convb1_conv_w"
  }
  param {
    name: "par_ia1_plane0_IA_convb1_conv_b"
  }
  convolution_param {
    num_output: 32
    kernel_size: 1
    stride: 1
    weight_filler {
      type: "msra"
    }
    bias_filler {
      type: "constant"
      value: 0
    }
    pad_h: 0
    pad_w: 0
  }
}
layer {
  name: "ia1_plane0_IA_convb1_relu"
  type: "ReLU"
  bottom: "ia1_plane0_IA_convb1_conv"
  top: "ia1_plane0_IA_convb1_conv"
}
layer {
  name: "ia1_plane0_IA_convb2_conv"
  type: "Convolution"
  bottom: "ia1_plane0_IA_convb1_conv"
  top: "ia1_plane0_IA_convb2_conv"
  param {
    name: "par_ia1_plane0_IA_convb2_conv_w"
  }
  param {
    name: "par_ia1_plane0_IA_convb2_conv_b"
  }
  convolution_param {
    num_output: 32
    kernel_size: 3
    stride: 1
    weight_filler {
      type: "msra"
    }
    bias_filler {
      type: "constant"
      value: 0
    }
    pad_h: 1
    pad_w: 1
  }
}
layer {
  name: "ia1_plane0_IA_convb2_relu"
  type: "ReLU"
  bottom: "ia1_plane0_IA_convb2_conv"
  top: "ia1_plane0_IA_convb2_conv"
}
layer {
  name: "ia1_plane0_IA_convc1_conv"
  type: "Convolution"
  bottom: "stem_concat3_plane0_concat"
  top: "ia1_plane0_IA_convc1_conv"
  param {
    name: "par_ia1_plane0_IA_convc1_conv_w"
  }
  param {
    name: "par_ia1_plane0_IA_convc1_conv_b"
  }
  convolution_param {
    num_output: 32
    kernel_size: 1
    stride: 1
    weight_filler {
      type: "msra"
    }
    bias_filler {
      type: "constant"
      value: 0
    }
    pad_h: 0
    pad_w: 0
  }
}
layer {
  name: "ia1_plane0_IA_convc1_relu"
  type: "ReLU"
  bottom: "ia1_plane0_IA_convc1_conv"
  top: "ia1_plane0_IA_convc1_conv"
}
layer {
  name: "ia1_plane0_IA_convc2_conv"
  type: "Convolution"
  bottom: "ia1_plane0_IA_convc1_conv"
  top: "ia1_plane0_IA_convc2_conv"
  param {
    name: "par_ia1_plane0_IA_convc2_conv_w"
  }
  param {
    name: "par_ia1_plane0_IA_convc2_conv_b"
  }
  convolution_param {
    num_output: 32
    kernel_size: 3
    stride: 1
    weight_filler {
      type: "msra"
    }
    bias_filler {
      type: "constant"
      value: 0
    }
    pad_h: 1
    pad_w: 1
  }
}
layer {
  name: "ia1_plane0_IA_convc2_relu"
  type: "ReLU"
  bottom: "ia1_plane0_IA_convc2_conv"
  top: "ia1_plane0_IA_convc2_conv"
}
layer {
  name: "ia1_plane0_IA_convc3_conv"
  type: "Convolution"
  bottom: "ia1_plane0_IA_convc2_conv"
  top: "ia1_plane0_IA_convc3_conv"
  param {
    name: "par_ia1_plane0_IA_convc3_conv_w"
  }
  param {
    name: "par_ia1_plane0_IA_convc3_conv_b"
  }
  convolution_param {
    num_output: 32
    kernel_size: 3
    stride: 1
    weight_filler {
      type: "msra"
    }
    bias_filler {
      type: "constant"
      value: 0
    }
    pad_h: 1
    pad_w: 1
  }
}
layer {
  name: "ia1_plane0_IA_convc3_relu"
  type: "ReLU"
  bottom: "ia1_plane0_IA_convc3_conv"
  top: "ia1_plane0_IA_convc3_conv"
}
layer {
  name: "ia1_plane0_IA_concat_concat"
  type: "Concat"
  bottom: "ia1_plane0_IA_conva_conv"
  bottom: "ia1_plane0_IA_convb2_conv"
  bottom: "ia1_plane0_IA_convc3_conv"
  top: "ia1_plane0_IA_concat_concat"
  concat_param {
    axis: 1
  }
}
layer {
  name: "ia1_plane0_IA_convd_conv"
  type: "Convolution"
  bottom: "ia1_plane0_IA_concat_concat"
  top: "ia1_plane0_IA_convd_conv"
  param {
    name: "par_ia1_plane0_IA_convd_conv_w"
  }
  param {
    name: "par_ia1_plane0_IA_convd_conv_b"
  }
  convolution_param {
    num_output: 256
    kernel_size: 1
    stride: 1
    weight_filler {
      type: "msra"
    }
    bias_filler {
      type: "constant"
      value: 0
    }
    pad_h: 0
    pad_w: 0
  }
}
layer {
  name: "ia1_plane0_IA_convd_relu"
  type: "ReLU"
  bottom: "ia1_plane0_IA_convd_conv"
  top: "ia1_plane0_IA_convd_conv"
}
layer {
  name: "ia1_plane0_IA_eltwise"
  type: "Eltwise"
  bottom: "ia1_plane0_IA_bypass"
  bottom: "ia1_plane0_IA_convd_conv"
  top: "ia1_plane0_IA_eltwise"
  eltwise_param {
    operation: SUM
  }
}
layer {
  name: "ia1_plane0_IA_eltwise_relu"
  type: "ReLU"
  bottom: "ia1_plane0_IA_eltwise"
  top: "ia1_plane0_IA_eltwise"
}
layer {
  name: "ia2_plane0_IA_conva_conv"
  type: "Convolution"
  bottom: "ia1_plane0_IA_eltwise"
  top: "ia2_plane0_IA_conva_conv"
  param {
    name: "par_ia2_plane0_IA_conva_conv_w"
  }
  param {
    name: "par_ia2_plane0_IA_conva_conv_b"
  }
  convolution_param {
    num_output: 32
    kernel_size: 1
    stride: 1
    weight_filler {
      type: "msra"
    }
    bias_filler {
      type: "constant"
      value: 0
    }
    pad_h: 0
    pad_w: 0
  }
}
layer {
  name: "ia2_plane0_IA_conva_relu"
  type: "ReLU"
  bottom: "ia2_plane0_IA_conva_conv"
  top: "ia2_plane0_IA_conva_conv"
}
layer {
  name: "ia2_plane0_IA_convb1_conv"
  type: "Convolution"
  bottom: "ia1_plane0_IA_eltwise"
  top: "ia2_plane0_IA_convb1_conv"
  param {
    name: "par_ia2_plane0_IA_convb1_conv_w"
  }
  param {
    name: "par_ia2_plane0_IA_convb1_conv_b"
  }
  convolution_param {
    num_output: 32
    kernel_size: 1
    stride: 1
    weight_filler {
      type: "msra"
    }
    bias_filler {
      type: "constant"
      value: 0
    }
    pad_h: 0
    pad_w: 0
  }
}
layer {
  name: "ia2_plane0_IA_convb1_relu"
  type: "ReLU"
  bottom: "ia2_plane0_IA_convb1_conv"
  top: "ia2_plane0_IA_convb1_conv"
}
layer {
  name: "ia2_plane0_IA_convb2_conv"
  type: "Convolution"
  bottom: "ia2_plane0_IA_convb1_conv"
  top: "ia2_plane0_IA_convb2_conv"
  param {
    name: "par_ia2_plane0_IA_convb2_conv_w"
  }
  param {
    name: "par_ia2_plane0_IA_convb2_conv_b"
  }
  convolution_param {
    num_output: 32
    kernel_size: 3
    stride: 1
    weight_filler {
      type: "msra"
    }
    bias_filler {
      type: "constant"
      value: 0
    }
    pad_h: 1
    pad_w: 1
  }
}
layer {
  name: "ia2_plane0_IA_convb2_relu"
  type: "ReLU"
  bottom: "ia2_plane0_IA_convb2_conv"
  top: "ia2_plane0_IA_convb2_conv"
}
layer {
  name: "ia2_plane0_IA_convc1_conv"
  type: "Convolution"
  bottom: "ia1_plane0_IA_eltwise"
  top: "ia2_plane0_IA_convc1_conv"
  param {
    name: "par_ia2_plane0_IA_convc1_conv_w"
  }
  param {
    name: "par_ia2_plane0_IA_convc1_conv_b"
  }
  convolution_param {
    num_output: 32
    kernel_size: 1
    stride: 1
    weight_filler {
      type: "msra"
    }
    bias_filler {
      type: "constant"
      value: 0
    }
    pad_h: 0
    pad_w: 0
  }
}
layer {
  name: "ia2_plane0_IA_convc1_relu"
  type: "ReLU"
  bottom: "ia2_plane0_IA_convc1_conv"
  top: "ia2_plane0_IA_convc1_conv"
}
layer {
  name: "ia2_plane0_IA_convc2_conv"
  type: "Convolution"
  bottom: "ia2_plane0_IA_convc1_conv"
  top: "ia2_plane0_IA_convc2_conv"
  param {
    name: "par_ia2_plane0_IA_convc2_conv_w"
  }
  param {
    name: "par_ia2_plane0_IA_convc2_conv_b"
  }
  convolution_param {
    num_output: 32
    kernel_size: 3
    stride: 1
    weight_filler {
      type: "msra"
    }
    bias_filler {
      type: "constant"
      value: 0
    }
    pad_h: 1
    pad_w: 1
  }
}
layer {
  name: "ia2_plane0_IA_convc2_relu"
  type: "ReLU"
  bottom: "ia2_plane0_IA_convc2_conv"
  top: "ia2_plane0_IA_convc2_conv"
}
layer {
  name: "ia2_plane0_IA_convc3_conv"
  type: "Convolution"
  bottom: "ia2_plane0_IA_convc2_conv"
  top: "ia2_plane0_IA_convc3_conv"
  param {
    name: "par_ia2_plane0_IA_convc3_conv_w"
  }
  param {
    name: "par_ia2_plane0_IA_convc3_conv_b"
  }
  convolution_param {
    num_output: 32
    kernel_size: 3
    stride: 1
    weight_filler {
      type: "msra"
    }
    bias_filler {
      type: "constant"
      value: 0
    }
    pad_h: 1
    pad_w: 1
  }
}
layer {
  name: "ia2_plane0_IA_convc3_relu"
  type: "ReLU"
  bottom: "ia2_plane0_IA_convc3_conv"
  top: "ia2_plane0_IA_convc3_conv"
}
layer {
  name: "ia2_plane0_IA_concat_concat"
  type: "Concat"
  bottom: "ia2_plane0_IA_conva_conv"
  bottom: "ia2_plane0_IA_convb2_conv"
  bottom: "ia2_plane0_IA_convc3_conv"
  top: "ia2_plane0_IA_concat_concat"
  concat_param {
    axis: 1
  }
}
layer {
  name: "ia2_plane0_IA_convd_conv"
  type: "Convolution"
  bottom: "ia2_plane0_IA_concat_concat"
  top: "ia2_plane0_IA_convd_conv"
  param {
    name: "par_ia2_plane0_IA_convd_conv_w"
  }
  param {
    name: "par_ia2_plane0_IA_convd_conv_b"
  }
  convolution_param {
    num_output: 256
    kernel_size: 1
    stride: 1
    weight_filler {
      type: "msra"
    }
    bias_filler {
      type: "constant"
      value: 0
    }
    pad_h: 0
    pad_w: 0
  }
}
layer {
  name: "ia2_plane0_IA_convd_relu"
  type: "ReLU"
  bottom: "ia2_plane0_IA_convd_conv"
  top: "ia2_plane0_IA_convd_conv"
}
layer {
  name: "ia2_plane0_IA_eltwise"
  type: "Eltwise"
  bottom: "ia1_plane0_IA_eltwise"
  bottom: "ia2_plane0_IA_convd_conv"
  top: "ia2_plane0_IA_eltwise"
  eltwise_param {
    operation: SUM
  }
}
layer {
  name: "ia2_plane0_IA_eltwise_relu"
  type: "ReLU"
  bottom: "ia2_plane0_IA_eltwise"
  top: "ia2_plane0_IA_eltwise"
}
layer {
  name: "ia3_plane0_IA_conva_conv"
  type: "Convolution"
  bottom: "ia2_plane0_IA_eltwise"
  top: "ia3_plane0_IA_conva_conv"
  param {
    name: "par_ia3_plane0_IA_conva_conv_w"
  }
  param {
    name: "par_ia3_plane0_IA_conva_conv_b"
  }
  convolution_param {
    num_output: 32
    kernel_size: 1
    stride: 1
    weight_filler {
      type: "msra"
    }
    bias_filler {
      type: "constant"
      value: 0
    }
    pad_h: 0
    pad_w: 0
  }
}
layer {
  name: "ia3_plane0_IA_conva_relu"
  type: "ReLU"
  bottom: "ia3_plane0_IA_conva_conv"
  top: "ia3_plane0_IA_conva_conv"
}
layer {
  name: "ia3_plane0_IA_convb1_conv"
  type: "Convolution"
  bottom: "ia2_plane0_IA_eltwise"
  top: "ia3_plane0_IA_convb1_conv"
  param {
    name: "par_ia3_plane0_IA_convb1_conv_w"
  }
  param {
    name: "par_ia3_plane0_IA_convb1_conv_b"
  }
  convolution_param {
    num_output: 32
    kernel_size: 1
    stride: 1
    weight_filler {
      type: "msra"
    }
    bias_filler {
      type: "constant"
      value: 0
    }
    pad_h: 0
    pad_w: 0
  }
}
layer {
  name: "ia3_plane0_IA_convb1_relu"
  type: "ReLU"
  bottom: "ia3_plane0_IA_convb1_conv"
  top: "ia3_plane0_IA_convb1_conv"
}
layer {
  name: "ia3_plane0_IA_convb2_conv"
  type: "Convolution"
  bottom: "ia3_plane0_IA_convb1_conv"
  top: "ia3_plane0_IA_convb2_conv"
  param {
    name: "par_ia3_plane0_IA_convb2_conv_w"
  }
  param {
    name: "par_ia3_plane0_IA_convb2_conv_b"
  }
  convolution_param {
    num_output: 32
    kernel_size: 3
    stride: 1
    weight_filler {
      type: "msra"
    }
    bias_filler {
      type: "constant"
      value: 0
    }
    pad_h: 1
    pad_w: 1
  }
}
layer {
  name: "ia3_plane0_IA_convb2_relu"
  type: "ReLU"
  bottom: "ia3_plane0_IA_convb2_conv"
  top: "ia3_plane0_IA_convb2_conv"
}
layer {
  name: "ia3_plane0_IA_convc1_conv"
  type: "Convolution"
  bottom: "ia2_plane0_IA_eltwise"
  top: "ia3_plane0_IA_convc1_conv"
  param {
    name: "par_ia3_plane0_IA_convc1_conv_w"
  }
  param {
    name: "par_ia3_plane0_IA_convc1_conv_b"
  }
  convolution_param {
    num_output: 32
    kernel_size: 1
    stride: 1
    weight_filler {
      type: "msra"
    }
    bias_filler {
      type: "constant"
      value: 0
    }
    pad_h: 0
    pad_w: 0
  }
}
layer {
  name: "ia3_plane0_IA_convc1_relu"
  type: "ReLU"
  bottom: "ia3_plane0_IA_convc1_conv"
  top: "ia3_plane0_IA_convc1_conv"
}
layer {
  name: "ia3_plane0_IA_convc2_conv"
  type: "Convolution"
  bottom: "ia3_plane0_IA_convc1_conv"
  top: "ia3_plane0_IA_convc2_conv"
  param {
    name: "par_ia3_plane0_IA_convc2_conv_w"
  }
  param {
    name: "par_ia3_plane0_IA_convc2_conv_b"
  }
  convolution_param {
    num_output: 32
    kernel_size: 3
    stride: 1
    weight_filler {
      type: "msra"
    }
    bias_filler {
      type: "constant"
      value: 0
    }
    pad_h: 1
    pad_w: 1
  }
}
layer {
  name: "ia3_plane0_IA_convc2_relu"
  type: "ReLU"
  bottom: "ia3_plane0_IA_convc2_conv"
  top: "ia3_plane0_IA_convc2_conv"
}
layer {
  name: "ia3_plane0_IA_convc3_conv"
  type: "Convolution"
  bottom: "ia3_plane0_IA_convc2_conv"
  top: "ia3_plane0_IA_convc3_conv"
  param {
    name: "par_ia3_plane0_IA_convc3_conv_w"
  }
  param {
    name: "par_ia3_plane0_IA_convc3_conv_b"
  }
  convolution_param {
    num_output: 32
    kernel_size: 3
    stride: 1
    weight_filler {
      type: "msra"
    }
    bias_filler {
      type: "constant"
      value: 0
    }
    pad_h: 1
    pad_w: 1
  }
}
layer {
  name: "ia3_plane0_IA_convc3_relu"
  type: "ReLU"
  bottom: "ia3_plane0_IA_convc3_conv"
  top: "ia3_plane0_IA_convc3_conv"
}
layer {
  name: "ia3_plane0_IA_concat_concat"
  type: "Concat"
  bottom: "ia3_plane0_IA_conva_conv"
  bottom: "ia3_plane0_IA_convb2_conv"
  bottom: "ia3_plane0_IA_convc3_conv"
  top: "ia3_plane0_IA_concat_concat"
  concat_param {
    axis: 1
  }
}
layer {
  name: "ia3_plane0_IA_convd_conv"
  type: "Convolution"
  bottom: "ia3_plane0_IA_concat_concat"
  top: "ia3_plane0_IA_convd_conv"
  param {
    name: "par_ia3_plane0_IA_convd_conv_w"
  }
  param {
    name: "par_ia3_plane0_IA_convd_conv_b"
  }
  convolution_param {
    num_output: 256
    kernel_size: 1
    stride: 1
    weight_filler {
      type: "msra"
    }
    bias_filler {
      type: "constant"
      value: 0
    }
    pad_h: 0
    pad_w: 0
  }
}
layer {
  name: "ia3_plane0_IA_convd_relu"
  type: "ReLU"
  bottom: "ia3_plane0_IA_convd_conv"
  top: "ia3_plane0_IA_convd_conv"
}
layer {
  name: "ia3_plane0_IA_eltwise"
  type: "Eltwise"
  bottom: "ia2_plane0_IA_eltwise"
  bottom: "ia3_plane0_IA_convd_conv"
  top: "ia3_plane0_IA_eltwise"
  eltwise_param {
    operation: SUM
  }
}
layer {
  name: "ia3_plane0_IA_eltwise_relu"
  type: "ReLU"
  bottom: "ia3_plane0_IA_eltwise"
  top: "ia3_plane0_IA_eltwise"
}
layer {
  name: "reducA_mpA_plane0"
  type: "Pooling"
  bottom: "ia3_plane0_IA_eltwise"
  top: "reducA_mpA_plane0"
  pooling_param {
    pool: MAX
    kernel_size: 3
    stride: 2
    pad_h: 0
    pad_w: 1
  }
}
layer {
  name: "reducA_convb_plane0_conv"
  type: "Convolution"
  bottom: "ia3_plane0_IA_eltwise"
  top: "reducA_convb_plane0_conv"
  param {
    name: "par_reducA_convb_plane0_conv_w"
  }
  param {
    name: "par_reducA_convb_plane0_conv_b"
  }
  convolution_param {
    num_output: 32
    stride: 2
    weight_filler {
      type: "msra"
    }
    bias_filler {
      type: "constant"
      value: 0
    }
    pad_h: 1
    pad_w: 1
    kernel_h: 3
    kernel_w: 3
  }
}
layer {
  name: "reducA_convb_plane0_relu"
  type: "ReLU"
  bottom: "reducA_convb_plane0_conv"
  top: "reducA_convb_plane0_conv"
}
layer {
  name: "reducA_convc1_plane0_conv"
  type: "Convolution"
  bottom: "ia3_plane0_IA_eltwise"
  top: "reducA_convc1_plane0_conv"
  param {
    name: "par_reducA_convc1_plane0_conv_w"
  }
  param {
    name: "par_reducA_convc1_plane0_conv_b"
  }
  convolution_param {
    num_output: 32
    kernel_size: 1
    stride: 1
    weight_filler {
      type: "msra"
    }
    bias_filler {
      type: "constant"
      value: 0
    }
    pad_h: 0
    pad_w: 0
  }
}
layer {
  name: "reducA_convc1_plane0_relu"
  type: "ReLU"
  bottom: "reducA_convc1_plane0_conv"
  top: "reducA_convc1_plane0_conv"
}
layer {
  name: "reducA_convc2_plane0_conv"
  type: "Convolution"
  bottom: "reducA_convc1_plane0_conv"
  top: "reducA_convc2_plane0_conv"
  param {
    name: "par_reducA_convc2_plane0_conv_w"
  }
  param {
    name: "par_reducA_convc2_plane0_conv_b"
  }
  convolution_param {
    num_output: 32
    kernel_size: 3
    stride: 1
    weight_filler {
      type: "msra"
    }
    bias_filler {
      type: "constant"
      value: 0
    }
    pad_h: 1
    pad_w: 1
  }
}
layer {
  name: "reducA_convc2_plane0_relu"
  type: "ReLU"
  bottom: "reducA_convc2_plane0_conv"
  top: "reducA_convc2_plane0_conv"
}
layer {
  name: "reducA_convc3_plane0_conv"
  type: "Convolution"
  bottom: "reducA_convc2_plane0_conv"
  top: "reducA_convc3_plane0_conv"
  param {
    name: "par_reducA_convc3_plane0_conv_w"
  }
  param {
    name: "par_reducA_convc3_plane0_conv_b"
  }
  convolution_param {
    num_output: 32
    stride: 2
    weight_filler {
      type: "msra"
    }
    bias_filler {
      type: "constant"
      value: 0
    }
    pad_h: 1
    pad_w: 1
    kernel_h: 3
    kernel_w: 3
  }
}
layer {
  name: "reducA_convc3_plane0_relu"
  type: "ReLU"
  bottom: "reducA_convc3_plane0_conv"
  top: "reducA_convc3_plane0_conv"
}
layer {
  nam
I0514 14:43:24.192103 29140 layer_factory.hpp:77] Creating layer data
I0514 14:43:24.192121 29140 net.cpp:91] Creating Layer data
I0514 14:43:24.192126 29140 net.cpp:399] data -> data
I0514 14:43:24.192149 29140 net.cpp:399] data -> label
    [95m[NORMAL][00m [0m [94m<trainProcessDriver::configure>[00m Instantiating Process ID=0 Type: SimpleFiller w/ Name: SimpleFiller
    [95m[NORMAL][00m [0m [94m<trainIOManager::prepare_input>[00m Opening a file in READ mode: /mnt/raid0/taritree/test_data/train_v4.root
    [95m[NORMAL][00m [0m [94m<trainIOManager::initialize>[00m Prepared input with 101191 entries...
I0514 14:43:25.457397 29140 heproot.cpp:19] Queuing data... (1 sec.)
I0514 14:43:25.546069 29140 net.cpp:141] Setting up data
I0514 14:43:25.546108 29140 net.cpp:148] Top shape: 10 3 756 864 (19595520)
I0514 14:43:25.546113 29140 net.cpp:148] Top shape: 10 (10)
I0514 14:43:25.546115 29140 net.cpp:156] Memory required for data: 78382120
I0514 14:43:25.546125 29140 layer_factory.hpp:77] Creating layer label_data_1_split
I0514 14:43:25.546145 29140 net.cpp:91] Creating Layer label_data_1_split
I0514 14:43:25.546150 29140 net.cpp:425] label_data_1_split <- label
I0514 14:43:25.546164 29140 net.cpp:399] label_data_1_split -> label_data_1_split_0
I0514 14:43:25.546175 29140 net.cpp:399] label_data_1_split -> label_data_1_split_1
I0514 14:43:25.546200 29140 net.cpp:141] Setting up label_data_1_split
I0514 14:43:25.546205 29140 net.cpp:148] Top shape: 10 (10)
I0514 14:43:25.546210 29140 net.cpp:148] Top shape: 10 (10)
I0514 14:43:25.546212 29140 net.cpp:156] Memory required for data: 78382200
I0514 14:43:25.546216 29140 layer_factory.hpp:77] Creating layer data_trimese
I0514 14:43:25.546227 29140 net.cpp:91] Creating Layer data_trimese
I0514 14:43:25.546231 29140 net.cpp:425] data_trimese <- data
I0514 14:43:25.546236 29140 net.cpp:399] data_trimese -> Slice1
I0514 14:43:25.546242 29140 net.cpp:399] data_trimese -> Slice2
I0514 14:43:25.546247 29140 net.cpp:399] data_trimese -> Slice3
I0514 14:43:25.546277 29140 net.cpp:141] Setting up data_trimese
I0514 14:43:25.546290 29140 net.cpp:148] Top shape: 10 1 756 864 (6531840)
I0514 14:43:25.546294 29140 net.cpp:148] Top shape: 10 1 756 864 (6531840)
I0514 14:43:25.546298 29140 net.cpp:148] Top shape: 10 1 756 864 (6531840)
I0514 14:43:25.546300 29140 net.cpp:156] Memory required for data: 156764280
I0514 14:43:25.546303 29140 layer_factory.hpp:77] Creating layer stem_conv1_plane0_conv
I0514 14:43:25.546317 29140 net.cpp:91] Creating Layer stem_conv1_plane0_conv
I0514 14:43:25.546329 29140 net.cpp:425] stem_conv1_plane0_conv <- Slice1
I0514 14:43:25.546334 29140 net.cpp:399] stem_conv1_plane0_conv -> stem_conv1_plane0_conv
I0514 14:43:25.547745 29140 net.cpp:141] Setting up stem_conv1_plane0_conv
I0514 14:43:25.547778 29140 net.cpp:148] Top shape: 10 32 377 431 (51995840)
I0514 14:43:25.547782 29140 net.cpp:156] Memory required for data: 364747640
I0514 14:43:25.547803 29140 layer_factory.hpp:77] Creating layer stem_conv1_plane0_bn
I0514 14:43:25.547816 29140 net.cpp:91] Creating Layer stem_conv1_plane0_bn
I0514 14:43:25.547819 29140 net.cpp:425] stem_conv1_plane0_bn <- stem_conv1_plane0_conv
I0514 14:43:25.547826 29140 net.cpp:386] stem_conv1_plane0_bn -> stem_conv1_plane0_conv (in-place)
I0514 14:43:25.548478 29140 net.cpp:141] Setting up stem_conv1_plane0_bn
I0514 14:43:25.548506 29140 net.cpp:148] Top shape: 10 32 377 431 (51995840)
I0514 14:43:25.548511 29140 net.cpp:156] Memory required for data: 572731000
I0514 14:43:25.548530 29140 layer_factory.hpp:77] Creating layer stem_conv1_plane0_scale
I0514 14:43:25.548542 29140 net.cpp:91] Creating Layer stem_conv1_plane0_scale
I0514 14:43:25.548547 29140 net.cpp:425] stem_conv1_plane0_scale <- stem_conv1_plane0_conv
I0514 14:43:25.548552 29140 net.cpp:386] stem_conv1_plane0_scale -> stem_conv1_plane0_conv (in-place)
I0514 14:43:25.548591 29140 layer_factory.hpp:77] Creating layer stem_conv1_plane0_scale
I0514 14:43:25.549582 29140 net.cpp:141] Setting up stem_conv1_plane0_scale
I0514 14:43:25.549604 29140 net.cpp:148] Top shape: 10 32 377 431 (51995840)
I0514 14:43:25.549608 29140 net.cpp:156] Memory required for data: 780714360
I0514 14:43:25.549618 29140 layer_factory.hpp:77] Creating layer stem_conv1_plane0_relu
I0514 14:43:25.549630 29140 net.cpp:91] Creating Layer stem_conv1_plane0_relu
I0514 14:43:25.549634 29140 net.cpp:425] stem_conv1_plane0_relu <- stem_conv1_plane0_conv
I0514 14:43:25.549640 29140 net.cpp:386] stem_conv1_plane0_relu -> stem_conv1_plane0_conv (in-place)
I0514 14:43:25.549649 29140 net.cpp:141] Setting up stem_conv1_plane0_relu
I0514 14:43:25.549652 29140 net.cpp:148] Top shape: 10 32 377 431 (51995840)
I0514 14:43:25.549655 29140 net.cpp:156] Memory required for data: 988697720
I0514 14:43:25.549659 29140 layer_factory.hpp:77] Creating layer stem_conv2_plane0_conv
I0514 14:43:25.549667 29140 net.cpp:91] Creating Layer stem_conv2_plane0_conv
I0514 14:43:25.549676 29140 net.cpp:425] stem_conv2_plane0_conv <- stem_conv1_plane0_conv
I0514 14:43:25.549681 29140 net.cpp:399] stem_conv2_plane0_conv -> stem_conv2_plane0_conv
I0514 14:43:25.550745 29140 net.cpp:141] Setting up stem_conv2_plane0_conv
I0514 14:43:25.550763 29140 net.cpp:148] Top shape: 10 32 188 215 (12934400)
I0514 14:43:25.550766 29140 net.cpp:156] Memory required for data: 1040435320
I0514 14:43:25.550779 29140 layer_factory.hpp:77] Creating layer stem_conv2_plane0_bn
I0514 14:43:25.550789 29140 net.cpp:91] Creating Layer stem_conv2_plane0_bn
I0514 14:43:25.550792 29140 net.cpp:425] stem_conv2_plane0_bn <- stem_conv2_plane0_conv
I0514 14:43:25.550797 29140 net.cpp:386] stem_conv2_plane0_bn -> stem_conv2_plane0_conv (in-place)
I0514 14:43:25.550942 29140 net.cpp:141] Setting up stem_conv2_plane0_bn
I0514 14:43:25.550948 29140 net.cpp:148] Top shape: 10 32 188 215 (12934400)
I0514 14:43:25.550951 29140 net.cpp:156] Memory required for data: 1092172920
I0514 14:43:25.550959 29140 layer_factory.hpp:77] Creating layer stem_conv2_plane0_scale
I0514 14:43:25.550966 29140 net.cpp:91] Creating Layer stem_conv2_plane0_scale
I0514 14:43:25.550969 29140 net.cpp:425] stem_conv2_plane0_scale <- stem_conv2_plane0_conv
I0514 14:43:25.550981 29140 net.cpp:386] stem_conv2_plane0_scale -> stem_conv2_plane0_conv (in-place)
I0514 14:43:25.551009 29140 layer_factory.hpp:77] Creating layer stem_conv2_plane0_scale
I0514 14:43:25.551117 29140 net.cpp:141] Setting up stem_conv2_plane0_scale
I0514 14:43:25.551125 29140 net.cpp:148] Top shape: 10 32 188 215 (12934400)
I0514 14:43:25.551126 29140 net.cpp:156] Memory required for data: 1143910520
I0514 14:43:25.551141 29140 layer_factory.hpp:77] Creating layer stem_conv2_plane0_relu
I0514 14:43:25.551146 29140 net.cpp:91] Creating Layer stem_conv2_plane0_relu
I0514 14:43:25.551149 29140 net.cpp:425] stem_conv2_plane0_relu <- stem_conv2_plane0_conv
I0514 14:43:25.551153 29140 net.cpp:386] stem_conv2_plane0_relu -> stem_conv2_plane0_conv (in-place)
I0514 14:43:25.551158 29140 net.cpp:141] Setting up stem_conv2_plane0_relu
I0514 14:43:25.551162 29140 net.cpp:148] Top shape: 10 32 188 215 (12934400)
I0514 14:43:25.551165 29140 net.cpp:156] Memory required for data: 1195648120
I0514 14:43:25.551168 29140 layer_factory.hpp:77] Creating layer stem_conv3_plane0_conv
I0514 14:43:25.551177 29140 net.cpp:91] Creating Layer stem_conv3_plane0_conv
I0514 14:43:25.551179 29140 net.cpp:425] stem_conv3_plane0_conv <- stem_conv2_plane0_conv
I0514 14:43:25.551184 29140 net.cpp:399] stem_conv3_plane0_conv -> stem_conv3_plane0_conv
I0514 14:43:25.551559 29140 net.cpp:141] Setting up stem_conv3_plane0_conv
I0514 14:43:25.551566 29140 net.cpp:148] Top shape: 10 32 93 107 (3184320)
I0514 14:43:25.551569 29140 net.cpp:156] Memory required for data: 1208385400
I0514 14:43:25.551575 29140 layer_factory.hpp:77] Creating layer stem_conv3_plane0_bn
I0514 14:43:25.551583 29140 net.cpp:91] Creating Layer stem_conv3_plane0_bn
I0514 14:43:25.551585 29140 net.cpp:425] stem_conv3_plane0_bn <- stem_conv3_plane0_conv
I0514 14:43:25.551590 29140 net.cpp:386] stem_conv3_plane0_bn -> stem_conv3_plane0_conv (in-place)
I0514 14:43:25.551709 29140 net.cpp:141] Setting up stem_conv3_plane0_bn
I0514 14:43:25.551715 29140 net.cpp:148] Top shape: 10 32 93 107 (3184320)
I0514 14:43:25.551718 29140 net.cpp:156] Memory required for data: 1221122680
I0514 14:43:25.551726 29140 layer_factory.hpp:77] Creating layer stem_conv3_plane0_scale
I0514 14:43:25.551733 29140 net.cpp:91] Creating Layer stem_conv3_plane0_scale
I0514 14:43:25.551735 29140 net.cpp:425] stem_conv3_plane0_scale <- stem_conv3_plane0_conv
I0514 14:43:25.551739 29140 net.cpp:386] stem_conv3_plane0_scale -> stem_conv3_plane0_conv (in-place)
I0514 14:43:25.551764 29140 layer_factory.hpp:77] Creating layer stem_conv3_plane0_scale
I0514 14:43:25.551848 29140 net.cpp:141] Setting up stem_conv3_plane0_scale
I0514 14:43:25.551854 29140 net.cpp:148] Top shape: 10 32 93 107 (3184320)
I0514 14:43:25.551857 29140 net.cpp:156] Memory required for data: 1233859960
I0514 14:43:25.551862 29140 layer_factory.hpp:77] Creating layer stem_conv3_plane0_relu
I0514 14:43:25.551867 29140 net.cpp:91] Creating Layer stem_conv3_plane0_relu
I0514 14:43:25.551870 29140 net.cpp:425] stem_conv3_plane0_relu <- stem_conv3_plane0_conv
I0514 14:43:25.551874 29140 net.cpp:386] stem_conv3_plane0_relu -> stem_conv3_plane0_conv (in-place)
I0514 14:43:25.551878 29140 net.cpp:141] Setting up stem_conv3_plane0_relu
I0514 14:43:25.551882 29140 net.cpp:148] Top shape: 10 32 93 107 (3184320)
I0514 14:43:25.551885 29140 net.cpp:156] Memory required for data: 1246597240
I0514 14:43:25.551888 29140 layer_factory.hpp:77] Creating layer stem_conv3_plane0_conv_stem_conv3_plane0_relu_0_split
I0514 14:43:25.551893 29140 net.cpp:91] Creating Layer stem_conv3_plane0_conv_stem_conv3_plane0_relu_0_split
I0514 14:43:25.551897 29140 net.cpp:425] stem_conv3_plane0_conv_stem_conv3_plane0_relu_0_split <- stem_conv3_plane0_conv
I0514 14:43:25.551900 29140 net.cpp:399] stem_conv3_plane0_conv_stem_conv3_plane0_relu_0_split -> stem_conv3_plane0_conv_stem_conv3_plane0_relu_0_split_0
I0514 14:43:25.551905 29140 net.cpp:399] stem_conv3_plane0_conv_stem_conv3_plane0_relu_0_split -> stem_conv3_plane0_conv_stem_conv3_plane0_relu_0_split_1
I0514 14:43:25.551933 29140 net.cpp:141] Setting up stem_conv3_plane0_conv_stem_conv3_plane0_relu_0_split
I0514 14:43:25.551937 29140 net.cpp:148] Top shape: 10 32 93 107 (3184320)
I0514 14:43:25.551941 29140 net.cpp:148] Top shape: 10 32 93 107 (3184320)
I0514 14:43:25.551944 29140 net.cpp:156] Memory required for data: 1272071800
I0514 14:43:25.551949 29140 layer_factory.hpp:77] Creating layer stem_mp1_plane0
I0514 14:43:25.551955 29140 net.cpp:91] Creating Layer stem_mp1_plane0
I0514 14:43:25.551964 29140 net.cpp:425] stem_mp1_plane0 <- stem_conv3_plane0_conv_stem_conv3_plane0_relu_0_split_0
I0514 14:43:25.551967 29140 net.cpp:399] stem_mp1_plane0 -> stem_mp1_plane0
I0514 14:43:25.552001 29140 net.cpp:141] Setting up stem_mp1_plane0
I0514 14:43:25.552007 29140 net.cpp:148] Top shape: 10 32 46 53 (780160)
I0514 14:43:25.552011 29140 net.cpp:156] Memory required for data: 1275192440
I0514 14:43:25.552013 29140 layer_factory.hpp:77] Creating layer stem_conv4_plane0_conv
I0514 14:43:25.552021 29140 net.cpp:91] Creating Layer stem_conv4_plane0_conv
I0514 14:43:25.552024 29140 net.cpp:425] stem_conv4_plane0_conv <- stem_conv3_plane0_conv_stem_conv3_plane0_relu_0_split_1
I0514 14:43:25.552029 29140 net.cpp:399] stem_conv4_plane0_conv -> stem_conv4_plane0_conv
I0514 14:43:25.552784 29140 net.cpp:141] Setting up stem_conv4_plane0_conv
I0514 14:43:25.552796 29140 net.cpp:148] Top shape: 10 32 46 53 (780160)
I0514 14:43:25.552799 29140 net.cpp:156] Memory required for data: 1278313080
I0514 14:43:25.552806 29140 layer_factory.hpp:77] Creating layer stem_conv4_plane0_bn
I0514 14:43:25.552814 29140 net.cpp:91] Creating Layer stem_conv4_plane0_bn
I0514 14:43:25.552816 29140 net.cpp:425] stem_conv4_plane0_bn <- stem_conv4_plane0_conv
I0514 14:43:25.552821 29140 net.cpp:386] stem_conv4_plane0_bn -> stem_conv4_plane0_conv (in-place)
I0514 14:43:25.552940 29140 net.cpp:141] Setting up stem_conv4_plane0_bn
I0514 14:43:25.552945 29140 net.cpp:148] Top shape: 10 32 46 53 (780160)
I0514 14:43:25.552948 29140 net.cpp:156] Memory required for data: 1281433720
I0514 14:43:25.552954 29140 layer_factory.hpp:77] Creating layer stem_conv4_plane0_scale
I0514 14:43:25.552963 29140 net.cpp:91] Creating Layer stem_conv4_plane0_scale
I0514 14:43:25.552966 29140 net.cpp:425] stem_conv4_plane0_scale <- stem_conv4_plane0_conv
I0514 14:43:25.552971 29140 net.cpp:386] stem_conv4_plane0_scale -> stem_conv4_plane0_conv (in-place)
I0514 14:43:25.552997 29140 layer_factory.hpp:77] Creating layer stem_conv4_plane0_scale
I0514 14:43:25.553064 29140 net.cpp:141] Setting up stem_conv4_plane0_scale
I0514 14:43:25.553071 29140 net.cpp:148] Top shape: 10 32 46 53 (780160)
I0514 14:43:25.553073 29140 net.cpp:156] Memory required for data: 1284554360
I0514 14:43:25.553079 29140 layer_factory.hpp:77] Creating layer stem_conv4_plane0_relu
I0514 14:43:25.553084 29140 net.cpp:91] Creating Layer stem_conv4_plane0_relu
I0514 14:43:25.553087 29140 net.cpp:425] stem_conv4_plane0_relu <- stem_conv4_plane0_conv
I0514 14:43:25.553092 29140 net.cpp:386] stem_conv4_plane0_relu -> stem_conv4_plane0_conv (in-place)
I0514 14:43:25.553097 29140 net.cpp:141] Setting up stem_conv4_plane0_relu
I0514 14:43:25.553099 29140 net.cpp:148] Top shape: 10 32 46 53 (780160)
I0514 14:43:25.553102 29140 net.cpp:156] Memory required for data: 1287675000
I0514 14:43:25.553105 29140 layer_factory.hpp:77] Creating layer stem_concat_plane0_concat
I0514 14:43:25.553117 29140 net.cpp:91] Creating Layer stem_concat_plane0_concat
I0514 14:43:25.553120 29140 net.cpp:425] stem_concat_plane0_concat <- stem_mp1_plane0
I0514 14:43:25.553124 29140 net.cpp:425] stem_concat_plane0_concat <- stem_conv4_plane0_conv
I0514 14:43:25.553128 29140 net.cpp:399] stem_concat_plane0_concat -> stem_concat_plane0_concat
I0514 14:43:25.553148 29140 net.cpp:141] Setting up stem_concat_plane0_concat
I0514 14:43:25.553151 29140 net.cpp:148] Top shape: 10 64 46 53 (1560320)
I0514 14:43:25.553154 29140 net.cpp:156] Memory required for data: 1293916280
I0514 14:43:25.553158 29140 layer_factory.hpp:77] Creating layer stem_concat_plane0_concat_stem_concat_plane0_concat_0_split
I0514 14:43:25.553167 29140 net.cpp:91] Creating Layer stem_concat_plane0_concat_stem_concat_plane0_concat_0_split
I0514 14:43:25.553170 29140 net.cpp:425] stem_concat_plane0_concat_stem_concat_plane0_concat_0_split <- stem_concat_plane0_concat
I0514 14:43:25.553174 29140 net.cpp:399] stem_concat_plane0_concat_stem_concat_plane0_concat_0_split -> stem_concat_plane0_concat_stem_concat_plane0_concat_0_split_0
I0514 14:43:25.553184 29140 net.cpp:399] stem_concat_plane0_concat_stem_concat_plane0_concat_0_split -> stem_concat_plane0_concat_stem_concat_plane0_concat_0_split_1
I0514 14:43:25.553206 29140 net.cpp:141] Setting up stem_concat_plane0_concat_stem_concat_plane0_concat_0_split
I0514 14:43:25.553211 29140 net.cpp:148] Top shape: 10 64 46 53 (1560320)
I0514 14:43:25.553215 29140 net.cpp:148] Top shape: 10 64 46 53 (1560320)
I0514 14:43:25.553218 29140 net.cpp:156] Memory required for data: 1306398840
I0514 14:43:25.553221 29140 layer_factory.hpp:77] Creating layer stem_conv5a_plane0_conv
I0514 14:43:25.553231 29140 net.cpp:91] Creating Layer stem_conv5a_plane0_conv
I0514 14:43:25.553234 29140 net.cpp:425] stem_conv5a_plane0_conv <- stem_concat_plane0_concat_stem_concat_plane0_concat_0_split_0
I0514 14:43:25.553239 29140 net.cpp:399] stem_conv5a_plane0_conv -> stem_conv5a_plane0_conv
I0514 14:43:25.553488 29140 net.cpp:141] Setting up stem_conv5a_plane0_conv
I0514 14:43:25.553495 29140 net.cpp:148] Top shape: 10 64 46 53 (1560320)
I0514 14:43:25.553498 29140 net.cpp:156] Memory required for data: 1312640120
I0514 14:43:25.553504 29140 layer_factory.hpp:77] Creating layer stem_conv5a_plane0_bn
I0514 14:43:25.553510 29140 net.cpp:91] Creating Layer stem_conv5a_plane0_bn
I0514 14:43:25.553514 29140 net.cpp:425] stem_conv5a_plane0_bn <- stem_conv5a_plane0_conv
I0514 14:43:25.553517 29140 net.cpp:386] stem_conv5a_plane0_bn -> stem_conv5a_plane0_conv (in-place)
I0514 14:43:25.553629 29140 net.cpp:141] Setting up stem_conv5a_plane0_bn
I0514 14:43:25.553634 29140 net.cpp:148] Top shape: 10 64 46 53 (1560320)
I0514 14:43:25.553637 29140 net.cpp:156] Memory required for data: 1318881400
I0514 14:43:25.553647 29140 layer_factory.hpp:77] Creating layer stem_conv5a_plane0_scale
I0514 14:43:25.553653 29140 net.cpp:91] Creating Layer stem_conv5a_plane0_scale
I0514 14:43:25.553655 29140 net.cpp:425] stem_conv5a_plane0_scale <- stem_conv5a_plane0_conv
I0514 14:43:25.553659 29140 net.cpp:386] stem_conv5a_plane0_scale -> stem_conv5a_plane0_conv (in-place)
I0514 14:43:25.553683 29140 layer_factory.hpp:77] Creating layer stem_conv5a_plane0_scale
I0514 14:43:25.553753 29140 net.cpp:141] Setting up stem_conv5a_plane0_scale
I0514 14:43:25.553758 29140 net.cpp:148] Top shape: 10 64 46 53 (1560320)
I0514 14:43:25.553761 29140 net.cpp:156] Memory required for data: 1325122680
I0514 14:43:25.553766 29140 layer_factory.hpp:77] Creating layer stem_conv5a_plane0_relu
I0514 14:43:25.553772 29140 net.cpp:91] Creating Layer stem_conv5a_plane0_relu
I0514 14:43:25.553776 29140 net.cpp:425] stem_conv5a_plane0_relu <- stem_conv5a_plane0_conv
I0514 14:43:25.553779 29140 net.cpp:386] stem_conv5a_plane0_relu -> stem_conv5a_plane0_conv (in-place)
I0514 14:43:25.553784 29140 net.cpp:141] Setting up stem_conv5a_plane0_relu
I0514 14:43:25.553787 29140 net.cpp:148] Top shape: 10 64 46 53 (1560320)
I0514 14:43:25.553791 29140 net.cpp:156] Memory required for data: 1331363960
I0514 14:43:25.553794 29140 layer_factory.hpp:77] Creating layer stem_conv5b_plane0_conv
I0514 14:43:25.553802 29140 net.cpp:91] Creating Layer stem_conv5b_plane0_conv
I0514 14:43:25.553804 29140 net.cpp:425] stem_conv5b_plane0_conv <- stem_conv5a_plane0_conv
I0514 14:43:25.553809 29140 net.cpp:399] stem_conv5b_plane0_conv -> stem_conv5b_plane0_conv
I0514 14:43:25.554677 29140 net.cpp:141] Setting up stem_conv5b_plane0_conv
I0514 14:43:25.554684 29140 net.cpp:148] Top shape: 10 64 46 53 (1560320)
I0514 14:43:25.554687 29140 net.cpp:156] Memory required for data: 1337605240
I0514 14:43:25.554692 29140 layer_factory.hpp:77] Creating layer stem_conv5b_plane0_bn
I0514 14:43:25.554702 29140 net.cpp:91] Creating Layer stem_conv5b_plane0_bn
I0514 14:43:25.554707 29140 net.cpp:425] stem_conv5b_plane0_bn <- stem_conv5b_plane0_conv
I0514 14:43:25.554711 29140 net.cpp:386] stem_conv5b_plane0_bn -> stem_conv5b_plane0_conv (in-place)
I0514 14:43:25.554824 29140 net.cpp:141] Setting up stem_conv5b_plane0_bn
I0514 14:43:25.554829 29140 net.cpp:148] Top shape: 10 64 46 53 (1560320)
I0514 14:43:25.554832 29140 net.cpp:156] Memory required for data: 1343846520
I0514 14:43:25.554846 29140 layer_factory.hpp:77] Creating layer stem_conv5b_plane0_scale
I0514 14:43:25.554852 29140 net.cpp:91] Creating Layer stem_conv5b_plane0_scale
I0514 14:43:25.554855 29140 net.cpp:425] stem_conv5b_plane0_scale <- stem_conv5b_plane0_conv
I0514 14:43:25.554859 29140 net.cpp:386] stem_conv5b_plane0_scale -> stem_conv5b_plane0_conv (in-place)
I0514 14:43:25.554886 29140 layer_factory.hpp:77] Creating layer stem_conv5b_plane0_scale
I0514 14:43:25.554957 29140 net.cpp:141] Setting up stem_conv5b_plane0_scale
I0514 14:43:25.554962 29140 net.cpp:148] Top shape: 10 64 46 53 (1560320)
I0514 14:43:25.554965 29140 net.cpp:156] Memory required for data: 1350087800
I0514 14:43:25.554970 29140 layer_factory.hpp:77] Creating layer stem_conv5b_plane0_relu
I0514 14:43:25.554975 29140 net.cpp:91] Creating Layer stem_conv5b_plane0_relu
I0514 14:43:25.554978 29140 net.cpp:425] stem_conv5b_plane0_relu <- stem_conv5b_plane0_conv
I0514 14:43:25.554982 29140 net.cpp:386] stem_conv5b_plane0_relu -> stem_conv5b_plane0_conv (in-place)
I0514 14:43:25.554986 29140 net.cpp:141] Setting up stem_conv5b_plane0_relu
I0514 14:43:25.554991 29140 net.cpp:148] Top shape: 10 64 46 53 (1560320)
I0514 14:43:25.554993 29140 net.cpp:156] Memory required for data: 1356329080
I0514 14:43:25.554997 29140 layer_factory.hpp:77] Creating layer stem_conv5c_plane0_conv
I0514 14:43:25.555004 29140 net.cpp:91] Creating Layer stem_conv5c_plane0_conv
I0514 14:43:25.555007 29140 net.cpp:425] stem_conv5c_plane0_conv <- stem_conv5b_plane0_conv
I0514 14:43:25.555011 29140 net.cpp:399] stem_conv5c_plane0_conv -> stem_conv5c_plane0_conv
I0514 14:43:25.555871 29140 net.cpp:141] Setting up stem_conv5c_plane0_conv
I0514 14:43:25.555878 29140 net.cpp:148] Top shape: 10 64 46 53 (1560320)
I0514 14:43:25.555881 29140 net.cpp:156] Memory required for data: 1362570360
I0514 14:43:25.555886 29140 layer_factory.hpp:77] Creating layer stem_conv5c_plane0_bn
I0514 14:43:25.555893 29140 net.cpp:91] Creating Layer stem_conv5c_plane0_bn
I0514 14:43:25.555897 29140 net.cpp:425] stem_conv5c_plane0_bn <- stem_conv5c_plane0_conv
I0514 14:43:25.555902 29140 net.cpp:386] stem_conv5c_plane0_bn -> stem_conv5c_plane0_conv (in-place)
I0514 14:43:25.556013 29140 net.cpp:141] Setting up stem_conv5c_plane0_bn
I0514 14:43:25.556020 29140 net.cpp:148] Top shape: 10 64 46 53 (1560320)
I0514 14:43:25.556021 29140 net.cpp:156] Memory required for data: 1368811640
I0514 14:43:25.556027 29140 layer_factory.hpp:77] Creating layer stem_conv5c_plane0_scale
I0514 14:43:25.556033 29140 net.cpp:91] Creating Layer stem_conv5c_plane0_scale
I0514 14:43:25.556036 29140 net.cpp:425] stem_conv5c_plane0_scale <- stem_conv5c_plane0_conv
I0514 14:43:25.556041 29140 net.cpp:386] stem_conv5c_plane0_scale -> stem_conv5c_plane0_conv (in-place)
I0514 14:43:25.556064 29140 layer_factory.hpp:77] Creating layer stem_conv5c_plane0_scale
I0514 14:43:25.556134 29140 net.cpp:141] Setting up stem_conv5c_plane0_scale
I0514 14:43:25.556139 29140 net.cpp:148] Top shape: 10 64 46 53 (1560320)
I0514 14:43:25.556143 29140 net.cpp:156] Memory required for data: 1375052920
I0514 14:43:25.556148 29140 layer_factory.hpp:77] Creating layer stem_conv5c_plane0_relu
I0514 14:43:25.556152 29140 net.cpp:91] Creating Layer stem_conv5c_plane0_relu
I0514 14:43:25.556155 29140 net.cpp:425] stem_conv5c_plane0_relu <- stem_conv5c_plane0_conv
I0514 14:43:25.556159 29140 net.cpp:386] stem_conv5c_plane0_relu -> stem_conv5c_plane0_conv (in-place)
I0514 14:43:25.556164 29140 net.cpp:141] Setting up stem_conv5c_plane0_relu
I0514 14:43:25.556166 29140 net.cpp:148] Top shape: 10 64 46 53 (1560320)
I0514 14:43:25.556172 29140 net.cpp:156] Memory required for data: 1381294200
I0514 14:43:25.556176 29140 layer_factory.hpp:77] Creating layer stem_conv5d_plane0_conv
I0514 14:43:25.556185 29140 net.cpp:91] Creating Layer stem_conv5d_plane0_conv
I0514 14:43:25.556187 29140 net.cpp:425] stem_conv5d_plane0_conv <- stem_conv5c_plane0_conv
I0514 14:43:25.556192 29140 net.cpp:399] stem_conv5d_plane0_conv -> stem_conv5d_plane0_conv
I0514 14:43:25.557261 29140 net.cpp:141] Setting up stem_conv5d_plane0_conv
I0514 14:43:25.557270 29140 net.cpp:148] Top shape: 10 64 46 53 (1560320)
I0514 14:43:25.557272 29140 net.cpp:156] Memory required for data: 1387535480
I0514 14:43:25.557277 29140 layer_factory.hpp:77] Creating layer stem_conv5d_plane0_bn
I0514 14:43:25.557283 29140 net.cpp:91] Creating Layer stem_conv5d_plane0_bn
I0514 14:43:25.557286 29140 net.cpp:425] stem_conv5d_plane0_bn <- stem_conv5d_plane0_conv
I0514 14:43:25.557291 29140 net.cpp:386] stem_conv5d_plane0_bn -> stem_conv5d_plane0_conv (in-place)
I0514 14:43:25.557428 29140 net.cpp:141] Setting up stem_conv5d_plane0_bn
I0514 14:43:25.557438 29140 net.cpp:148] Top shape: 10 64 46 53 (1560320)
I0514 14:43:25.557441 29140 net.cpp:156] Memory required for data: 1393776760
I0514 14:43:25.557448 29140 layer_factory.hpp:77] Creating layer stem_conv5d_plane0_scale
I0514 14:43:25.557453 29140 net.cpp:91] Creating Layer stem_conv5d_plane0_scale
I0514 14:43:25.557457 29140 net.cpp:425] stem_conv5d_plane0_scale <- stem_conv5d_plane0_conv
I0514 14:43:25.557463 29140 net.cpp:386] stem_conv5d_plane0_scale -> stem_conv5d_plane0_conv (in-place)
I0514 14:43:25.557513 29140 layer_factory.hpp:77] Creating layer stem_conv5d_plane0_scale
I0514 14:43:25.557636 29140 net.cpp:141] Setting up stem_conv5d_plane0_scale
I0514 14:43:25.557646 29140 net.cpp:148] Top shape: 10 64 46 53 (1560320)
I0514 14:43:25.557651 29140 net.cpp:156] Memory required for data: 1400018040
I0514 14:43:25.557660 29140 layer_factory.hpp:77] Creating layer stem_conv5d_plane0_relu
I0514 14:43:25.557668 29140 net.cpp:91] Creating Layer stem_conv5d_plane0_relu
I0514 14:43:25.557673 29140 net.cpp:425] stem_conv5d_plane0_relu <- stem_conv5d_plane0_conv
I0514 14:43:25.557679 29140 net.cpp:386] stem_conv5d_plane0_relu -> stem_conv5d_plane0_conv (in-place)
I0514 14:43:25.557687 29140 net.cpp:141] Setting up stem_conv5d_plane0_relu
I0514 14:43:25.557693 29140 net.cpp:148] Top shape: 10 64 46 53 (1560320)
I0514 14:43:25.557698 29140 net.cpp:156] Memory required for data: 1406259320
I0514 14:43:25.557701 29140 layer_factory.hpp:77] Creating layer stem_conv6a_plane0_conv
I0514 14:43:25.557711 29140 net.cpp:91] Creating Layer stem_conv6a_plane0_conv
I0514 14:43:25.557718 29140 net.cpp:425] stem_conv6a_plane0_conv <- stem_concat_plane0_concat_stem_concat_plane0_concat_0_split_1
I0514 14:43:25.557725 29140 net.cpp:399] stem_conv6a_plane0_conv -> stem_conv6a_plane0_conv
I0514 14:43:25.558136 29140 net.cpp:141] Setting up stem_conv6a_plane0_conv
I0514 14:43:25.558145 29140 net.cpp:148] Top shape: 10 96 46 53 (2340480)
I0514 14:43:25.558151 29140 net.cpp:156] Memory required for data: 1415621240
I0514 14:43:25.558158 29140 layer_factory.hpp:77] Creating layer stem_conv6a_plane0_bn
I0514 14:43:25.558167 29140 net.cpp:91] Creating Layer stem_conv6a_plane0_bn
I0514 14:43:25.558172 29140 net.cpp:425] stem_conv6a_plane0_bn <- stem_conv6a_plane0_conv
I0514 14:43:25.558179 29140 net.cpp:386] stem_conv6a_plane0_bn -> stem_conv6a_plane0_conv (in-place)
I0514 14:43:25.558341 29140 net.cpp:141] Setting up stem_conv6a_plane0_bn
I0514 14:43:25.558349 29140 net.cpp:148] Top shape: 10 96 46 53 (2340480)
I0514 14:43:25.558354 29140 net.cpp:156] Memory required for data: 1424983160
I0514 14:43:25.558363 29140 layer_factory.hpp:77] Creating layer stem_conv6a_plane0_scale
I0514 14:43:25.558372 29140 net.cpp:91] Creating Layer stem_conv6a_plane0_scale
I0514 14:43:25.558377 29140 net.cpp:425] stem_conv6a_plane0_scale <- stem_conv6a_plane0_conv
I0514 14:43:25.558382 29140 net.cpp:386] stem_conv6a_plane0_scale -> stem_conv6a_plane0_conv (in-place)
I0514 14:43:25.558423 29140 layer_factory.hpp:77] Creating layer stem_conv6a_plane0_scale
I0514 14:43:25.558523 29140 net.cpp:141] Setting up stem_conv6a_plane0_scale
I0514 14:43:25.558532 29140 net.cpp:148] Top shape: 10 96 46 53 (2340480)
I0514 14:43:25.558537 29140 net.cpp:156] Memory required for data: 1434345080
I0514 14:43:25.558547 29140 layer_factory.hpp:77] Creating layer stem_conv6a_plane0_relu
I0514 14:43:25.558562 29140 net.cpp:91] Creating Layer stem_conv6a_plane0_relu
I0514 14:43:25.558568 29140 net.cpp:425] stem_conv6a_plane0_relu <- stem_conv6a_plane0_conv
I0514 14:43:25.558573 29140 net.cpp:386] stem_conv6a_plane0_relu -> stem_conv6a_plane0_conv (in-place)
I0514 14:43:25.558580 29140 net.cpp:141] Setting up stem_conv6a_plane0_relu
I0514 14:43:25.558588 29140 net.cpp:148] Top shape: 10 96 46 53 (2340480)
I0514 14:43:25.558591 29140 net.cpp:156] Memory required for data: 1443707000
I0514 14:43:25.558596 29140 layer_factory.hpp:77] Creating layer stem_conv6b_plane0_conv
I0514 14:43:25.558606 29140 net.cpp:91] Creating Layer stem_conv6b_plane0_conv
I0514 14:43:25.558611 29140 net.cpp:425] stem_conv6b_plane0_conv <- stem_conv6a_plane0_conv
I0514 14:43:25.558619 29140 net.cpp:399] stem_conv6b_plane0_conv -> stem_conv6b_plane0_conv
I0514 14:43:25.561638 29140 net.cpp:141] Setting up stem_conv6b_plane0_conv
I0514 14:43:25.561652 29140 net.cpp:148] Top shape: 10 96 46 53 (2340480)
I0514 14:43:25.561657 29140 net.cpp:156] Memory required for data: 1453068920
I0514 14:43:25.561671 29140 layer_factory.hpp:77] Creating layer stem_conv6b_plane0_bn
I0514 14:43:25.561681 29140 net.cpp:91] Creating Layer stem_conv6b_plane0_bn
I0514 14:43:25.561686 29140 net.cpp:425] stem_conv6b_plane0_bn <- stem_conv6b_plane0_conv
I0514 14:43:25.561692 29140 net.cpp:386] stem_conv6b_plane0_bn -> stem_conv6b_plane0_conv (in-place)
I0514 14:43:25.561856 29140 net.cpp:141] Setting up stem_conv6b_plane0_bn
I0514 14:43:25.561866 29140 net.cpp:148] Top shape: 10 96 46 53 (2340480)
I0514 14:43:25.561871 29140 net.cpp:156] Memory required for data: 1462430840
I0514 14:43:25.561879 29140 layer_factory.hpp:77] Creating layer stem_conv6b_plane0_scale
I0514 14:43:25.561887 29140 net.cpp:91] Creating Layer stem_conv6b_plane0_scale
I0514 14:43:25.561892 29140 net.cpp:425] stem_conv6b_plane0_scale <- stem_conv6b_plane0_conv
I0514 14:43:25.561898 29140 net.cpp:386] stem_conv6b_plane0_scale -> stem_conv6b_plane0_conv (in-place)
I0514 14:43:25.561934 29140 layer_factory.hpp:77] Creating layer stem_conv6b_plane0_scale
I0514 14:43:25.562036 29140 net.cpp:141] Setting up stem_conv6b_plane0_scale
I0514 14:43:25.562046 29140 net.cpp:148] Top shape: 10 96 46 53 (2340480)
I0514 14:43:25.562049 29140 net.cpp:156] Memory required for data: 1471792760
I0514 14:43:25.562058 29140 layer_factory.hpp:77] Creating layer stem_conv6b_plane0_relu
I0514 14:43:25.562067 29140 net.cpp:91] Creating Layer stem_conv6b_plane0_relu
I0514 14:43:25.562072 29140 net.cpp:425] stem_conv6b_plane0_relu <- stem_conv6b_plane0_conv
I0514 14:43:25.562077 29140 net.cpp:386] stem_conv6b_plane0_relu -> stem_conv6b_plane0_conv (in-place)
I0514 14:43:25.562084 29140 net.cpp:141] Setting up stem_conv6b_plane0_relu
I0514 14:43:25.562090 29140 net.cpp:148] Top shape: 10 96 46 53 (2340480)
I0514 14:43:25.562095 29140 net.cpp:156] Memory required for data: 1481154680
I0514 14:43:25.562099 29140 layer_factory.hpp:77] Creating layer stem_concat2_plane0_concat
I0514 14:43:25.562108 29140 net.cpp:91] Creating Layer stem_concat2_plane0_concat
I0514 14:43:25.562114 29140 net.cpp:425] stem_concat2_plane0_concat <- stem_conv5d_plane0_conv
I0514 14:43:25.562119 29140 net.cpp:425] stem_concat2_plane0_concat <- stem_conv6b_plane0_conv
I0514 14:43:25.562125 29140 net.cpp:399] stem_concat2_plane0_concat -> stem_concat2_plane0_concat
I0514 14:43:25.562150 29140 net.cpp:141] Setting up stem_concat2_plane0_concat
I0514 14:43:25.562156 29140 net.cpp:148] Top shape: 10 160 46 53 (3900800)
I0514 14:43:25.562161 29140 net.cpp:156] Memory required for data: 1496757880
I0514 14:43:25.562166 29140 layer_factory.hpp:77] Creating layer stem_concat2_plane0_concat_stem_concat2_plane0_concat_0_split
I0514 14:43:25.562178 29140 net.cpp:91] Creating Layer stem_concat2_plane0_concat_stem_concat2_plane0_concat_0_split
I0514 14:43:25.562183 29140 net.cpp:425] stem_concat2_plane0_concat_stem_concat2_plane0_concat_0_split <- stem_concat2_plane0_concat
I0514 14:43:25.562191 29140 net.cpp:399] stem_concat2_plane0_concat_stem_concat2_plane0_concat_0_split -> stem_concat2_plane0_concat_stem_concat2_plane0_concat_0_split_0
I0514 14:43:25.562206 29140 net.cpp:399] stem_concat2_plane0_concat_stem_concat2_plane0_concat_0_split -> stem_concat2_plane0_concat_stem_concat2_plane0_concat_0_split_1
I0514 14:43:25.562237 29140 net.cpp:141] Setting up stem_concat2_plane0_concat_stem_concat2_plane0_concat_0_split
I0514 14:43:25.562245 29140 net.cpp:148] Top shape: 10 160 46 53 (3900800)
I0514 14:43:25.562252 29140 net.cpp:148] Top shape: 10 160 46 53 (3900800)
I0514 14:43:25.562255 29140 net.cpp:156] Memory required for data: 1527964280
I0514 14:43:25.562260 29140 layer_factory.hpp:77] Creating layer stem_conv7_plane0_conv
I0514 14:43:25.562270 29140 net.cpp:91] Creating Layer stem_conv7_plane0_conv
I0514 14:43:25.562275 29140 net.cpp:425] stem_conv7_plane0_conv <- stem_concat2_plane0_concat_stem_concat2_plane0_concat_0_split_0
I0514 14:43:25.562283 29140 net.cpp:399] stem_conv7_plane0_conv -> stem_conv7_plane0_conv
I0514 14:43:25.572397 29140 net.cpp:141] Setting up stem_conv7_plane0_conv
I0514 14:43:25.572433 29140 net.cpp:148] Top shape: 10 192 44 51 (4308480)
I0514 14:43:25.572439 29140 net.cpp:156] Memory required for data: 1545198200
I0514 14:43:25.572456 29140 layer_factory.hpp:77] Creating layer stem_conv7_plane0_bn
I0514 14:43:25.572484 29140 net.cpp:91] Creating Layer stem_conv7_plane0_bn
I0514 14:43:25.572492 29140 net.cpp:425] stem_conv7_plane0_bn <- stem_conv7_plane0_conv
I0514 14:43:25.572517 29140 net.cpp:386] stem_conv7_plane0_bn -> stem_conv7_plane0_conv (in-place)
I0514 14:43:25.572810 29140 net.cpp:141] Setting up stem_conv7_plane0_bn
I0514 14:43:25.572823 29140 net.cpp:148] Top shape: 10 192 44 51 (4308480)
I0514 14:43:25.572826 29140 net.cpp:156] Memory required for data: 1562432120
I0514 14:43:25.572837 29140 layer_factory.hpp:77] Creating layer stem_conv7_plane0_scale
I0514 14:43:25.572863 29140 net.cpp:91] Creating Layer stem_conv7_plane0_scale
I0514 14:43:25.572870 29140 net.cpp:425] stem_conv7_plane0_scale <- stem_conv7_plane0_conv
I0514 14:43:25.572892 29140 net.cpp:386] stem_conv7_plane0_scale -> stem_conv7_plane0_conv (in-place)
I0514 14:43:25.572952 29140 layer_factory.hpp:77] Creating layer stem_conv7_plane0_scale
I0514 14:43:25.573081 29140 net.cpp:141] Setting up stem_conv7_plane0_scale
I0514 14:43:25.573091 29140 net.cpp:148] Top shape: 10 192 44 51 (4308480)
I0514 14:43:25.573096 29140 net.cpp:156] Memory required for data: 1579666040
I0514 14:43:25.573104 29140 layer_factory.hpp:77] Creating layer stem_conv7_plane0_relu
I0514 14:43:25.573127 29140 net.cpp:91] Creating Layer stem_conv7_plane0_relu
I0514 14:43:25.573134 29140 net.cpp:425] stem_conv7_plane0_relu <- stem_conv7_plane0_conv
I0514 14:43:25.573156 29140 net.cpp:386] stem_conv7_plane0_relu -> stem_conv7_plane0_conv (in-place)
I0514 14:43:25.573164 29140 net.cpp:141] Setting up stem_conv7_plane0_relu
I0514 14:43:25.573171 29140 net.cpp:148] Top shape: 10 192 44 51 (4308480)
I0514 14:43:25.573175 29140 net.cpp:156] Memory required for data: 1596899960
I0514 14:43:25.573180 29140 layer_factory.hpp:77] Creating layer stem_mp7_plane0
I0514 14:43:25.573204 29140 net.cpp:91] Creating Layer stem_mp7_plane0
I0514 14:43:25.573210 29140 net.cpp:425] stem_mp7_plane0 <- stem_concat2_plane0_concat_stem_concat2_plane0_concat_0_split_1
I0514 14:43:25.573232 29140 net.cpp:399] stem_mp7_plane0 -> stem_mp7_plane0
I0514 14:43:25.573272 29140 net.cpp:141] Setting up stem_mp7_plane0
I0514 14:43:25.573282 29140 net.cpp:148] Top shape: 10 160 44 51 (3590400)
I0514 14:43:25.573287 29140 net.cpp:156] Memory required for data: 1611261560
I0514 14:43:25.573292 29140 layer_factory.hpp:77] Creating layer stem_concat3_plane0_concat
I0514 14:43:25.573328 29140 net.cpp:91] Creating Layer stem_concat3_plane0_concat
I0514 14:43:25.573335 29140 net.cpp:425] stem_concat3_plane0_concat <- stem_conv7_plane0_conv
I0514 14:43:25.573341 29140 net.cpp:425] stem_concat3_plane0_concat <- stem_mp7_plane0
I0514 14:43:25.573361 29140 net.cpp:399] stem_concat3_plane0_concat -> stem_concat3_plane0_concat
I0514 14:43:25.573390 29140 net.cpp:141] Setting up stem_concat3_plane0_concat
I0514 14:43:25.573408 29140 net.cpp:148] Top shape: 10 352 44 51 (7898880)
I0514 14:43:25.573413 29140 net.cpp:156] Memory required for data: 1642857080
I0514 14:43:25.573418 29140 layer_factory.hpp:77] Creating layer stem_concat3_plane0_concat_stem_concat3_plane0_concat_0_split
I0514 14:43:25.573441 29140 net.cpp:91] Creating Layer stem_concat3_plane0_concat_stem_concat3_plane0_concat_0_split
I0514 14:43:25.573447 29140 net.cpp:425] stem_concat3_plane0_concat_stem_concat3_plane0_concat_0_split <- stem_concat3_plane0_concat
I0514 14:43:25.573469 29140 net.cpp:399] stem_concat3_plane0_concat_stem_concat3_plane0_concat_0_split -> stem_concat3_plane0_concat_stem_concat3_plane0_concat_0_split_0
I0514 14:43:25.573493 29140 net.cpp:399] stem_concat3_plane0_concat_stem_concat3_plane0_concat_0_split -> stem_concat3_plane0_concat_stem_concat3_plane0_concat_0_split_1
I0514 14:43:25.573518 29140 net.cpp:399] stem_concat3_plane0_concat_stem_concat3_plane0_concat_0_split -> stem_concat3_plane0_concat_stem_concat3_plane0_concat_0_split_2
I0514 14:43:25.573541 29140 net.cpp:399] stem_concat3_plane0_concat_stem_concat3_plane0_concat_0_split -> stem_concat3_plane0_concat_stem_concat3_plane0_concat_0_split_3
I0514 14:43:25.573595 29140 net.cpp:141] Setting up stem_concat3_plane0_concat_stem_concat3_plane0_concat_0_split
I0514 14:43:25.573603 29140 net.cpp:148] Top shape: 10 352 44 51 (7898880)
I0514 14:43:25.573609 29140 net.cpp:148] Top shape: 10 352 44 51 (7898880)
I0514 14:43:25.573616 29140 net.cpp:148] Top shape: 10 352 44 51 (7898880)
I0514 14:43:25.573621 29140 net.cpp:148] Top shape: 10 352 44 51 (7898880)
I0514 14:43:25.573626 29140 net.cpp:156] Memory required for data: 1769239160
I0514 14:43:25.573632 29140 layer_factory.hpp:77] Creating layer ia1_plane0_IA_bypass
I0514 14:43:25.573657 29140 net.cpp:91] Creating Layer ia1_plane0_IA_bypass
I0514 14:43:25.573663 29140 net.cpp:425] ia1_plane0_IA_bypass <- stem_concat3_plane0_concat_stem_concat3_plane0_concat_0_split_0
I0514 14:43:25.573686 29140 net.cpp:399] ia1_plane0_IA_bypass -> ia1_plane0_IA_bypass
I0514 14:43:25.576957 29140 net.cpp:141] Setting up ia1_plane0_IA_bypass
I0514 14:43:25.576982 29140 net.cpp:148] Top shape: 10 256 44 51 (5744640)
I0514 14:43:25.576994 29140 net.cpp:156] Memory required for data: 1792217720
I0514 14:43:25.577013 29140 layer_factory.hpp:77] Creating layer ia1_plane0_IA_conva_conv
I0514 14:43:25.577033 29140 net.cpp:91] Creating Layer ia1_plane0_IA_conva_conv
I0514 14:43:25.577046 29140 net.cpp:425] ia1_plane0_IA_conva_conv <- stem_concat3_plane0_concat_stem_concat3_plane0_concat_0_split_1
I0514 14:43:25.577061 29140 net.cpp:399] ia1_plane0_IA_conva_conv -> ia1_plane0_IA_conva_conv
I0514 14:43:25.577775 29140 net.cpp:141] Setting up ia1_plane0_IA_conva_conv
I0514 14:43:25.577785 29140 net.cpp:148] Top shape: 10 32 44 51 (718080)
I0514 14:43:25.577790 29140 net.cpp:156] Memory required for data: 1795090040
I0514 14:43:25.577798 29140 layer_factory.hpp:77] Creating layer ia1_plane0_IA_conva_relu
I0514 14:43:25.577807 29140 net.cpp:91] Creating Layer ia1_plane0_IA_conva_relu
I0514 14:43:25.577813 29140 net.cpp:425] ia1_plane0_IA_conva_relu <- ia1_plane0_IA_conva_conv
I0514 14:43:25.577819 29140 net.cpp:386] ia1_plane0_IA_conva_relu -> ia1_plane0_IA_conva_conv (in-place)
I0514 14:43:25.577827 29140 net.cpp:141] Setting up ia1_plane0_IA_conva_relu
I0514 14:43:25.577832 29140 net.cpp:148] Top shape: 10 32 44 51 (718080)
I0514 14:43:25.577836 29140 net.cpp:156] Memory required for data: 1797962360
I0514 14:43:25.577841 29140 layer_factory.hpp:77] Creating layer ia1_plane0_IA_convb1_conv
I0514 14:43:25.577858 29140 net.cpp:91] Creating Layer ia1_plane0_IA_convb1_conv
I0514 14:43:25.577863 29140 net.cpp:425] ia1_plane0_IA_convb1_conv <- stem_concat3_plane0_concat_stem_concat3_plane0_concat_0_split_2
I0514 14:43:25.577870 29140 net.cpp:399] ia1_plane0_IA_convb1_conv -> ia1_plane0_IA_convb1_conv
I0514 14:43:25.578454 29140 net.cpp:141] Setting up ia1_plane0_IA_convb1_conv
I0514 14:43:25.578464 29140 net.cpp:148] Top shape: 10 32 44 51 (718080)
I0514 14:43:25.578477 29140 net.cpp:156] Memory required for data: 1800834680
I0514 14:43:25.578485 29140 layer_factory.hpp:77] Creating layer ia1_plane0_IA_convb1_relu
I0514 14:43:25.578495 29140 net.cpp:91] Creating Layer ia1_plane0_IA_convb1_relu
I0514 14:43:25.578498 29140 net.cpp:425] ia1_plane0_IA_convb1_relu <- ia1_plane0_IA_convb1_conv
I0514 14:43:25.578505 29140 net.cpp:386] ia1_plane0_IA_convb1_relu -> ia1_plane0_IA_convb1_conv (in-place)
I0514 14:43:25.578512 29140 net.cpp:141] Setting up ia1_plane0_IA_convb1_relu
I0514 14:43:25.578518 29140 net.cpp:148] Top shape: 10 32 44 51 (718080)
I0514 14:43:25.578523 29140 net.cpp:156] Memory required for data: 1803707000
I0514 14:43:25.578528 29140 layer_factory.hpp:77] Creating layer ia1_plane0_IA_convb2_conv
I0514 14:43:25.578537 29140 net.cpp:91] Creating Layer ia1_plane0_IA_convb2_conv
I0514 14:43:25.578542 29140 net.cpp:425] ia1_plane0_IA_convb2_conv <- ia1_plane0_IA_convb1_conv
I0514 14:43:25.578550 29140 net.cpp:399] ia1_plane0_IA_convb2_conv -> ia1_plane0_IA_convb2_conv
I0514 14:43:25.579067 29140 net.cpp:141] Setting up ia1_plane0_IA_convb2_conv
I0514 14:43:25.579077 29140 net.cpp:148] Top shape: 10 32 44 51 (718080)
I0514 14:43:25.579082 29140 net.cpp:156] Memory required for data: 1806579320
I0514 14:43:25.579090 29140 layer_factory.hpp:77] Creating layer ia1_plane0_IA_convb2_relu
I0514 14:43:25.579097 29140 net.cpp:91] Creating Layer ia1_plane0_IA_convb2_relu
I0514 14:43:25.579102 29140 net.cpp:425] ia1_plane0_IA_convb2_relu <- ia1_plane0_IA_convb2_conv
I0514 14:43:25.579107 29140 net.cpp:386] ia1_plane0_IA_convb2_relu -> ia1_plane0_IA_convb2_conv (in-place)
I0514 14:43:25.579115 29140 net.cpp:141] Setting up ia1_plane0_IA_convb2_relu
I0514 14:43:25.579121 29140 net.cpp:148] Top shape: 10 32 44 51 (718080)
I0514 14:43:25.579126 29140 net.cpp:156] Memory required for data: 1809451640
I0514 14:43:25.579130 29140 layer_factory.hpp:77] Creating layer ia1_plane0_IA_convc1_conv
I0514 14:43:25.579140 29140 net.cpp:91] Creating Layer ia1_plane0_IA_convc1_conv
I0514 14:43:25.579145 29140 net.cpp:425] ia1_plane0_IA_convc1_conv <- stem_concat3_plane0_concat_stem_concat3_plane0_concat_0_split_3
I0514 14:43:25.579154 29140 net.cpp:399] ia1_plane0_IA_convc1_conv -> ia1_plane0_IA_convc1_conv
I0514 14:43:25.579735 29140 net.cpp:141] Setting up ia1_plane0_IA_convc1_conv
I0514 14:43:25.579744 29140 net.cpp:148] Top shape: 10 32 44 51 (718080)
I0514 14:43:25.579748 29140 net.cpp:156] Memory required for data: 1812323960
I0514 14:43:25.579756 29140 layer_factory.hpp:77] Creating layer ia1_plane0_IA_convc1_relu
I0514 14:43:25.579766 29140 net.cpp:91] Creating Layer ia1_plane0_IA_convc1_relu
I0514 14:43:25.579771 29140 net.cpp:425] ia1_plane0_IA_convc1_relu <- ia1_plane0_IA_convc1_conv
I0514 14:43:25.579777 29140 net.cpp:386] ia1_plane0_IA_convc1_relu -> ia1_plane0_IA_convc1_conv (in-place)
I0514 14:43:25.579783 29140 net.cpp:141] Setting up ia1_plane0_IA_convc1_relu
I0514 14:43:25.579789 29140 net.cpp:148] Top shape: 10 32 44 51 (718080)
I0514 14:43:25.579793 29140 net.cpp:156] Memory required for data: 1815196280
I0514 14:43:25.579800 29140 layer_factory.hpp:77] Creating layer ia1_plane0_IA_convc2_conv
I0514 14:43:25.579810 29140 net.cpp:91] Creating Layer ia1_plane0_IA_convc2_conv
I0514 14:43:25.579815 29140 net.cpp:425] ia1_plane0_IA_convc2_conv <- ia1_plane0_IA_convc1_conv
I0514 14:43:25.579823 29140 net.cpp:399] ia1_plane0_IA_convc2_conv -> ia1_plane0_IA_convc2_conv
I0514 14:43:25.580340 29140 net.cpp:141] Setting up ia1_plane0_IA_convc2_conv
I0514 14:43:25.580349 29140 net.cpp:148] Top shape: 10 32 44 51 (718080)
I0514 14:43:25.580358 29140 net.cpp:156] Memory required for data: 1818068600
I0514 14:43:25.580365 29140 layer_factory.hpp:77] Creating layer ia1_plane0_IA_convc2_relu
I0514 14:43:25.580374 29140 net.cpp:91] Creating Layer ia1_plane0_IA_convc2_relu
I0514 14:43:25.580379 29140 net.cpp:425] ia1_plane0_IA_convc2_relu <- ia1_plane0_IA_convc2_conv
I0514 14:43:25.580385 29140 net.cpp:386] ia1_plane0_IA_convc2_relu -> ia1_plane0_IA_convc2_conv (in-place)
I0514 14:43:25.580397 29140 net.cpp:141] Setting up ia1_plane0_IA_convc2_relu
I0514 14:43:25.580404 29140 net.cpp:148] Top shape: 10 32 44 51 (718080)
I0514 14:43:25.580409 29140 net.cpp:156] Memory required for data: 1820940920
I0514 14:43:25.580413 29140 layer_factory.hpp:77] Creating layer ia1_plane0_IA_convc3_conv
I0514 14:43:25.580422 29140 net.cpp:91] Creating Layer ia1_plane0_IA_convc3_conv
I0514 14:43:25.580427 29140 net.cpp:425] ia1_plane0_IA_convc3_conv <- ia1_plane0_IA_convc2_conv
I0514 14:43:25.580433 29140 net.cpp:399] ia1_plane0_IA_convc3_conv -> ia1_plane0_IA_convc3_conv
I0514 14:43:25.580950 29140 net.cpp:141] Setting up ia1_plane0_IA_convc3_conv
I0514 14:43:25.580960 29140 net.cpp:148] Top shape: 10 32 44 51 (718080)
I0514 14:43:25.580965 29140 net.cpp:156] Memory required for data: 1823813240
I0514 14:43:25.580972 29140 layer_factory.hpp:77] Creating layer ia1_plane0_IA_convc3_relu
I0514 14:43:25.580981 29140 net.cpp:91] Creating Layer ia1_plane0_IA_convc3_relu
I0514 14:43:25.580986 29140 net.cpp:425] ia1_plane0_IA_convc3_relu <- ia1_plane0_IA_convc3_conv
I0514 14:43:25.580992 29140 net.cpp:386] ia1_plane0_IA_convc3_relu -> ia1_plane0_IA_convc3_conv (in-place)
I0514 14:43:25.580999 29140 net.cpp:141] Setting up ia1_plane0_IA_convc3_relu
I0514 14:43:25.581004 29140 net.cpp:148] Top shape: 10 32 44 51 (718080)
I0514 14:43:25.581007 29140 net.cpp:156] Memory required for data: 1826685560
I0514 14:43:25.581012 29140 layer_factory.hpp:77] Creating layer ia1_plane0_IA_concat_concat
I0514 14:43:25.581022 29140 net.cpp:91] Creating Layer ia1_plane0_IA_concat_concat
I0514 14:43:25.581027 29140 net.cpp:425] ia1_plane0_IA_concat_concat <- ia1_plane0_IA_conva_conv
I0514 14:43:25.581032 29140 net.cpp:425] ia1_plane0_IA_concat_concat <- ia1_plane0_IA_convb2_conv
I0514 14:43:25.581037 29140 net.cpp:425] ia1_plane0_IA_concat_concat <- ia1_plane0_IA_convc3_conv
I0514 14:43:25.581043 29140 net.cpp:399] ia1_plane0_IA_concat_concat -> ia1_plane0_IA_concat_concat
I0514 14:43:25.581069 29140 net.cpp:141] Setting up ia1_plane0_IA_concat_concat
I0514 14:43:25.581079 29140 net.cpp:148] Top shape: 10 96 44 51 (2154240)
I0514 14:43:25.581082 29140 net.cpp:156] Memory required for data: 1835302520
I0514 14:43:25.581086 29140 layer_factory.hpp:77] Creating layer ia1_plane0_IA_convd_conv
I0514 14:43:25.581096 29140 net.cpp:91] Creating Layer ia1_plane0_IA_convd_conv
I0514 14:43:25.581101 29140 net.cpp:425] ia1_plane0_IA_convd_conv <- ia1_plane0_IA_concat_concat
I0514 14:43:25.581110 29140 net.cpp:399] ia1_plane0_IA_convd_conv -> ia1_plane0_IA_convd_conv
I0514 14:43:25.582629 29140 net.cpp:141] Setting up ia1_plane0_IA_convd_conv
I0514 14:43:25.582644 29140 net.cpp:148] Top shape: 10 256 44 51 (5744640)
I0514 14:43:25.582649 29140 net.cpp:156] Memory required for data: 1858281080
I0514 14:43:25.582659 29140 layer_factory.hpp:77] Creating layer ia1_plane0_IA_convd_relu
I0514 14:43:25.582667 29140 net.cpp:91] Creating Layer ia1_plane0_IA_convd_relu
I0514 14:43:25.582674 29140 net.cpp:425] ia1_plane0_IA_convd_relu <- ia1_plane0_IA_convd_conv
I0514 14:43:25.582679 29140 net.cpp:386] ia1_plane0_IA_convd_relu -> ia1_plane0_IA_convd_conv (in-place)
I0514 14:43:25.582687 29140 net.cpp:141] Setting up ia1_plane0_IA_convd_relu
I0514 14:43:25.582693 29140 net.cpp:148] Top shape: 10 256 44 51 (5744640)
I0514 14:43:25.582698 29140 net.cpp:156] Memory required for data: 1881259640
I0514 14:43:25.582705 29140 layer_factory.hpp:77] Creating layer ia1_plane0_IA_eltwise
I0514 14:43:25.582713 29140 net.cpp:91] Creating Layer ia1_plane0_IA_eltwise
I0514 14:43:25.582717 29140 net.cpp:425] ia1_plane0_IA_eltwise <- ia1_plane0_IA_bypass
I0514 14:43:25.582727 29140 net.cpp:425] ia1_plane0_IA_eltwise <- ia1_plane0_IA_convd_conv
I0514 14:43:25.582736 29140 net.cpp:399] ia1_plane0_IA_eltwise -> ia1_plane0_IA_eltwise
I0514 14:43:25.582764 29140 net.cpp:141] Setting up ia1_plane0_IA_eltwise
I0514 14:43:25.582773 29140 net.cpp:148] Top shape: 10 256 44 51 (5744640)
I0514 14:43:25.582778 29140 net.cpp:156] Memory required for data: 1904238200
I0514 14:43:25.582790 29140 layer_factory.hpp:77] Creating layer ia1_plane0_IA_eltwise_relu
I0514 14:43:25.582797 29140 net.cpp:91] Creating Layer ia1_plane0_IA_eltwise_relu
I0514 14:43:25.582801 29140 net.cpp:425] ia1_plane0_IA_eltwise_relu <- ia1_plane0_IA_eltwise
I0514 14:43:25.582808 29140 net.cpp:386] ia1_plane0_IA_eltwise_relu -> ia1_plane0_IA_eltwise (in-place)
I0514 14:43:25.582815 29140 net.cpp:141] Setting up ia1_plane0_IA_eltwise_relu
I0514 14:43:25.582821 29140 net.cpp:148] Top shape: 10 256 44 51 (5744640)
I0514 14:43:25.582825 29140 net.cpp:156] Memory required for data: 1927216760
I0514 14:43:25.582830 29140 layer_factory.hpp:77] Creating layer ia1_plane0_IA_eltwise_ia1_plane0_IA_eltwise_relu_0_split
I0514 14:43:25.582837 29140 net.cpp:91] Creating Layer ia1_plane0_IA_eltwise_ia1_plane0_IA_eltwise_relu_0_split
I0514 14:43:25.582841 29140 net.cpp:425] ia1_plane0_IA_eltwise_ia1_plane0_IA_eltwise_relu_0_split <- ia1_plane0_IA_eltwise
I0514 14:43:25.582849 29140 net.cpp:399] ia1_plane0_IA_eltwise_ia1_plane0_IA_eltwise_relu_0_split -> ia1_plane0_IA_eltwise_ia1_plane0_IA_eltwise_relu_0_split_0
I0514 14:43:25.582857 29140 net.cpp:399] ia1_plane0_IA_eltwise_ia1_plane0_IA_eltwise_relu_0_split -> ia1_plane0_IA_eltwise_ia1_plane0_IA_eltwise_relu_0_split_1
I0514 14:43:25.582865 29140 net.cpp:399] ia1_plane0_IA_eltwise_ia1_plane0_IA_eltwise_relu_0_split -> ia1_plane0_IA_eltwise_ia1_plane0_IA_eltwise_relu_0_split_2
I0514 14:43:25.582871 29140 net.cpp:399] ia1_plane0_IA_eltwise_ia1_plane0_IA_eltwise_relu_0_split -> ia1_plane0_IA_eltwise_ia1_plane0_IA_eltwise_relu_0_split_3
I0514 14:43:25.582926 29140 net.cpp:141] Setting up ia1_plane0_IA_eltwise_ia1_plane0_IA_eltwise_relu_0_split
I0514 14:43:25.582936 29140 net.cpp:148] Top shape: 10 256 44 51 (5744640)
I0514 14:43:25.582942 29140 net.cpp:148] Top shape: 10 256 44 51 (5744640)
I0514 14:43:25.582947 29140 net.cpp:148] Top shape: 10 256 44 51 (5744640)
I0514 14:43:25.582950 29140 net.cpp:148] Top shape: 10 256 44 51 (5744640)
I0514 14:43:25.582954 29140 net.cpp:156] Memory required for data: 2019131000
I0514 14:43:25.582959 29140 layer_factory.hpp:77] Creating layer ia2_plane0_IA_conva_conv
I0514 14:43:25.582972 29140 net.cpp:91] Creating Layer ia2_plane0_IA_conva_conv
I0514 14:43:25.582978 29140 net.cpp:425] ia2_plane0_IA_conva_conv <- ia1_plane0_IA_eltwise_ia1_plane0_IA_eltwise_relu_0_split_0
I0514 14:43:25.582984 29140 net.cpp:399] ia2_plane0_IA_conva_conv -> ia2_plane0_IA_conva_conv
I0514 14:43:25.583470 29140 net.cpp:141] Setting up ia2_plane0_IA_conva_conv
I0514 14:43:25.583482 29140 net.cpp:148] Top shape: 10 32 44 51 (718080)
I0514 14:43:25.583485 29140 net.cpp:156] Memory required for data: 2022003320
I0514 14:43:25.583494 29140 layer_factory.hpp:77] Creating layer ia2_plane0_IA_conva_relu
I0514 14:43:25.583500 29140 net.cpp:91] Creating Layer ia2_plane0_IA_conva_relu
I0514 14:43:25.583506 29140 net.cpp:425] ia2_plane0_IA_conva_relu <- ia2_plane0_IA_conva_conv
I0514 14:43:25.583513 29140 net.cpp:386] ia2_plane0_IA_conva_relu -> ia2_plane0_IA_conva_conv (in-place)
I0514 14:43:25.583521 29140 net.cpp:141] Setting up ia2_plane0_IA_conva_relu
I0514 14:43:25.583526 29140 net.cpp:148] Top shape: 10 32 44 51 (718080)
I0514 14:43:25.583530 29140 net.cpp:156] Memory required for data: 2024875640
I0514 14:43:25.583534 29140 layer_factory.hpp:77] Creating layer ia2_plane0_IA_convb1_conv
I0514 14:43:25.583544 29140 net.cpp:91] Creating Layer ia2_plane0_IA_convb1_conv
I0514 14:43:25.583549 29140 net.cpp:425] ia2_plane0_IA_convb1_conv <- ia1_plane0_IA_eltwise_ia1_plane0_IA_eltwise_relu_0_split_1
I0514 14:43:25.583557 29140 net.cpp:399] ia2_plane0_IA_convb1_conv -> ia2_plane0_IA_convb1_conv
I0514 14:43:25.584053 29140 net.cpp:141] Setting up ia2_plane0_IA_convb1_conv
I0514 14:43:25.584064 29140 net.cpp:148] Top shape: 10 32 44 51 (718080)
I0514 14:43:25.584069 29140 net.cpp:156] Memory required for data: 2027747960
I0514 14:43:25.584075 29140 layer_factory.hpp:77] Creating layer ia2_plane0_IA_convb1_relu
I0514 14:43:25.584084 29140 net.cpp:91] Creating Layer ia2_plane0_IA_convb1_relu
I0514 14:43:25.584095 29140 net.cpp:425] ia2_plane0_IA_convb1_relu <- ia2_plane0_IA_convb1_conv
I0514 14:43:25.584102 29140 net.cpp:386] ia2_plane0_IA_convb1_relu -> ia2_plane0_IA_convb1_conv (in-place)
I0514 14:43:25.584110 29140 net.cpp:141] Setting up ia2_plane0_IA_convb1_relu
I0514 14:43:25.584115 29140 net.cpp:148] Top shape: 10 32 44 51 (718080)
I0514 14:43:25.584120 29140 net.cpp:156] Memory required for data: 2030620280
I0514 14:43:25.584125 29140 layer_factory.hpp:77] Creating layer ia2_plane0_IA_convb2_conv
I0514 14:43:25.584136 29140 net.cpp:91] Creating Layer ia2_plane0_IA_convb2_conv
I0514 14:43:25.584141 29140 net.cpp:425] ia2_plane0_IA_convb2_conv <- ia2_plane0_IA_convb1_conv
I0514 14:43:25.584147 29140 net.cpp:399] ia2_plane0_IA_convb2_conv -> ia2_plane0_IA_convb2_conv
I0514 14:43:25.584661 29140 net.cpp:141] Setting up ia2_plane0_IA_convb2_conv
I0514 14:43:25.584671 29140 net.cpp:148] Top shape: 10 32 44 51 (718080)
I0514 14:43:25.584676 29140 net.cpp:156] Memory required for data: 2033492600
I0514 14:43:25.584683 29140 layer_factory.hpp:77] Creating layer ia2_plane0_IA_convb2_relu
I0514 14:43:25.584692 29140 net.cpp:91] Creating Layer ia2_plane0_IA_convb2_relu
I0514 14:43:25.584697 29140 net.cpp:425] ia2_plane0_IA_convb2_relu <- ia2_plane0_IA_convb2_conv
I0514 14:43:25.584702 29140 net.cpp:386] ia2_plane0_IA_convb2_relu -> ia2_plane0_IA_convb2_conv (in-place)
I0514 14:43:25.584710 29140 net.cpp:141] Setting up ia2_plane0_IA_convb2_relu
I0514 14:43:25.584717 29140 net.cpp:148] Top shape: 10 32 44 51 (718080)
I0514 14:43:25.584720 29140 net.cpp:156] Memory required for data: 2036364920
I0514 14:43:25.584724 29140 layer_factory.hpp:77] Creating layer ia2_plane0_IA_convc1_conv
I0514 14:43:25.584733 29140 net.cpp:91] Creating Layer ia2_plane0_IA_convc1_conv
I0514 14:43:25.584739 29140 net.cpp:425] ia2_plane0_IA_convc1_conv <- ia1_plane0_IA_eltwise_ia1_plane0_IA_eltwise_relu_0_split_2
I0514 14:43:25.584748 29140 net.cpp:399] ia2_plane0_IA_convc1_conv -> ia2_plane0_IA_convc1_conv
I0514 14:43:25.585225 29140 net.cpp:141] Setting up ia2_plane0_IA_convc1_conv
I0514 14:43:25.585235 29140 net.cpp:148] Top shape: 10 32 44 51 (718080)
I0514 14:43:25.585240 29140 net.cpp:156] Memory required for data: 2039237240
I0514 14:43:25.585248 29140 layer_factory.hpp:77] Creating layer ia2_plane0_IA_convc1_relu
I0514 14:43:25.585255 29140 net.cpp:91] Creating Layer ia2_plane0_IA_convc1_relu
I0514 14:43:25.585259 29140 net.cpp:425] ia2_plane0_IA_convc1_relu <- ia2_plane0_IA_convc1_conv
I0514 14:43:25.585265 29140 net.cpp:386] ia2_plane0_IA_convc1_relu -> ia2_plane0_IA_convc1_conv (in-place)
I0514 14:43:25.585273 29140 net.cpp:141] Setting up ia2_plane0_IA_convc1_relu
I0514 14:43:25.585279 29140 net.cpp:148] Top shape: 10 32 44 51 (718080)
I0514 14:43:25.585283 29140 net.cpp:156] Memory required for data: 2042109560
I0514 14:43:25.585289 29140 layer_factory.hpp:77] Creating layer ia2_plane0_IA_convc2_conv
I0514 14:43:25.585299 29140 net.cpp:91] Creating Layer ia2_plane0_IA_convc2_conv
I0514 14:43:25.585304 29140 net.cpp:425] ia2_plane0_IA_convc2_conv <- ia2_plane0_IA_convc1_conv
I0514 14:43:25.585311 29140 net.cpp:399] ia2_plane0_IA_convc2_conv -> ia2_plane0_IA_convc2_conv
I0514 14:43:25.585834 29140 net.cpp:141] Setting up ia2_plane0_IA_convc2_conv
I0514 14:43:25.585844 29140 net.cpp:148] Top shape: 10 32 44 51 (718080)
I0514 14:43:25.585850 29140 net.cpp:156] Memory required for data: 2044981880
I0514 14:43:25.585857 29140 layer_factory.hpp:77] Creating layer ia2_plane0_IA_convc2_relu
I0514 14:43:25.585865 29140 net.cpp:91] Creating Layer ia2_plane0_IA_convc2_relu
I0514 14:43:25.585870 29140 net.cpp:425] ia2_plane0_IA_convc2_relu <- ia2_plane0_IA_convc2_conv
I0514 14:43:25.585880 29140 net.cpp:386] ia2_plane0_IA_convc2_relu -> ia2_plane0_IA_convc2_conv (in-place)
I0514 14:43:25.585888 29140 net.cpp:141] Setting up ia2_plane0_IA_convc2_relu
I0514 14:43:25.585893 29140 net.cpp:148] Top shape: 10 32 44 51 (718080)
I0514 14:43:25.585897 29140 net.cpp:156] Memory required for data: 2047854200
I0514 14:43:25.585902 29140 layer_factory.hpp:77] Creating layer ia2_plane0_IA_convc3_conv
I0514 14:43:25.585918 29140 net.cpp:91] Creating Layer ia2_plane0_IA_convc3_conv
I0514 14:43:25.585923 29140 net.cpp:425] ia2_plane0_IA_convc3_conv <- ia2_plane0_IA_convc2_conv
I0514 14:43:25.585930 29140 net.cpp:399] ia2_plane0_IA_convc3_conv -> ia2_plane0_IA_convc3_conv
I0514 14:43:25.586442 29140 net.cpp:141] Setting up ia2_plane0_IA_convc3_conv
I0514 14:43:25.586452 29140 net.cpp:148] Top shape: 10 32 44 51 (718080)
I0514 14:43:25.586457 29140 net.cpp:156] Memory required for data: 2050726520
I0514 14:43:25.586464 29140 layer_factory.hpp:77] Creating layer ia2_plane0_IA_convc3_relu
I0514 14:43:25.586472 29140 net.cpp:91] Creating Layer ia2_plane0_IA_convc3_relu
I0514 14:43:25.586477 29140 net.cpp:425] ia2_plane0_IA_convc3_relu <- ia2_plane0_IA_convc3_conv
I0514 14:43:25.586483 29140 net.cpp:386] ia2_plane0_IA_convc3_relu -> ia2_plane0_IA_convc3_conv (in-place)
I0514 14:43:25.586490 29140 net.cpp:141] Setting up ia2_plane0_IA_convc3_relu
I0514 14:43:25.586496 29140 net.cpp:148] Top shape: 10 32 44 51 (718080)
I0514 14:43:25.586500 29140 net.cpp:156] Memory required for data: 2053598840
I0514 14:43:25.586505 29140 layer_factory.hpp:77] Creating layer ia2_plane0_IA_concat_concat
I0514 14:43:25.586513 29140 net.cpp:91] Creating Layer ia2_plane0_IA_concat_concat
I0514 14:43:25.586519 29140 net.cpp:425] ia2_plane0_IA_concat_concat <- ia2_plane0_IA_conva_conv
I0514 14:43:25.586525 29140 net.cpp:425] ia2_plane0_IA_concat_concat <- ia2_plane0_IA_convb2_conv
I0514 14:43:25.586530 29140 net.cpp:425] ia2_plane0_IA_concat_concat <- ia2_plane0_IA_convc3_conv
I0514 14:43:25.586536 29140 net.cpp:399] ia2_plane0_IA_concat_concat -> ia2_plane0_IA_concat_concat
I0514 14:43:25.586561 29140 net.cpp:141] Setting up ia2_plane0_IA_concat_concat
I0514 14:43:25.586568 29140 net.cpp:148] Top shape: 10 96 44 51 (2154240)
I0514 14:43:25.586572 29140 net.cpp:156] Memory required for data: 2062215800
I0514 14:43:25.586577 29140 layer_factory.hpp:77] Creating layer ia2_plane0_IA_convd_conv
I0514 14:43:25.586588 29140 net.cpp:91] Creating Layer ia2_plane0_IA_convd_conv
I0514 14:43:25.586593 29140 net.cpp:425] ia2_plane0_IA_convd_conv <- ia2_plane0_IA_concat_concat
I0514 14:43:25.586601 29140 net.cpp:399] ia2_plane0_IA_convd_conv -> ia2_plane0_IA_convd_conv
I0514 14:43:25.587601 29140 net.cpp:141] Setting up ia2_plane0_IA_convd_conv
I0514 14:43:25.587610 29140 net.cpp:148] Top shape: 10 256 44 51 (5744640)
I0514 14:43:25.587615 29140 net.cpp:156] Memory required for data: 2085194360
I0514 14:43:25.587621 29140 layer_factory.hpp:77] Creating layer ia2_plane0_IA_convd_relu
I0514 14:43:25.587627 29140 net.cpp:91] Creating Layer ia2_plane0_IA_convd_relu
I0514 14:43:25.587633 29140 net.cpp:425] ia2_plane0_IA_convd_relu <- ia2_plane0_IA_convd_conv
I0514 14:43:25.587641 29140 net.cpp:386] ia2_plane0_IA_convd_relu -> ia2_plane0_IA_convd_conv (in-place)
I0514 14:43:25.587646 29140 net.cpp:141] Setting up ia2_plane0_IA_convd_relu
I0514 14:43:25.587652 29140 net.cpp:148] Top shape: 10 256 44 51 (5744640)
I0514 14:43:25.587656 29140 net.cpp:156] Memory required for data: 2108172920
I0514 14:43:25.587662 29140 layer_factory.hpp:77] Creating layer ia2_plane0_IA_eltwise
I0514 14:43:25.587671 29140 net.cpp:91] Creating Layer ia2_plane0_IA_eltwise
I0514 14:43:25.587676 29140 net.cpp:425] ia2_plane0_IA_eltwise <- ia1_plane0_IA_eltwise_ia1_plane0_IA_eltwise_relu_0_split_3
I0514 14:43:25.587680 29140 net.cpp:425] ia2_plane0_IA_eltwise <- ia2_plane0_IA_convd_conv
I0514 14:43:25.587687 29140 net.cpp:399] ia2_plane0_IA_eltwise -> ia2_plane0_IA_eltwise
I0514 14:43:25.587710 29140 net.cpp:141] Setting up ia2_plane0_IA_eltwise
I0514 14:43:25.587721 29140 net.cpp:148] Top shape: 10 256 44 51 (5744640)
I0514 14:43:25.587725 29140 net.cpp:156] Memory required for data: 2131151480
I0514 14:43:25.587730 29140 layer_factory.hpp:77] Creating layer ia2_plane0_IA_eltwise_relu
I0514 14:43:25.587738 29140 net.cpp:91] Creating Layer ia2_plane0_IA_eltwise_relu
I0514 14:43:25.587743 29140 net.cpp:425] ia2_plane0_IA_eltwise_relu <- ia2_plane0_IA_eltwise
I0514 14:43:25.587754 29140 net.cpp:386] ia2_plane0_IA_eltwise_relu -> ia2_plane0_IA_eltwise (in-place)
I0514 14:43:25.587759 29140 net.cpp:141] Setting up ia2_plane0_IA_eltwise_relu
I0514 14:43:25.587765 29140 net.cpp:148] Top shape: 10 256 44 51 (5744640)
I0514 14:43:25.587770 29140 net.cpp:156] Memory required for data: 2154130040
I0514 14:43:25.587775 29140 layer_factory.hpp:77] Creating layer ia2_plane0_IA_eltwise_ia2_plane0_IA_eltwise_relu_0_split
I0514 14:43:25.587782 29140 net.cpp:91] Creating Layer ia2_plane0_IA_eltwise_ia2_plane0_IA_eltwise_relu_0_split
I0514 14:43:25.587786 29140 net.cpp:425] ia2_plane0_IA_eltwise_ia2_plane0_IA_eltwise_relu_0_split <- ia2_plane0_IA_eltwise
I0514 14:43:25.587792 29140 net.cpp:399] ia2_plane0_IA_eltwise_ia2_plane0_IA_eltwise_relu_0_split -> ia2_plane0_IA_eltwise_ia2_plane0_IA_eltwise_relu_0_split_0
I0514 14:43:25.587800 29140 net.cpp:399] ia2_plane0_IA_eltwise_ia2_plane0_IA_eltwise_relu_0_split -> ia2_plane0_IA_eltwise_ia2_plane0_IA_eltwise_relu_0_split_1
I0514 14:43:25.587807 29140 net.cpp:399] ia2_plane0_IA_eltwise_ia2_plane0_IA_eltwise_relu_0_split -> ia2_plane0_IA_eltwise_ia2_plane0_IA_eltwise_relu_0_split_2
I0514 14:43:25.587815 29140 net.cpp:399] ia2_plane0_IA_eltwise_ia2_plane0_IA_eltwise_relu_0_split -> ia2_plane0_IA_eltwise_ia2_plane0_IA_eltwise_relu_0_split_3
I0514 14:43:25.587867 29140 net.cpp:141] Setting up ia2_plane0_IA_eltwise_ia2_plane0_IA_eltwise_relu_0_split
I0514 14:43:25.587875 29140 net.cpp:148] Top shape: 10 256 44 51 (5744640)
I0514 14:43:25.587882 29140 net.cpp:148] Top shape: 10 256 44 51 (5744640)
I0514 14:43:25.587888 29140 net.cpp:148] Top shape: 10 256 44 51 (5744640)
I0514 14:43:25.587891 29140 net.cpp:148] Top shape: 10 256 44 51 (5744640)
I0514 14:43:25.587895 29140 net.cpp:156] Memory required for data: 2246044280
I0514 14:43:25.587899 29140 layer_factory.hpp:77] Creating layer ia3_plane0_IA_conva_conv
I0514 14:43:25.587910 29140 net.cpp:91] Creating Layer ia3_plane0_IA_conva_conv
I0514 14:43:25.587916 29140 net.cpp:425] ia3_plane0_IA_conva_conv <- ia2_plane0_IA_eltwise_ia2_plane0_IA_eltwise_relu_0_split_0
I0514 14:43:25.587924 29140 net.cpp:399] ia3_plane0_IA_conva_conv -> ia3_plane0_IA_conva_conv
I0514 14:43:25.588407 29140 net.cpp:141] Setting up ia3_plane0_IA_conva_conv
I0514 14:43:25.588416 29140 net.cpp:148] Top shape: 10 32 44 51 (718080)
I0514 14:43:25.588421 29140 net.cpp:156] Memory required for data: 2248916600
I0514 14:43:25.588430 29140 layer_factory.hpp:77] Creating layer ia3_plane0_IA_conva_relu
I0514 14:43:25.588438 29140 net.cpp:91] Creating Layer ia3_plane0_IA_conva_relu
I0514 14:43:25.588443 29140 net.cpp:425] ia3_plane0_IA_conva_relu <- ia3_plane0_IA_conva_conv
I0514 14:43:25.588449 29140 net.cpp:386] ia3_plane0_IA_conva_relu -> ia3_plane0_IA_conva_conv (in-place)
I0514 14:43:25.588456 29140 net.cpp:141] Setting up ia3_plane0_IA_conva_relu
I0514 14:43:25.588464 29140 net.cpp:148] Top shape: 10 32 44 51 (718080)
I0514 14:43:25.588467 29140 net.cpp:156] Memory required for data: 2251788920
I0514 14:43:25.588471 29140 layer_factory.hpp:77] Creating layer ia3_plane0_IA_convb1_conv
I0514 14:43:25.588482 29140 net.cpp:91] Creating Layer ia3_plane0_IA_convb1_conv
I0514 14:43:25.588487 29140 net.cpp:425] ia3_plane0_IA_convb1_conv <- ia2_plane0_IA_eltwise_ia2_plane0_IA_eltwise_relu_0_split_1
I0514 14:43:25.588495 29140 net.cpp:399] ia3_plane0_IA_convb1_conv -> ia3_plane0_IA_convb1_conv
I0514 14:43:25.588986 29140 net.cpp:141] Setting up ia3_plane0_IA_convb1_conv
I0514 14:43:25.588995 29140 net.cpp:148] Top shape: 10 32 44 51 (718080)
I0514 14:43:25.588999 29140 net.cpp:156] Memory required for data: 2254661240
I0514 14:43:25.589010 29140 layer_factory.hpp:77] Creating layer ia3_plane0_IA_convb1_relu
I0514 14:43:25.589018 29140 net.cpp:91] Creating Layer ia3_plane0_IA_convb1_relu
I0514 14:43:25.589025 29140 net.cpp:425] ia3_plane0_IA_convb1_relu <- ia3_plane0_IA_convb1_conv
I0514 14:43:25.589030 29140 net.cpp:386] ia3_plane0_IA_convb1_relu -> ia3_plane0_IA_convb1_conv (in-place)
I0514 14:43:25.589037 29140 net.cpp:141] Setting up ia3_plane0_IA_convb1_relu
I0514 14:43:25.589051 29140 net.cpp:148] Top shape: 10 32 44 51 (718080)
I0514 14:43:25.589056 29140 net.cpp:156] Memory required for data: 2257533560
I0514 14:43:25.589061 29140 layer_factory.hpp:77] Creating layer ia3_plane0_IA_convb2_conv
I0514 14:43:25.589071 29140 net.cpp:91] Creating Layer ia3_plane0_IA_convb2_conv
I0514 14:43:25.589076 29140 net.cpp:425] ia3_plane0_IA_convb2_conv <- ia3_plane0_IA_convb1_conv
I0514 14:43:25.589083 29140 net.cpp:399] ia3_plane0_IA_convb2_conv -> ia3_plane0_IA_convb2_conv
I0514 14:43:25.589622 29140 net.cpp:141] Setting up ia3_plane0_IA_convb2_conv
I0514 14:43:25.589633 29140 net.cpp:148] Top shape: 10 32 44 51 (718080)
I0514 14:43:25.589638 29140 net.cpp:156] Memory required for data: 2260405880
I0514 14:43:25.589646 29140 layer_factory.hpp:77] Creating layer ia3_plane0_IA_convb2_relu
I0514 14:43:25.589654 29140 net.cpp:91] Creating Layer ia3_plane0_IA_convb2_relu
I0514 14:43:25.589660 29140 net.cpp:425] ia3_plane0_IA_convb2_relu <- ia3_plane0_IA_convb2_conv
I0514 14:43:25.589666 29140 net.cpp:386] ia3_plane0_IA_convb2_relu -> ia3_plane0_IA_convb2_conv (in-place)
I0514 14:43:25.589673 29140 net.cpp:141] Setting up ia3_plane0_IA_convb2_relu
I0514 14:43:25.589679 29140 net.cpp:148] Top shape: 10 32 44 51 (718080)
I0514 14:43:25.589684 29140 net.cpp:156] Memory required for data: 2263278200
I0514 14:43:25.589689 29140 layer_factory.hpp:77] Creating layer ia3_plane0_IA_convc1_conv
I0514 14:43:25.589700 29140 net.cpp:91] Creating Layer ia3_plane0_IA_convc1_conv
I0514 14:43:25.589706 29140 net.cpp:425] ia3_plane0_IA_convc1_conv <- ia2_plane0_IA_eltwise_ia2_plane0_IA_eltwise_relu_0_split_2
I0514 14:43:25.589715 29140 net.cpp:399] ia3_plane0_IA_convc1_conv -> ia3_plane0_IA_convc1_conv
I0514 14:43:25.590214 29140 net.cpp:141] Setting up ia3_plane0_IA_convc1_conv
I0514 14:43:25.590222 29140 net.cpp:148] Top shape: 10 32 44 51 (718080)
I0514 14:43:25.590226 29140 net.cpp:156] Memory required for data: 2266150520
I0514 14:43:25.590234 29140 layer_factory.hpp:77] Creating layer ia3_plane0_IA_convc1_relu
I0514 14:43:25.590243 29140 net.cpp:91] Creating Layer ia3_plane0_IA_convc1_relu
I0514 14:43:25.590250 29140 net.cpp:425] ia3_plane0_IA_convc1_relu <- ia3_plane0_IA_convc1_conv
I0514 14:43:25.590255 29140 net.cpp:386] ia3_plane0_IA_convc1_relu -> ia3_plane0_IA_convc1_conv (in-place)
I0514 14:43:25.590262 29140 net.cpp:141] Setting up ia3_plane0_IA_convc1_relu
I0514 14:43:25.590268 29140 net.cpp:148] Top shape: 10 32 44 51 (718080)
I0514 14:43:25.590272 29140 net.cpp:156] Memory required for data: 2269022840
I0514 14:43:25.590278 29140 layer_factory.hpp:77] Creating layer ia3_plane0_IA_convc2_conv
I0514 14:43:25.590288 29140 net.cpp:91] Creating Layer ia3_plane0_IA_convc2_conv
I0514 14:43:25.590293 29140 net.cpp:425] ia3_plane0_IA_convc2_conv <- ia3_plane0_IA_convc1_conv
I0514 14:43:25.590301 29140 net.cpp:399] ia3_plane0_IA_convc2_conv -> ia3_plane0_IA_convc2_conv
I0514 14:43:25.590833 29140 net.cpp:141] Setting up ia3_plane0_IA_convc2_conv
I0514 14:43:25.590844 29140 net.cpp:148] Top shape: 10 32 44 51 (718080)
I0514 14:43:25.590849 29140 net.cpp:156] Memory required for data: 2271895160
I0514 14:43:25.590857 29140 layer_factory.hpp:77] Creating layer ia3_plane0_IA_convc2_relu
I0514 14:43:25.590864 29140 net.cpp:91] Creating Layer ia3_plane0_IA_convc2_relu
I0514 14:43:25.590868 29140 net.cpp:425] ia3_plane0_IA_convc2_relu <- ia3_plane0_IA_convc2_conv
I0514 14:43:25.590876 29140 net.cpp:386] ia3_plane0_IA_convc2_relu -> ia3_plane0_IA_convc2_conv (in-place)
I0514 14:43:25.590883 29140 net.cpp:141] Setting up ia3_plane0_IA_convc2_relu
I0514 14:43:25.590894 29140 net.cpp:148] Top shape: 10 32 44 51 (718080)
I0514 14:43:25.590898 29140 net.cpp:156] Memory required for data: 2274767480
I0514 14:43:25.590903 29140 layer_factory.hpp:77] Creating layer ia3_plane0_IA_convc3_conv
I0514 14:43:25.590914 29140 net.cpp:91] Creating Layer ia3_plane0_IA_convc3_conv
I0514 14:43:25.590919 29140 net.cpp:425] ia3_plane0_IA_convc3_conv <- ia3_plane0_IA_convc2_conv
I0514 14:43:25.590934 29140 net.cpp:399] ia3_plane0_IA_convc3_conv -> ia3_plane0_IA_convc3_conv
I0514 14:43:25.591477 29140 net.cpp:141] Setting up ia3_plane0_IA_convc3_conv
I0514 14:43:25.591487 29140 net.cpp:148] Top shape: 10 32 44 51 (718080)
I0514 14:43:25.591492 29140 net.cpp:156] Memory required for data: 2277639800
I0514 14:43:25.591500 29140 layer_factory.hpp:77] Creating layer ia3_plane0_IA_convc3_relu
I0514 14:43:25.591509 29140 net.cpp:91] Creating Layer ia3_plane0_IA_convc3_relu
I0514 14:43:25.591514 29140 net.cpp:425] ia3_plane0_IA_convc3_relu <- ia3_plane0_IA_convc3_conv
I0514 14:43:25.591519 29140 net.cpp:386] ia3_plane0_IA_convc3_relu -> ia3_plane0_IA_convc3_conv (in-place)
I0514 14:43:25.591527 29140 net.cpp:141] Setting up ia3_plane0_IA_convc3_relu
I0514 14:43:25.591533 29140 net.cpp:148] Top shape: 10 32 44 51 (718080)
I0514 14:43:25.591538 29140 net.cpp:156] Memory required for data: 2280512120
I0514 14:43:25.591544 29140 layer_factory.hpp:77] Creating layer ia3_plane0_IA_concat_concat
I0514 14:43:25.591552 29140 net.cpp:91] Creating Layer ia3_plane0_IA_concat_concat
I0514 14:43:25.591555 29140 net.cpp:425] ia3_plane0_IA_concat_concat <- ia3_plane0_IA_conva_conv
I0514 14:43:25.591560 29140 net.cpp:425] ia3_plane0_IA_concat_concat <- ia3_plane0_IA_convb2_conv
I0514 14:43:25.591565 29140 net.cpp:425] ia3_plane0_IA_concat_concat <- ia3_plane0_IA_convc3_conv
I0514 14:43:25.591573 29140 net.cpp:399] ia3_plane0_IA_concat_concat -> ia3_plane0_IA_concat_concat
I0514 14:43:25.591600 29140 net.cpp:141] Setting up ia3_plane0_IA_concat_concat
I0514 14:43:25.591609 29140 net.cpp:148] Top shape: 10 96 44 51 (2154240)
I0514 14:43:25.591614 29140 net.cpp:156] Memory required for data: 2289129080
I0514 14:43:25.591619 29140 layer_factory.hpp:77] Creating layer ia3_plane0_IA_convd_conv
I0514 14:43:25.591634 29140 net.cpp:91] Creating Layer ia3_plane0_IA_convd_conv
I0514 14:43:25.591639 29140 net.cpp:425] ia3_plane0_IA_convd_conv <- ia3_plane0_IA_concat_concat
I0514 14:43:25.591646 29140 net.cpp:399] ia3_plane0_IA_convd_conv -> ia3_plane0_IA_convd_conv
I0514 14:43:25.592669 29140 net.cpp:141] Setting up ia3_plane0_IA_convd_conv
I0514 14:43:25.592679 29140 net.cpp:148] Top shape: 10 256 44 51 (5744640)
I0514 14:43:25.592684 29140 net.cpp:156] Memory required for data: 2312107640
I0514 14:43:25.592691 29140 layer_factory.hpp:77] Creating layer ia3_plane0_IA_convd_relu
I0514 14:43:25.592700 29140 net.cpp:91] Creating Layer ia3_plane0_IA_convd_relu
I0514 14:43:25.592705 29140 net.cpp:425] ia3_plane0_IA_convd_relu <- ia3_plane0_IA_convd_conv
I0514 14:43:25.592711 29140 net.cpp:386] ia3_plane0_IA_convd_relu -> ia3_plane0_IA_convd_conv (in-place)
I0514 14:43:25.592717 29140 net.cpp:141] Setting up ia3_plane0_IA_convd_relu
I0514 14:43:25.592723 29140 net.cpp:148] Top shape: 10 256 44 51 (5744640)
I0514 14:43:25.592728 29140 net.cpp:156] Memory required for data: 2335086200
I0514 14:43:25.592733 29140 layer_factory.hpp:77] Creating layer ia3_plane0_IA_eltwise
I0514 14:43:25.592741 29140 net.cpp:91] Creating Layer ia3_plane0_IA_eltwise
I0514 14:43:25.592746 29140 net.cpp:425] ia3_plane0_IA_eltwise <- ia2_plane0_IA_eltwise_ia2_plane0_IA_eltwise_relu_0_split_3
I0514 14:43:25.592751 29140 net.cpp:425] ia3_plane0_IA_eltwise <- ia3_plane0_IA_convd_conv
I0514 14:43:25.592756 29140 net.cpp:399] ia3_plane0_IA_eltwise -> ia3_plane0_IA_eltwise
I0514 14:43:25.592784 29140 net.cpp:141] Setting up ia3_plane0_IA_eltwise
I0514 14:43:25.592792 29140 net.cpp:148] Top shape: 10 256 44 51 (5744640)
I0514 14:43:25.592795 29140 net.cpp:156] Memory required for data: 2358064760
I0514 14:43:25.592802 29140 layer_factory.hpp:77] Creating layer ia3_plane0_IA_eltwise_relu
I0514 14:43:25.592814 29140 net.cpp:91] Creating Layer ia3_plane0_IA_eltwise_relu
I0514 14:43:25.592820 29140 net.cpp:425] ia3_plane0_IA_eltwise_relu <- ia3_plane0_IA_eltwise
I0514 14:43:25.592825 29140 net.cpp:386] ia3_plane0_IA_eltwise_relu -> ia3_plane0_IA_eltwise (in-place)
I0514 14:43:25.592831 29140 net.cpp:141] Setting up ia3_plane0_IA_eltwise_relu
I0514 14:43:25.592838 29140 net.cpp:148] Top shape: 10 256 44 51 (5744640)
I0514 14:43:25.592847 29140 net.cpp:156] Memory required for data: 2381043320
I0514 14:43:25.592852 29140 layer_factory.hpp:77] Creating layer ia3_plane0_IA_eltwise_ia3_plane0_IA_eltwise_relu_0_split
I0514 14:43:25.592859 29140 net.cpp:91] Creating Layer ia3_plane0_IA_eltwise_ia3_plane0_IA_eltwise_relu_0_split
I0514 14:43:25.592864 29140 net.cpp:425] ia3_plane0_IA_eltwise_ia3_plane0_IA_eltwise_relu_0_split <- ia3_plane0_IA_eltwise
I0514 14:43:25.592869 29140 net.cpp:399] ia3_plane0_IA_eltwise_ia3_plane0_IA_eltwise_relu_0_split -> ia3_plane0_IA_eltwise_ia3_plane0_IA_eltwise_relu_0_split_0
I0514 14:43:25.592878 29140 net.cpp:399] ia3_plane0_IA_eltwise_ia3_plane0_IA_eltwise_relu_0_split -> ia3_plane0_IA_eltwise_ia3_plane0_IA_eltwise_relu_0_split_1
I0514 14:43:25.592887 29140 net.cpp:399] ia3_plane0_IA_eltwise_ia3_plane0_IA_eltwise_relu_0_split -> ia3_plane0_IA_eltwise_ia3_plane0_IA_eltwise_relu_0_split_2
I0514 14:43:25.592937 29140 net.cpp:141] Setting up ia3_plane0_IA_eltwise_ia3_plane0_IA_eltwise_relu_0_split
I0514 14:43:25.592947 29140 net.cpp:148] Top shape: 10 256 44 51 (5744640)
I0514 14:43:25.592952 29140 net.cpp:148] Top shape: 10 256 44 51 (5744640)
I0514 14:43:25.592958 29140 net.cpp:148] Top shape: 10 256 44 51 (5744640)
I0514 14:43:25.592963 29140 net.cpp:156] Memory required for data: 2449979000
I0514 14:43:25.592967 29140 layer_factory.hpp:77] Creating layer reducA_mpA_plane0
I0514 14:43:25.592975 29140 net.cpp:91] Creating Layer reducA_mpA_plane0
I0514 14:43:25.592980 29140 net.cpp:425] reducA_mpA_plane0 <- ia3_plane0_IA_eltwise_ia3_plane0_IA_eltwise_relu_0_split_0
I0514 14:43:25.592985 29140 net.cpp:399] reducA_mpA_plane0 -> reducA_mpA_plane0
I0514 14:43:25.593025 29140 net.cpp:141] Setting up reducA_mpA_plane0
I0514 14:43:25.593034 29140 net.cpp:148] Top shape: 10 256 22 26 (1464320)
I0514 14:43:25.593039 29140 net.cpp:156] Memory required for data: 2455836280
I0514 14:43:25.593045 29140 layer_factory.hpp:77] Creating layer reducA_convb_plane0_conv
I0514 14:43:25.593056 29140 net.cpp:91] Creating Layer reducA_convb_plane0_conv
I0514 14:43:25.593061 29140 net.cpp:425] reducA_convb_plane0_conv <- ia3_plane0_IA_eltwise_ia3_plane0_IA_eltwise_relu_0_split_1
I0514 14:43:25.593070 29140 net.cpp:399] reducA_convb_plane0_conv -> reducA_convb_plane0_conv
I0514 14:43:25.595711 29140 net.cpp:141] Setting up reducA_convb_plane0_conv
I0514 14:43:25.595722 29140 net.cpp:148] Top shape: 10 32 22 26 (183040)
I0514 14:43:25.595727 29140 net.cpp:156] Memory required for data: 2456568440
I0514 14:43:25.595736 29140 layer_factory.hpp:77] Creating layer reducA_convb_plane0_relu
I0514 14:43:25.595744 29140 net.cpp:91] Creating Layer reducA_convb_plane0_relu
I0514 14:43:25.595749 29140 net.cpp:425] reducA_convb_plane0_relu <- reducA_convb_plane0_conv
I0514 14:43:25.595757 29140 net.cpp:386] reducA_convb_plane0_relu -> reducA_convb_plane0_conv (in-place)
I0514 14:43:25.595767 29140 net.cpp:141] Setting up reducA_convb_plane0_relu
I0514 14:43:25.595772 29140 net.cpp:148] Top shape: 10 32 22 26 (183040)
I0514 14:43:25.595777 29140 net.cpp:156] Memory required for data: 2457300600
I0514 14:43:25.595780 29140 layer_factory.hpp:77] Creating layer reducA_convc1_plane0_conv
I0514 14:43:25.595791 29140 net.cpp:91] Creating Layer reducA_convc1_plane0_conv
I0514 14:43:25.595796 29140 net.cpp:425] reducA_convc1_plane0_conv <- ia3_plane0_IA_eltwise_ia3_plane0_IA_eltwise_relu_0_split_2
I0514 14:43:25.595804 29140 net.cpp:399] reducA_convc1_plane0_conv -> reducA_convc1_plane0_conv
I0514 14:43:25.596307 29140 net.cpp:141] Setting up reducA_convc1_plane0_conv
I0514 14:43:25.596318 29140 net.cpp:148] Top shape: 10 32 44 51 (718080)
I0514 14:43:25.596325 29140 net.cpp:156] Memory required for data: 2460172920
I0514 14:43:25.596333 29140 layer_factory.hpp:77] Creating layer reducA_convc1_plane0_relu
I0514 14:43:25.596341 29140 net.cpp:91] Creating Layer reducA_convc1_plane0_relu
I0514 14:43:25.596348 29140 net.cpp:425] reducA_convc1_plane0_relu <- reducA_convc1_plane0_conv
I0514 14:43:25.596354 29140 net.cpp:386] reducA_convc1_plane0_relu -> reducA_convc1_plane0_conv (in-place)
I0514 14:43:25.596367 29140 net.cpp:141] Setting up reducA_convc1_plane0_relu
I0514 14:43:25.596374 29140 net.cpp:148] Top shape: 10 32 44 51 (718080)
I0514 14:43:25.596379 29140 net.cpp:156] Memory required for data: 2463045240
I0514 14:43:25.596385 29140 layer_factory.hpp:77] Creating layer reducA_convc2_plane0_conv
I0514 14:43:25.596395 29140 net.cpp:91] Creating Layer reducA_convc2_plane0_conv
I0514 14:43:25.596400 29140 net.cpp:425] reducA_convc2_plane0_conv <- reducA_convc1_plane0_conv
I0514 14:43:25.596412 29140 net.cpp:399] reducA_convc2_plane0_conv -> reducA_convc2_plane0_conv
I0514 14:43:25.597003 29140 net.cpp:141] Setting up reducA_convc2_plane0_conv
I0514 14:43:25.597017 29140 net.cpp:148] Top shape: 10 32 44 51 (718080)
I0514 14:43:25.597024 29140 net.cpp:156] Memory required for data: 2465917560
I0514 14:43:25.597034 29140 layer_factory.hpp:77] Creating layer reducA_convc2_plane0_relu
I0514 14:43:25.597045 29140 net.cpp:91] Creating Layer reducA_convc2_plane0_relu
I0514 14:43:25.597054 29140 net.cpp:425] reducA_convc2_plane0_relu <- reducA_convc2_plane0_conv
I0514 14:43:25.597062 29140 net.cpp:386] reducA_convc2_plane0_relu -> reducA_convc2_plane0_conv (in-place)
I0514 14:43:25.597074 29140 net.cpp:141] Setting up reducA_convc2_plane0_relu
I0514 14:43:25.597084 29140 net.cpp:148] Top shape: 10 32 44 51 (718080)
I0514 14:43:25.597090 29140 net.cpp:156] Memory required for data: 2468789880
I0514 14:43:25.597096 29140 layer_factory.hpp:77] Creating layer reducA_convc3_plane0_conv
I0514 14:43:25.597113 29140 net.cpp:91] Creating Layer reducA_convc3_plane0_conv
I0514 14:43:25.597123 29140 net.cpp:425] reducA_convc3_plane0_conv <- reducA_convc2_plane0_conv
I0514 14:43:25.597136 29140 net.cpp:399] reducA_convc3_plane0_conv -> reducA_convc3_plane0_conv
I0514 14:43:25.598266 29140 net.cpp:141] Setting up reducA_convc3_plane0_conv
I0514 14:43:25.598279 29140 net.cpp:148] Top shape: 10 32 22 26 (183040)
I0514 14:43:25.598284 29140 net.cpp:156] Memory required for data: 2469522040
I0514 14:43:25.598291 29140 layer_factory.hpp:77] Creating layer reducA_convc3_plane0_relu
I0514 14:43:25.598297 29140 net.cpp:91] Creating Layer reducA_convc3_plane0_relu
I0514 14:43:25.598301 29140 net.cpp:425] reducA_convc3_plane0_relu <- reducA_convc3_plane0_conv
I0514 14:43:25.598306 29140 net.cpp:386] reducA_convc3_plane0_relu -> reducA_convc3_plane0_conv (in-place)
I0514 14:43:25.598311 29140 net.cpp:141] Setting up reducA_convc3_plane0_relu
I0514 14:43:25.598315 29140 net.cpp:148] Top shape: 10 32 22 26 (183040)
I0514 14:43:25.598318 29140 net.cpp:156] Memory required for data: 2470254200
I0514 14:43:25.598321 29140 layer_factory.hpp:77] Creating layer reducA_concat_plane0_concat
I0514 14:43:25.598328 29140 net.cpp:91] Creating Layer reducA_concat_plane0_concat
I0514 14:43:25.598331 29140 net.cpp:425] reducA_concat_plane0_concat <- reducA_mpA_plane0
I0514 14:43:25.598335 29140 net.cpp:425] reducA_concat_plane0_concat <- reducA_convb_plane0_conv
I0514 14:43:25.598340 29140 net.cpp:425] reducA_concat_plane0_concat <- reducA_convc3_plane0_conv
I0514 14:43:25.598343 29140 net.cpp:399] reducA_concat_plane0_concat -> reducA_concat_plane0_concat
I0514 14:43:25.598364 29140 net.cpp:141] Setting up reducA_concat_plane0_concat
I0514 14:43:25.598369 29140 net.cpp:148] Top shape: 10 320 22 26 (1830400)
I0514 14:43:25.598372 29140 net.cpp:156] Memory required for data: 2477575800
I0514 14:43:25.598376 29140 layer_factory.hpp:77] Creating layer stem_conv1_plane1_conv
I0514 14:43:25.598384 29140 net.cpp:91] Creating Layer stem_conv1_plane1_conv
I0514 14:43:25.598394 29140 net.cpp:425] stem_conv1_plane1_conv <- Slice2
I0514 14:43:25.598400 29140 net.cpp:399] stem_conv1_plane1_conv -> stem_conv1_plane1_conv
I0514 14:43:25.599083 29140 net.cpp:141] Setting up stem_conv1_plane1_conv
I0514 14:43:25.599098 29140 net.cpp:148] Top shape: 10 32 377 431 (51995840)
I0514 14:43:25.599103 29140 net.cpp:156] Memory required for data: 2685559160
I0514 14:43:25.599123 29140 layer_factory.hpp:77] Creating layer stem_conv1_plane1_bn
I0514 14:43:25.599143 29140 net.cpp:91] Creating Layer stem_conv1_plane1_bn
I0514 14:43:25.599149 29140 net.cpp:425] stem_conv1_plane1_bn <- stem_conv1_plane1_conv
I0514 14:43:25.599159 29140 net.cpp:386] stem_conv1_plane1_bn -> stem_conv1_plane1_conv (in-place)
I0514 14:43:25.599905 29140 net.cpp:141] Setting up stem_conv1_plane1_bn
I0514 14:43:25.599920 29140 net.cpp:148] Top shape: 10 32 377 431 (51995840)
I0514 14:43:25.599925 29140 net.cpp:156] Memory required for data: 2893542520
I0514 14:43:25.599936 29140 layer_factory.hpp:77] Creating layer stem_conv1_plane1_scale
I0514 14:43:25.599946 29140 net.cpp:91] Creating Layer stem_conv1_plane1_scale
I0514 14:43:25.599951 29140 net.cpp:425] stem_conv1_plane1_scale <- stem_conv1_plane1_conv
I0514 14:43:25.599959 29140 net.cpp:386] stem_conv1_plane1_scale -> stem_conv1_plane1_conv (in-place)
I0514 14:43:25.600005 29140 layer_factory.hpp:77] Creating layer stem_conv1_plane1_scale
I0514 14:43:25.601220 29140 net.cpp:141] Setting up stem_conv1_plane1_scale
I0514 14:43:25.601234 29140 net.cpp:148] Top shape: 10 32 377 431 (51995840)
I0514 14:43:25.601239 29140 net.cpp:156] Memory required for data: 3101525880
I0514 14:43:25.601248 29140 layer_factory.hpp:77] Creating layer stem_conv1_plane1_relu
I0514 14:43:25.601256 29140 net.cpp:91] Creating Layer stem_conv1_plane1_relu
I0514 14:43:25.601263 29140 net.cpp:425] stem_conv1_plane1_relu <- stem_conv1_plane1_conv
I0514 14:43:25.601269 29140 net.cpp:386] stem_conv1_plane1_relu -> stem_conv1_plane1_conv (in-place)
I0514 14:43:25.601276 29140 net.cpp:141] Setting up stem_conv1_plane1_relu
I0514 14:43:25.601281 29140 net.cpp:148] Top shape: 10 32 377 431 (51995840)
I0514 14:43:25.601286 29140 net.cpp:156] Memory required for data: 3309509240
I0514 14:43:25.601290 29140 layer_factory.hpp:77] Creating layer stem_conv2_plane1_conv
I0514 14:43:25.601302 29140 net.cpp:91] Creating Layer stem_conv2_plane1_conv
I0514 14:43:25.601307 29140 net.cpp:425] stem_conv2_plane1_conv <- stem_conv1_plane1_conv
I0514 14:43:25.601315 29140 net.cpp:399] stem_conv2_plane1_conv -> stem_conv2_plane1_conv
I0514 14:43:25.601898 29140 net.cpp:141] Setting up stem_conv2_plane1_conv
I0514 14:43:25.601909 29140 net.cpp:148] Top shape: 10 32 188 215 (12934400)
I0514 14:43:25.601913 29140 net.cpp:156] Memory required for data: 3361246840
I0514 14:43:25.601922 29140 layer_factory.hpp:77] Creating layer stem_conv2_plane1_bn
I0514 14:43:25.601933 29140 net.cpp:91] Creating Layer stem_conv2_plane1_bn
I0514 14:43:25.601938 29140 net.cpp:425] stem_conv2_plane1_bn <- stem_conv2_plane1_conv
I0514 14:43:25.601945 29140 net.cpp:386] stem_conv2_plane1_bn -> stem_conv2_plane1_conv (in-place)
I0514 14:43:25.602174 29140 net.cpp:141] Setting up stem_conv2_plane1_bn
I0514 14:43:25.602183 29140 net.cpp:148] Top shape: 10 32 188 215 (12934400)
I0514 14:43:25.602188 29140 net.cpp:156] Memory required for data: 3412984440
I0514 14:43:25.602200 29140 layer_factory.hpp:77] Creating layer stem_conv2_plane1_scale
I0514 14:43:25.602208 29140 net.cpp:91] Creating Layer stem_conv2_plane1_scale
I0514 14:43:25.602213 29140 net.cpp:425] stem_conv2_plane1_scale <- stem_conv2_plane1_conv
I0514 14:43:25.602219 29140 net.cpp:386] stem_conv2_plane1_scale -> stem_conv2_plane1_conv (in-place)
I0514 14:43:25.602259 29140 layer_factory.hpp:77] Creating layer stem_conv2_plane1_scale
I0514 14:43:25.602453 29140 net.cpp:141] Setting up stem_conv2_plane1_scale
I0514 14:43:25.602463 29140 net.cpp:148] Top shape: 10 32 188 215 (12934400)
I0514 14:43:25.602468 29140 net.cpp:156] Memory required for data: 3464722040
I0514 14:43:25.602475 29140 layer_factory.hpp:77] Creating layer stem_conv2_plane1_relu
I0514 14:43:25.602493 29140 net.cpp:91] Creating Layer stem_conv2_plane1_relu
I0514 14:43:25.602499 29140 net.cpp:425] stem_conv2_plane1_relu <- stem_conv2_plane1_conv
I0514 14:43:25.602505 29140 net.cpp:386] stem_conv2_plane1_relu -> stem_conv2_plane1_conv (in-place)
I0514 14:43:25.602512 29140 net.cpp:141] Setting up stem_conv2_plane1_relu
I0514 14:43:25.602519 29140 net.cpp:148] Top shape: 10 32 188 215 (12934400)
I0514 14:43:25.602530 29140 net.cpp:156] Memory required for data: 3516459640
I0514 14:43:25.602535 29140 layer_factory.hpp:77] Creating layer stem_conv3_plane1_conv
I0514 14:43:25.602545 29140 net.cpp:91] Creating Layer stem_conv3_plane1_conv
I0514 14:43:25.602550 29140 net.cpp:425] stem_conv3_plane1_conv <- stem_conv2_plane1_conv
I0514 14:43:25.602558 29140 net.cpp:399] stem_conv3_plane1_conv -> stem_conv3_plane1_conv
I0514 14:43:25.603104 29140 net.cpp:141] Setting up stem_conv3_plane1_conv
I0514 14:43:25.603113 29140 net.cpp:148] Top shape: 10 32 93 107 (3184320)
I0514 14:43:25.603118 29140 net.cpp:156] Memory required for data: 3529196920
I0514 14:43:25.603127 29140 layer_factory.hpp:77] Creating layer stem_conv3_plane1_bn
I0514 14:43:25.603135 29140 net.cpp:91] Creating Layer stem_conv3_plane1_bn
I0514 14:43:25.603140 29140 net.cpp:425] stem_conv3_plane1_bn <- stem_conv3_plane1_conv
I0514 14:43:25.603148 29140 net.cpp:386] stem_conv3_plane1_bn -> stem_conv3_plane1_conv (in-place)
I0514 14:43:25.603348 29140 net.cpp:141] Setting up stem_conv3_plane1_bn
I0514 14:43:25.603358 29140 net.cpp:148] Top shape: 10 32 93 107 (3184320)
I0514 14:43:25.603363 29140 net.cpp:156] Memory required for data: 3541934200
I0514 14:43:25.603373 29140 layer_factory.hpp:77] Creating layer stem_conv3_plane1_scale
I0514 14:43:25.603379 29140 net.cpp:91] Creating Layer stem_conv3_plane1_scale
I0514 14:43:25.603385 29140 net.cpp:425] stem_conv3_plane1_scale <- stem_conv3_plane1_conv
I0514 14:43:25.603392 29140 net.cpp:386] stem_conv3_plane1_scale -> stem_conv3_plane1_conv (in-place)
I0514 14:43:25.603431 29140 layer_factory.hpp:77] Creating layer stem_conv3_plane1_scale
I0514 14:43:25.603564 29140 net.cpp:141] Setting up stem_conv3_plane1_scale
I0514 14:43:25.603572 29140 net.cpp:148] Top shape: 10 32 93 107 (3184320)
I0514 14:43:25.603577 29140 net.cpp:156] Memory required for data: 3554671480
I0514 14:43:25.603585 29140 layer_factory.hpp:77] Creating layer stem_conv3_plane1_relu
I0514 14:43:25.603591 29140 net.cpp:91] Creating Layer stem_conv3_plane1_relu
I0514 14:43:25.603596 29140 net.cpp:425] stem_conv3_plane1_relu <- stem_conv3_plane1_conv
I0514 14:43:25.603603 29140 net.cpp:386] stem_conv3_plane1_relu -> stem_conv3_plane1_conv (in-place)
I0514 14:43:25.603610 29140 net.cpp:141] Setting up stem_conv3_plane1_relu
I0514 14:43:25.603616 29140 net.cpp:148] Top shape: 10 32 93 107 (3184320)
I0514 14:43:25.603621 29140 net.cpp:156] Memory required for data: 3567408760
I0514 14:43:25.603626 29140 layer_factory.hpp:77] Creating layer stem_conv3_plane1_conv_stem_conv3_plane1_relu_0_split
I0514 14:43:25.603632 29140 net.cpp:91] Creating Layer stem_conv3_plane1_conv_stem_conv3_plane1_relu_0_split
I0514 14:43:25.603637 29140 net.cpp:425] stem_conv3_plane1_conv_stem_conv3_plane1_relu_0_split <- stem_conv3_plane1_conv
I0514 14:43:25.603644 29140 net.cpp:399] stem_conv3_plane1_conv_stem_conv3_plane1_relu_0_split -> stem_conv3_plane1_conv_stem_conv3_plane1_relu_0_split_0
I0514 14:43:25.603652 29140 net.cpp:399] stem_conv3_plane1_conv_stem_conv3_plane1_relu_0_split -> stem_conv3_plane1_conv_stem_conv3_plane1_relu_0_split_1
I0514 14:43:25.603688 29140 net.cpp:141] Setting up stem_conv3_plane1_conv_stem_conv3_plane1_relu_0_split
I0514 14:43:25.603696 29140 net.cpp:148] Top shape: 10 32 93 107 (3184320)
I0514 14:43:25.603703 29140 net.cpp:148] Top shape: 10 32 93 107 (3184320)
I0514 14:43:25.603706 29140 net.cpp:156] Memory required for data: 3592883320
I0514 14:43:25.603711 29140 layer_factory.hpp:77] Creating layer stem_mp1_plane1
I0514 14:43:25.603720 29140 net.cpp:91] Creating Layer stem_mp1_plane1
I0514 14:43:25.603729 29140 net.cpp:425] stem_mp1_plane1 <- stem_conv3_plane1_conv_stem_conv3_plane1_relu_0_split_0
I0514 14:43:25.603735 29140 net.cpp:399] stem_mp1_plane1 -> stem_mp1_plane1
I0514 14:43:25.603772 29140 net.cpp:141] Setting up stem_mp1_plane1
I0514 14:43:25.603780 29140 net.cpp:148] Top shape: 10 32 46 53 (780160)
I0514 14:43:25.603785 29140 net.cpp:156] Memory required for data: 3596003960
I0514 14:43:25.603796 29140 layer_factory.hpp:77] Creating layer stem_conv4_plane1_conv
I0514 14:43:25.603808 29140 net.cpp:91] Creating Layer stem_conv4_plane1_conv
I0514 14:43:25.603813 29140 net.cpp:425] stem_conv4_plane1_conv <- stem_conv3_plane1_conv_stem_conv3_plane1_relu_0_split_1
I0514 14:43:25.603822 29140 net.cpp:399] stem_conv4_plane1_conv -> stem_conv4_plane1_conv
I0514 14:43:25.604370 29140 net.cpp:141] Setting up stem_conv4_plane1_conv
I0514 14:43:25.604379 29140 net.cpp:148] Top shape: 10 32 46 53 (780160)
I0514 14:43:25.604384 29140 net.cpp:156] Memory required for data: 3599124600
I0514 14:43:25.604393 29140 layer_factory.hpp:77] Creating layer stem_conv4_plane1_bn
I0514 14:43:25.604403 29140 net.cpp:91] Creating Layer stem_conv4_plane1_bn
I0514 14:43:25.604408 29140 net.cpp:425] stem_conv4_plane1_bn <- stem_conv4_plane1_conv
I0514 14:43:25.604414 29140 net.cpp:386] stem_conv4_plane1_bn -> stem_conv4_plane1_conv (in-place)
I0514 14:43:25.604598 29140 net.cpp:141] Setting up stem_conv4_plane1_bn
I0514 14:43:25.604607 29140 net.cpp:148] Top shape: 10 32 46 53 (780160)
I0514 14:43:25.604611 29140 net.cpp:156] Memory required for data: 3602245240
I0514 14:43:25.604620 29140 layer_factory.hpp:77] Creating layer stem_conv4_plane1_scale
I0514 14:43:25.604627 29140 net.cpp:91] Creating Layer stem_conv4_plane1_scale
I0514 14:43:25.604632 29140 net.cpp:425] stem_conv4_plane1_scale <- stem_conv4_plane1_conv
I0514 14:43:25.604638 29140 net.cpp:386] stem_conv4_plane1_scale -> stem_conv4_plane1_conv (in-place)
I0514 14:43:25.604678 29140 layer_factory.hpp:77] Creating layer stem_conv4_plane1_scale
I0514 14:43:25.604796 29140 net.cpp:141] Setting up stem_conv4_plane1_scale
I0514 14:43:25.604805 29140 net.cpp:148] Top shape: 10 32 46 53 (780160)
I0514 14:43:25.604809 29140 net.cpp:156] Memory required for data: 3605365880
I0514 14:43:25.604817 29140 layer_factory.hpp:77] Creating layer stem_conv4_plane1_relu
I0514 14:43:25.604825 29140 net.cpp:91] Creating Layer stem_conv4_plane1_relu
I0514 14:43:25.604830 29140 net.cpp:425] stem_conv4_plane1_relu <- stem_conv4_plane1_conv
I0514 14:43:25.604835 29140 net.cpp:386] stem_conv4_plane1_relu -> stem_conv4_plane1_conv (in-place)
I0514 14:43:25.604841 29140 net.cpp:141] Setting up stem_conv4_plane1_relu
I0514 14:43:25.604847 29140 net.cpp:148] Top shape: 10 32 46 53 (780160)
I0514 14:43:25.604851 29140 net.cpp:156] Memory required for data: 3608486520
I0514 14:43:25.604856 29140 layer_factory.hpp:77] Creating layer stem_concat_plane1_concat
I0514 14:43:25.604866 29140 net.cpp:91] Creating Layer stem_concat_plane1_concat
I0514 14:43:25.604871 29140 net.cpp:425] stem_concat_plane1_concat <- stem_mp1_plane1
I0514 14:43:25.604876 29140 net.cpp:425] stem_concat_plane1_concat <- stem_conv4_plane1_conv
I0514 14:43:25.604882 29140 net.cpp:399] stem_concat_plane1_concat -> stem_concat_plane1_concat
I0514 14:43:25.604907 29140 net.cpp:141] Setting up stem_concat_plane1_concat
I0514 14:43:25.604914 29140 net.cpp:148] Top shape: 10 64 46 53 (1560320)
I0514 14:43:25.604919 29140 net.cpp:156] Memory required for data: 3614727800
I0514 14:43:25.604923 29140 layer_factory.hpp:77] Creating layer stem_concat_plane1_concat_stem_concat_plane1_concat_0_split
I0514 14:43:25.604930 29140 net.cpp:91] Creating Layer stem_concat_plane1_concat_stem_concat_plane1_concat_0_split
I0514 14:43:25.604934 29140 net.cpp:425] stem_concat_plane1_concat_stem_concat_plane1_concat_0_split <- stem_concat_plane1_concat
I0514 14:43:25.604943 29140 net.cpp:399] stem_concat_plane1_concat_stem_concat_plane1_concat_0_split -> stem_concat_plane1_concat_stem_concat_plane1_concat_0_split_0
I0514 14:43:25.604949 29140 net.cpp:399] stem_concat_plane1_concat_stem_concat_plane1_concat_0_split -> stem_concat_plane1_concat_stem_concat_plane1_concat_0_split_1
I0514 14:43:25.604985 29140 net.cpp:141] Setting up stem_concat_plane1_concat_stem_concat_plane1_concat_0_split
I0514 14:43:25.604992 29140 net.cpp:148] Top shape: 10 64 46 53 (1560320)
I0514 14:43:25.604998 29140 net.cpp:148] Top shape: 10 64 46 53 (1560320)
I0514 14:43:25.605002 29140 net.cpp:156] Memory required for data: 3627210360
I0514 14:43:25.605013 29140 layer_factory.hpp:77] Creating layer stem_conv5a_plane1_conv
I0514 14:43:25.605026 29140 net.cpp:91] Creating Layer stem_conv5a_plane1_conv
I0514 14:43:25.605031 29140 net.cpp:425] stem_conv5a_plane1_conv <- stem_concat_plane1_concat_stem_concat_plane1_concat_0_split_0
I0514 14:43:25.605037 29140 net.cpp:399] stem_conv5a_plane1_conv -> stem_conv5a_plane1_conv
I0514 14:43:25.605407 29140 net.cpp:141] Setting up stem_conv5a_plane1_conv
I0514 14:43:25.605417 29140 net.cpp:148] Top shape: 10 64 46 53 (1560320)
I0514 14:43:25.605422 29140 net.cpp:156] Memory required for data: 3633451640
I0514 14:43:25.605432 29140 layer_factory.hpp:77] Creating layer stem_conv5a_plane1_bn
I0514 14:43:25.605440 29140 net.cpp:91] Creating Layer stem_conv5a_plane1_bn
I0514 14:43:25.605445 29140 net.cpp:425] stem_conv5a_plane1_bn <- stem_conv5a_plane1_conv
I0514 14:43:25.605451 29140 net.cpp:386] stem_conv5a_plane1_bn -> stem_conv5a_plane1_conv (in-place)
I0514 14:43:25.605636 29140 net.cpp:141] Setting up stem_conv5a_plane1_bn
I0514 14:43:25.605645 29140 net.cpp:148] Top shape: 10 64 46 53 (1560320)
I0514 14:43:25.605649 29140 net.cpp:156] Memory required for data: 3639692920
I0514 14:43:25.605659 29140 layer_factory.hpp:77] Creating layer stem_conv5a_plane1_scale
I0514 14:43:25.605667 29140 net.cpp:91] Creating Layer stem_conv5a_plane1_scale
I0514 14:43:25.605672 29140 net.cpp:425] stem_conv5a_plane1_scale <- stem_conv5a_plane1_conv
I0514 14:43:25.605679 29140 net.cpp:386] stem_conv5a_plane1_scale -> stem_conv5a_plane1_conv (in-place)
I0514 14:43:25.605720 29140 layer_factory.hpp:77] Creating layer stem_conv5a_plane1_scale
I0514 14:43:25.605834 29140 net.cpp:141] Setting up stem_conv5a_plane1_scale
I0514 14:43:25.605844 29140 net.cpp:148] Top shape: 10 64 46 53 (1560320)
I0514 14:43:25.605847 29140 net.cpp:156] Memory required for data: 3645934200
I0514 14:43:25.605855 29140 layer_factory.hpp:77] Creating layer stem_conv5a_plane1_relu
I0514 14:43:25.605862 29140 net.cpp:91] Creating Layer stem_conv5a_plane1_relu
I0514 14:43:25.605866 29140 net.cpp:425] stem_conv5a_plane1_relu <- stem_conv5a_plane1_conv
I0514 14:43:25.605872 29140 net.cpp:386] stem_conv5a_plane1_relu -> stem_conv5a_plane1_conv (in-place)
I0514 14:43:25.605880 29140 net.cpp:141] Setting up stem_conv5a_plane1_relu
I0514 14:43:25.605885 29140 net.cpp:148] Top shape: 10 64 46 53 (1560320)
I0514 14:43:25.605890 29140 net.cpp:156] Memory required for data: 3652175480
I0514 14:43:25.605893 29140 layer_factory.hpp:77] Creating layer stem_conv5b_plane1_conv
I0514 14:43:25.605906 29140 net.cpp:91] Creating Layer stem_conv5b_plane1_conv
I0514 14:43:25.605911 29140 net.cpp:425] stem_conv5b_plane1_conv <- stem_conv5a_plane1_conv
I0514 14:43:25.605917 29140 net.cpp:399] stem_conv5b_plane1_conv -> stem_conv5b_plane1_conv
I0514 14:43:25.607545 29140 net.cpp:141] Setting up stem_conv5b_plane1_conv
I0514 14:43:25.607559 29140 net.cpp:148] Top shape: 10 64 46 53 (1560320)
I0514 14:43:25.607564 29140 net.cpp:156] Memory required for data: 3658416760
I0514 14:43:25.607584 29140 layer_factory.hpp:77] Creating layer stem_conv5b_plane1_bn
I0514 14:43:25.607599 29140 net.cpp:91] Creating Layer stem_conv5b_plane1_bn
I0514 14:43:25.607604 29140 net.cpp:425] stem_conv5b_plane1_bn <- stem_conv5b_plane1_conv
I0514 14:43:25.607611 29140 net.cpp:386] stem_conv5b_plane1_bn -> stem_conv5b_plane1_conv (in-place)
I0514 14:43:25.607802 29140 net.cpp:141] Setting up stem_conv5b_plane1_bn
I0514 14:43:25.607811 29140 net.cpp:148] Top shape: 10 64 46 53 (1560320)
I0514 14:43:25.607816 29140 net.cpp:156] Memory required for data: 3664658040
I0514 14:43:25.607831 29140 layer_factory.hpp:77] Creating layer stem_conv5b_plane1_scale
I0514 14:43:25.607841 29140 net.cpp:91] Creating Layer stem_conv5b_plane1_scale
I0514 14:43:25.607846 29140 net.cpp:425] stem_conv5b_plane1_scale <- stem_conv5b_plane1_conv
I0514 14:43:25.607861 29140 net.cpp:386] stem_conv5b_plane1_scale -> stem_conv5b_plane1_conv (in-place)
I0514 14:43:25.607904 29140 layer_factory.hpp:77] Creating layer stem_conv5b_plane1_scale
I0514 14:43:25.608031 29140 net.cpp:141] Setting up stem_conv5b_plane1_scale
I0514 14:43:25.608039 29140 net.cpp:148] Top shape: 10 64 46 53 (1560320)
I0514 14:43:25.608044 29140 net.cpp:156] Memory required for data: 3670899320
I0514 14:43:25.608052 29140 layer_factory.hpp:77] Creating layer stem_conv5b_plane1_relu
I0514 14:43:25.608062 29140 net.cpp:91] Creating Layer stem_conv5b_plane1_relu
I0514 14:43:25.608067 29140 net.cpp:425] stem_conv5b_plane1_relu <- stem_conv5b_plane1_conv
I0514 14:43:25.608072 29140 net.cpp:386] stem_conv5b_plane1_relu -> stem_conv5b_plane1_conv (in-place)
I0514 14:43:25.608079 29140 net.cpp:141] Setting up stem_conv5b_plane1_relu
I0514 14:43:25.608086 29140 net.cpp:148] Top shape: 10 64 46 53 (1560320)
I0514 14:43:25.608090 29140 net.cpp:156] Memory required for data: 3677140600
I0514 14:43:25.608095 29140 layer_factory.hpp:77] Creating layer stem_conv5c_plane1_conv
I0514 14:43:25.608119 29140 net.cpp:91] Creating Layer stem_conv5c_plane1_conv
I0514 14:43:25.608124 29140 net.cpp:425] stem_conv5c_plane1_conv <- stem_conv5b_plane1_conv
I0514 14:43:25.608132 29140 net.cpp:399] stem_conv5c_plane1_conv -> stem_conv5c_plane1_conv
I0514 14:43:25.609345 29140 net.cpp:141] Setting up stem_conv5c_plane1_conv
I0514 14:43:25.609361 29140 net.cpp:148] Top shape: 10 64 46 53 (1560320)
I0514 14:43:25.609367 29140 net.cpp:156] Memory required for data: 3683381880
I0514 14:43:25.609377 29140 layer_factory.hpp:77] Creating layer stem_conv5c_plane1_bn
I0514 14:43:25.609386 29140 net.cpp:91] Creating Layer stem_conv5c_plane1_bn
I0514 14:43:25.609391 29140 net.cpp:425] stem_conv5c_plane1_bn <- stem_conv5c_plane1_conv
I0514 14:43:25.609400 29140 net.cpp:386] stem_conv5c_plane1_bn -> stem_conv5c_plane1_conv (in-place)
I0514 14:43:25.609588 29140 net.cpp:141] Setting up stem_conv5c_plane1_bn
I0514 14:43:25.609597 29140 net.cpp:148] Top shape: 10 64 46 53 (1560320)
I0514 14:43:25.609602 29140 net.cpp:156] Memory required for data: 3689623160
I0514 14:43:25.609611 29140 layer_factory.hpp:77] Creating layer stem_conv5c_plane1_scale
I0514 14:43:25.609621 29140 net.cpp:91] Creating Layer stem_conv5c_plane1_scale
I0514 14:43:25.609627 29140 net.cpp:425] stem_conv5c_plane1_scale <- stem_conv5c_plane1_conv
I0514 14:43:25.609632 29140 net.cpp:386] stem_conv5c_plane1_scale -> stem_conv5c_plane1_conv (in-place)
I0514 14:43:25.609673 29140 layer_factory.hpp:77] Creating layer stem_conv5c_plane1_scale
I0514 14:43:25.609792 29140 net.cpp:141] Setting up stem_conv5c_plane1_scale
I0514 14:43:25.609802 29140 net.cpp:148] Top shape: 10 64 46 53 (1560320)
I0514 14:43:25.609807 29140 net.cpp:156] Memory required for data: 3695864440
I0514 14:43:25.609814 29140 layer_factory.hpp:77] Creating layer stem_conv5c_plane1_relu
I0514 14:43:25.609828 29140 net.cpp:91] Creating Layer stem_conv5c_plane1_relu
I0514 14:43:25.609834 29140 net.cpp:425] stem_conv5c_plane1_relu <- stem_conv5c_plane1_conv
I0514 14:43:25.609856 29140 net.cpp:386] stem_conv5c_plane1_relu -> stem_conv5c_plane1_conv (in-place)
I0514 14:43:25.609863 29140 net.cpp:141] Setting up stem_conv5c_plane1_relu
I0514 14:43:25.609870 29140 net.cpp:148] Top shape: 10 64 46 53 (1560320)
I0514 14:43:25.609874 29140 net.cpp:156] Memory required for data: 3702105720
I0514 14:43:25.609879 29140 layer_factory.hpp:77] Creating layer stem_conv5d_plane1_conv
I0514 14:43:25.609891 29140 net.cpp:91] Creating Layer stem_conv5d_plane1_conv
I0514 14:43:25.609896 29140 net.cpp:425] stem_conv5d_plane1_conv <- stem_conv5c_plane1_conv
I0514 14:43:25.609905 29140 net.cpp:399] stem_conv5d_plane1_conv -> stem_conv5d_plane1_conv
I0514 14:43:25.611496 29140 net.cpp:141] Setting up stem_conv5d_plane1_conv
I0514 14:43:25.611515 29140 net.cpp:148] Top shape: 10 64 46 53 (1560320)
I0514 14:43:25.611523 29140 net.cpp:156] Memory required for data: 3708347000
I0514 14:43:25.611533 29140 layer_factory.hpp:77] Creating layer stem_conv5d_plane1_bn
I0514 14:43:25.611557 29140 net.cpp:91] Creating Layer stem_conv5d_plane1_bn
I0514 14:43:25.611563 29140 net.cpp:425] stem_conv5d_plane1_bn <- stem_conv5d_plane1_conv
I0514 14:43:25.611594 29140 net.cpp:386] stem_conv5d_plane1_bn -> stem_conv5d_plane1_conv (in-place)
I0514 14:43:25.611785 29140 net.cpp:141] Setting up stem_conv5d_plane1_bn
I0514 14:43:25.611795 29140 net.cpp:148] Top shape: 10 64 46 53 (1560320)
I0514 14:43:25.611799 29140 net.cpp:156] Memory required for data: 3714588280
I0514 14:43:25.611809 29140 layer_factory.hpp:77] Creating layer stem_conv5d_plane1_scale
I0514 14:43:25.611834 29140 net.cpp:91] Creating Layer stem_conv5d_plane1_scale
I0514 14:43:25.611840 29140 net.cpp:425] stem_conv5d_plane1_scale <- stem_conv5d_plane1_conv
I0514 14:43:25.611862 29140 net.cpp:386] stem_conv5d_plane1_scale -> stem_conv5d_plane1_conv (in-place)
I0514 14:43:25.611920 29140 layer_factory.hpp:77] Creating layer stem_conv5d_plane1_scale
I0514 14:43:25.612056 29140 net.cpp:141] Setting up stem_conv5d_plane1_scale
I0514 14:43:25.612066 29140 net.cpp:148] Top shape: 10 64 46 53 (1560320)
I0514 14:43:25.612071 29140 net.cpp:156] Memory required for data: 3720829560
I0514 14:43:25.612078 29140 layer_factory.hpp:77] Creating layer stem_conv5d_plane1_relu
I0514 14:43:25.612102 29140 net.cpp:91] Creating Layer stem_conv5d_plane1_relu
I0514 14:43:25.612107 29140 net.cpp:425] stem_conv5d_plane1_relu <- stem_conv5d_plane1_conv
I0514 14:43:25.612130 29140 net.cpp:386] stem_conv5d_plane1_relu -> stem_conv5d_plane1_conv (in-place)
I0514 14:43:25.612138 29140 net.cpp:141] Setting up stem_conv5d_plane1_relu
I0514 14:43:25.612144 29140 net.cpp:148] Top shape: 10 64 46 53 (1560320)
I0514 14:43:25.612149 29140 net.cpp:156] Memory required for data: 3727070840
I0514 14:43:25.612154 29140 layer_factory.hpp:77] Creating layer stem_conv6a_plane1_conv
I0514 14:43:25.612181 29140 net.cpp:91] Creating Layer stem_conv6a_plane1_conv
I0514 14:43:25.612188 29140 net.cpp:425] stem_conv6a_plane1_conv <- stem_concat_plane1_concat_stem_concat_plane1_concat_0_split_1
I0514 14:43:25.612211 29140 net.cpp:399] stem_conv6a_plane1_conv -> stem_conv6a_plane1_conv
I0514 14:43:25.612676 29140 net.cpp:141] Setting up stem_conv6a_plane1_conv
I0514 14:43:25.612694 29140 net.cpp:148] Top shape: 10 96 46 53 (2340480)
I0514 14:43:25.612702 29140 net.cpp:156] Memory required for data: 3736432760
I0514 14:43:25.612717 29140 layer_factory.hpp:77] Creating layer stem_conv6a_plane1_bn
I0514 14:43:25.612735 29140 net.cpp:91] Creating Layer stem_conv6a_plane1_bn
I0514 14:43:25.612745 29140 net.cpp:425] stem_conv6a_plane1_bn <- stem_conv6a_plane1_conv
I0514 14:43:25.612761 29140 net.cpp:386] stem_conv6a_plane1_bn -> stem_conv6a_plane1_conv (in-place)
I0514 14:43:25.613001 29140 net.cpp:141] Setting up stem_conv6a_plane1_bn
I0514 14:43:25.613010 29140 net.cpp:148] Top shape: 10 96 46 53 (2340480)
I0514 14:43:25.613014 29140 net.cpp:156] Memory required for data: 3745794680
I0514 14:43:25.613023 29140 layer_factory.hpp:77] Creating layer stem_conv6a_plane1_scale
I0514 14:43:25.613047 29140 net.cpp:91] Creating Layer stem_conv6a_plane1_scale
I0514 14:43:25.613054 29140 net.cpp:425] stem_conv6a_plane1_scale <- stem_conv6a_plane1_conv
I0514 14:43:25.613076 29140 net.cpp:386] stem_conv6a_plane1_scale -> stem_conv6a_plane1_conv (in-place)
I0514 14:43:25.613132 29140 layer_factory.hpp:77] Creating layer stem_conv6a_plane1_scale
I0514 14:43:25.613271 29140 net.cpp:141] Setting up stem_conv6a_plane1_scale
I0514 14:43:25.613281 29140 net.cpp:148] Top shape: 10 96 46 53 (2340480)
I0514 14:43:25.613286 29140 net.cpp:156] Memory required for data: 3755156600
I0514 14:43:25.613293 29140 layer_factory.hpp:77] Creating layer stem_conv6a_plane1_relu
I0514 14:43:25.613317 29140 net.cpp:91] Creating Layer stem_conv6a_plane1_relu
I0514 14:43:25.613325 29140 net.cpp:425] stem_conv6a_plane1_relu <- stem_conv6a_plane1_conv
I0514 14:43:25.613349 29140 net.cpp:386] stem_conv6a_plane1_relu -> stem_conv6a_plane1_conv (in-place)
I0514 14:43:25.613363 29140 net.cpp:141] Setting up stem_conv6a_plane1_relu
I0514 14:43:25.613371 29140 net.cpp:148] Top shape: 10 96 46 53 (2340480)
I0514 14:43:25.613376 29140 net.cpp:156] Memory required for data: 3764518520
I0514 14:43:25.613389 29140 layer_factory.hpp:77] Creating layer stem_conv6b_plane1_conv
I0514 14:43:25.613417 29140 net.cpp:91] Creating Layer stem_conv6b_plane1_conv
I0514 14:43:25.613423 29140 net.cpp:425] stem_conv6b_plane1_conv <- stem_conv6a_plane1_conv
I0514 14:43:25.613447 29140 net.cpp:399] stem_conv6b_plane1_conv -> stem_conv6b_plane1_conv
I0514 14:43:25.616478 29140 net.cpp:141] Setting up stem_conv6b_plane1_conv
I0514 14:43:25.616492 29140 net.cpp:148] Top shape: 10 96 46 53 (2340480)
I0514 14:43:25.616497 29140 net.cpp:156] Memory required for data: 3773880440
I0514 14:43:25.616508 29140 layer_factory.hpp:77] Creating layer stem_conv6b_plane1_bn
I0514 14:43:25.616518 29140 net.cpp:91] Creating Layer stem_conv6b_plane1_bn
I0514 14:43:25.616523 29140 net.cpp:425] stem_conv6b_plane1_bn <- stem_conv6b_plane1_conv
I0514 14:43:25.616533 29140 net.cpp:386] stem_conv6b_plane1_bn -> stem_conv6b_plane1_conv (in-place)
I0514 14:43:25.616726 29140 net.cpp:141] Setting up stem_conv6b_plane1_bn
I0514 14:43:25.616737 29140 net.cpp:148] Top shape: 10 96 46 53 (2340480)
I0514 14:43:25.616741 29140 net.cpp:156] Memory required for data: 3783242360
I0514 14:43:25.616751 29140 layer_factory.hpp:77] Creating layer stem_conv6b_plane1_scale
I0514 14:43:25.616760 29140 net.cpp:91] Creating Layer stem_conv6b_plane1_scale
I0514 14:43:25.616765 29140 net.cpp:425] stem_conv6b_plane1_scale <- stem_conv6b_plane1_conv
I0514 14:43:25.616775 29140 net.cpp:386] stem_conv6b_plane1_scale -> stem_conv6b_plane1_conv (in-place)
I0514 14:43:25.616814 29140 layer_factory.hpp:77] Creating layer stem_conv6b_plane1_scale
I0514 14:43:25.616940 29140 net.cpp:141] Setting up stem_conv6b_plane1_scale
I0514 14:43:25.616950 29140 net.cpp:148] Top shape: 10 96 46 53 (2340480)
I0514 14:43:25.616955 29140 net.cpp:156] Memory required for data: 3792604280
I0514 14:43:25.616962 29140 layer_factory.hpp:77] Creating layer stem_conv6b_plane1_relu
I0514 14:43:25.616972 29140 net.cpp:91] Creating Layer stem_conv6b_plane1_relu
I0514 14:43:25.616977 29140 net.cpp:425] stem_conv6b_plane1_relu <- stem_conv6b_plane1_conv
I0514 14:43:25.616986 29140 net.cpp:386] stem_conv6b_plane1_relu -> stem_conv6b_plane1_conv (in-place)
I0514 14:43:25.616993 29140 net.cpp:141] Setting up stem_conv6b_plane1_relu
I0514 14:43:25.616999 29140 net.cpp:148] Top shape: 10 96 46 53 (2340480)
I0514 14:43:25.617003 29140 net.cpp:156] Memory required for data: 3801966200
I0514 14:43:25.617009 29140 layer_factory.hpp:77] Creating layer stem_concat2_plane1_concat
I0514 14:43:25.617017 29140 net.cpp:91] Creating Layer stem_concat2_plane1_concat
I0514 14:43:25.617022 29140 net.cpp:425] stem_concat2_plane1_concat <- stem_conv5d_plane1_conv
I0514 14:43:25.617027 29140 net.cpp:425] stem_concat2_plane1_concat <- stem_conv6b_plane1_conv
I0514 14:43:25.617036 29140 net.cpp:399] stem_concat2_plane1_concat -> stem_concat2_plane1_concat
I0514 14:43:25.617064 29140 net.cpp:141] Setting up stem_concat2_plane1_concat
I0514 14:43:25.617072 29140 net.cpp:148] Top shape: 10 160 46 53 (3900800)
I0514 14:43:25.617077 29140 net.cpp:156] Memory required for data: 3817569400
I0514 14:43:25.617081 29140 layer_factory.hpp:77] Creating layer stem_concat2_plane1_concat_stem_concat2_plane1_concat_0_split
I0514 14:43:25.617091 29140 net.cpp:91] Creating Layer stem_concat2_plane1_concat_stem_concat2_plane1_concat_0_split
I0514 14:43:25.617097 29140 net.cpp:425] stem_concat2_plane1_concat_stem_concat2_plane1_concat_0_split <- stem_concat2_plane1_concat
I0514 14:43:25.617103 29140 net.cpp:399] stem_concat2_plane1_concat_stem_concat2_plane1_concat_0_split -> stem_concat2_plane1_concat_stem_concat2_plane1_concat_0_split_0
I0514 14:43:25.617115 29140 net.cpp:399] stem_concat2_plane1_concat_stem_concat2_plane1_concat_0_split -> stem_concat2_plane1_concat_stem_concat2_plane1_concat_0_split_1
I0514 14:43:25.617154 29140 net.cpp:141] Setting up stem_concat2_plane1_concat_stem_concat2_plane1_concat_0_split
I0514 14:43:25.617163 29140 net.cpp:148] Top shape: 10 160 46 53 (3900800)
I0514 14:43:25.617171 29140 net.cpp:148] Top shape: 10 160 46 53 (3900800)
I0514 14:43:25.617182 29140 net.cpp:156] Memory required for data: 3848775800
I0514 14:43:25.617187 29140 layer_factory.hpp:77] Creating layer stem_conv7_plane1_conv
I0514 14:43:25.617197 29140 net.cpp:91] Creating Layer stem_conv7_plane1_conv
I0514 14:43:25.617202 29140 net.cpp:425] stem_conv7_plane1_conv <- stem_concat2_plane1_concat_stem_concat2_plane1_concat_0_split_0
I0514 14:43:25.617211 29140 net.cpp:399] stem_conv7_plane1_conv -> stem_conv7_plane1_conv
I0514 14:43:25.627048 29140 net.cpp:141] Setting up stem_conv7_plane1_conv
I0514 14:43:25.627084 29140 net.cpp:148] Top shape: 10 192 44 51 (4308480)
I0514 14:43:25.627089 29140 net.cpp:156] Memory required for data: 3866009720
I0514 14:43:25.627104 29140 layer_factory.hpp:77] Creating layer stem_conv7_plane1_bn
I0514 14:43:25.627117 29140 net.cpp:91] Creating Layer stem_conv7_plane1_bn
I0514 14:43:25.627125 29140 net.cpp:425] stem_conv7_plane1_bn <- stem_conv7_plane1_conv
I0514 14:43:25.627135 29140 net.cpp:386] stem_conv7_plane1_bn -> stem_conv7_plane1_conv (in-place)
I0514 14:43:25.627341 29140 net.cpp:141] Setting up stem_conv7_plane1_bn
I0514 14:43:25.627351 29140 net.cpp:148] Top shape: 10 192 44 51 (4308480)
I0514 14:43:25.627356 29140 net.cpp:156] Memory required for data: 3883243640
I0514 14:43:25.627367 29140 layer_factory.hpp:77] Creating layer stem_conv7_plane1_scale
I0514 14:43:25.627375 29140 net.cpp:91] Creating Layer stem_conv7_plane1_scale
I0514 14:43:25.627380 29140 net.cpp:425] stem_conv7_plane1_scale <- stem_conv7_plane1_conv
I0514 14:43:25.627387 29140 net.cpp:386] stem_conv7_plane1_scale -> stem_conv7_plane1_conv (in-place)
I0514 14:43:25.627439 29140 layer_factory.hpp:77] Creating layer stem_conv7_plane1_scale
I0514 14:43:25.627562 29140 net.cpp:141] Setting up stem_conv7_plane1_scale
I0514 14:43:25.627573 29140 net.cpp:148] Top shape: 10 192 44 51 (4308480)
I0514 14:43:25.627576 29140 net.cpp:156] Memory required for data: 3900477560
I0514 14:43:25.627583 29140 layer_factory.hpp:77] Creating layer stem_conv7_plane1_relu
I0514 14:43:25.627593 29140 net.cpp:91] Creating Layer stem_conv7_plane1_relu
I0514 14:43:25.627599 29140 net.cpp:425] stem_conv7_plane1_relu <- stem_conv7_plane1_conv
I0514 14:43:25.627604 29140 net.cpp:386] stem_conv7_plane1_relu -> stem_conv7_plane1_conv (in-place)
I0514 14:43:25.627612 29140 net.cpp:141] Setting up stem_conv7_plane1_relu
I0514 14:43:25.627617 29140 net.cpp:148] Top shape: 10 192 44 51 (4308480)
I0514 14:43:25.627621 29140 net.cpp:156] Memory required for data: 3917711480
I0514 14:43:25.627625 29140 layer_factory.hpp:77] Creating layer stem_mp7_plane1
I0514 14:43:25.627635 29140 net.cpp:91] Creating Layer stem_mp7_plane1
I0514 14:43:25.627641 29140 net.cpp:425] stem_mp7_plane1 <- stem_concat2_plane1_concat_stem_concat2_plane1_concat_0_split_1
I0514 14:43:25.627650 29140 net.cpp:399] stem_mp7_plane1 -> stem_mp7_plane1
I0514 14:43:25.627688 29140 net.cpp:141] Setting up stem_mp7_plane1
I0514 14:43:25.627696 29140 net.cpp:148] Top shape: 10 160 44 51 (3590400)
I0514 14:43:25.627701 29140 net.cpp:156] Memory required for data: 3932073080
I0514 14:43:25.627707 29140 layer_factory.hpp:77] Creating layer stem_concat3_plane1_concat
I0514 14:43:25.627717 29140 net.cpp:91] Creating Layer stem_concat3_plane1_concat
I0514 14:43:25.627722 29140 net.cpp:425] stem_concat3_plane1_concat <- stem_conv7_plane1_conv
I0514 14:43:25.627727 29140 net.cpp:425] stem_concat3_plane1_concat <- stem_mp7_plane1
I0514 14:43:25.627732 29140 net.cpp:399] stem_concat3_plane1_concat -> stem_concat3_plane1_concat
I0514 14:43:25.627758 29140 net.cpp:141] Setting up stem_concat3_plane1_concat
I0514 14:43:25.627774 29140 net.cpp:148] Top shape: 10 352 44 51 (7898880)
I0514 14:43:25.627779 29140 net.cpp:156] Memory required for data: 3963668600
I0514 14:43:25.627784 29140 layer_factory.hpp:77] Creating layer stem_concat3_plane1_concat_stem_concat3_plane1_concat_0_split
I0514 14:43:25.627791 29140 net.cpp:91] Creating Layer stem_concat3_plane1_concat_stem_concat3_plane1_concat_0_split
I0514 14:43:25.627796 29140 net.cpp:425] stem_concat3_plane1_concat_stem_concat3_plane1_concat_0_split <- stem_concat3_plane1_concat
I0514 14:43:25.627813 29140 net.cpp:399] stem_concat3_plane1_concat_stem_concat3_plane1_concat_0_split -> stem_concat3_plane1_concat_stem_concat3_plane1_concat_0_split_0
I0514 14:43:25.627822 29140 net.cpp:399] stem_concat3_plane1_concat_stem_concat3_plane1_concat_0_split -> stem_concat3_plane1_concat_stem_concat3_plane1_concat_0_split_1
I0514 14:43:25.627830 29140 net.cpp:399] stem_concat3_plane1_concat_stem_concat3_plane1_concat_0_split -> stem_concat3_plane1_concat_stem_concat3_plane1_concat_0_split_2
I0514 14:43:25.627835 29140 net.cpp:399] stem_concat3_plane1_concat_stem_concat3_plane1_concat_0_split -> stem_concat3_plane1_concat_stem_concat3_plane1_concat_0_split_3
I0514 14:43:25.627897 29140 net.cpp:141] Setting up stem_concat3_plane1_concat_stem_concat3_plane1_concat_0_split
I0514 14:43:25.627904 29140 net.cpp:148] Top shape: 10 352 44 51 (7898880)
I0514 14:43:25.627909 29140 net.cpp:148] Top shape: 10 352 44 51 (7898880)
I0514 14:43:25.627915 29140 net.cpp:148] Top shape: 10 352 44 51 (7898880)
I0514 14:43:25.627921 29140 net.cpp:148] Top shape: 10 352 44 51 (7898880)
I0514 14:43:25.627925 29140 net.cpp:156] Memory required for data: 4090050680
I0514 14:43:25.627929 29140 layer_factory.hpp:77] Creating layer ia1_plane1_IA_bypass
I0514 14:43:25.627940 29140 net.cpp:91] Creating Layer ia1_plane1_IA_bypass
I0514 14:43:25.627946 29140 net.cpp:425] ia1_plane1_IA_bypass <- stem_concat3_plane1_concat_stem_concat3_plane1_concat_0_split_0
I0514 14:43:25.627954 29140 net.cpp:399] ia1_plane1_IA_bypass -> ia1_plane1_IA_bypass
I0514 14:43:25.631114 29140 net.cpp:141] Setting up ia1_plane1_IA_bypass
I0514 14:43:25.631125 29140 net.cpp:148] Top shape: 10 256 44 51 (5744640)
I0514 14:43:25.631129 29140 net.cpp:156] Memory required for data: 4113029240
I0514 14:43:25.631136 29140 layer_factory.hpp:77] Creating layer ia1_plane1_IA_conva_conv
I0514 14:43:25.631150 29140 net.cpp:91] Creating Layer ia1_plane1_IA_conva_conv
I0514 14:43:25.631155 29140 net.cpp:425] ia1_plane1_IA_conva_conv <- stem_concat3_plane1_concat_stem_concat3_plane1_concat_0_split_1
I0514 14:43:25.631162 29140 net.cpp:399] ia1_plane1_IA_conva_conv -> ia1_plane1_IA_conva_conv
I0514 14:43:25.631791 29140 net.cpp:141] Setting up ia1_plane1_IA_conva_conv
I0514 14:43:25.631800 29140 net.cpp:148] Top shape: 10 32 44 51 (718080)
I0514 14:43:25.631804 29140 net.cpp:156] Memory required for data: 4115901560
I0514 14:43:25.631814 29140 layer_factory.hpp:77] Creating layer ia1_plane1_IA_conva_relu
I0514 14:43:25.631821 29140 net.cpp:91] Creating Layer ia1_plane1_IA_conva_relu
I0514 14:43:25.631827 29140 net.cpp:425] ia1_plane1_IA_conva_relu <- ia1_plane1_IA_conva_conv
I0514 14:43:25.631835 29140 net.cpp:386] ia1_plane1_IA_conva_relu -> ia1_plane1_IA_conva_conv (in-place)
I0514 14:43:25.631842 29140 net.cpp:141] Setting up ia1_plane1_IA_conva_relu
I0514 14:43:25.631847 29140 net.cpp:148] Top shape: 10 32 44 51 (718080)
I0514 14:43:25.631851 29140 net.cpp:156] Memory required for data: 4118773880
I0514 14:43:25.631856 29140 layer_factory.hpp:77] Creating layer ia1_plane1_IA_convb1_conv
I0514 14:43:25.631867 29140 net.cpp:91] Creating Layer ia1_plane1_IA_convb1_conv
I0514 14:43:25.631872 29140 net.cpp:425] ia1_plane1_IA_convb1_conv <- stem_concat3_plane1_concat_stem_concat3_plane1_concat_0_split_2
I0514 14:43:25.631880 29140 net.cpp:399] ia1_plane1_IA_convb1_conv -> ia1_plane1_IA_convb1_conv
I0514 14:43:25.632496 29140 net.cpp:141] Setting up ia1_plane1_IA_convb1_conv
I0514 14:43:25.632506 29140 net.cpp:148] Top shape: 10 32 44 51 (718080)
I0514 14:43:25.632515 29140 net.cpp:156] Memory required for data: 4121646200
I0514 14:43:25.632524 29140 layer_factory.hpp:77] Creating layer ia1_plane1_IA_convb1_relu
I0514 14:43:25.632531 29140 net.cpp:91] Creating Layer ia1_plane1_IA_convb1_relu
I0514 14:43:25.632537 29140 net.cpp:425] ia1_plane1_IA_convb1_relu <- ia1_plane1_IA_convb1_conv
I0514 14:43:25.632545 29140 net.cpp:386] ia1_plane1_IA_convb1_relu -> ia1_plane1_IA_convb1_conv (in-place)
I0514 14:43:25.632560 29140 net.cpp:141] Setting up ia1_plane1_IA_convb1_relu
I0514 14:43:25.632565 29140 net.cpp:148] Top shape: 10 32 44 51 (718080)
I0514 14:43:25.632570 29140 net.cpp:156] Memory required for data: 4124518520
I0514 14:43:25.632575 29140 layer_factory.hpp:77] Creating layer ia1_plane1_IA_convb2_conv
I0514 14:43:25.632586 29140 net.cpp:91] Creating Layer ia1_plane1_IA_convb2_conv
I0514 14:43:25.632591 29140 net.cpp:425] ia1_plane1_IA_convb2_conv <- ia1_plane1_IA_convb1_conv
I0514 14:43:25.632597 29140 net.cpp:399] ia1_plane1_IA_convb2_conv -> ia1_plane1_IA_convb2_conv
I0514 14:43:25.633141 29140 net.cpp:141] Setting up ia1_plane1_IA_convb2_conv
I0514 14:43:25.633152 29140 net.cpp:148] Top shape: 10 32 44 51 (718080)
I0514 14:43:25.633155 29140 net.cpp:156] Memory required for data: 4127390840
I0514 14:43:25.633163 29140 layer_factory.hpp:77] Creating layer ia1_plane1_IA_convb2_relu
I0514 14:43:25.633172 29140 net.cpp:91] Creating Layer ia1_plane1_IA_convb2_relu
I0514 14:43:25.633178 29140 net.cpp:425] ia1_plane1_IA_convb2_relu <- ia1_plane1_IA_convb2_conv
I0514 14:43:25.633184 29140 net.cpp:386] ia1_plane1_IA_convb2_relu -> ia1_plane1_IA_convb2_conv (in-place)
I0514 14:43:25.633191 29140 net.cpp:141] Setting up ia1_plane1_IA_convb2_relu
I0514 14:43:25.633196 29140 net.cpp:148] Top shape: 10 32 44 51 (718080)
I0514 14:43:25.633200 29140 net.cpp:156] Memory required for data: 4130263160
I0514 14:43:25.633204 29140 layer_factory.hpp:77] Creating layer ia1_plane1_IA_convc1_conv
I0514 14:43:25.633216 29140 net.cpp:91] Creating Layer ia1_plane1_IA_convc1_conv
I0514 14:43:25.633222 29140 net.cpp:425] ia1_plane1_IA_convc1_conv <- stem_concat3_plane1_concat_stem_concat3_plane1_concat_0_split_3
I0514 14:43:25.633231 29140 net.cpp:399] ia1_plane1_IA_convc1_conv -> ia1_plane1_IA_convc1_conv
I0514 14:43:25.633847 29140 net.cpp:141] Setting up ia1_plane1_IA_convc1_conv
I0514 14:43:25.633858 29140 net.cpp:148] Top shape: 10 32 44 51 (718080)
I0514 14:43:25.633863 29140 net.cpp:156] Memory required for data: 4133135480
I0514 14:43:25.633872 29140 layer_factory.hpp:77] Creating layer ia1_plane1_IA_convc1_relu
I0514 14:43:25.633880 29140 net.cpp:91] Creating Layer ia1_plane1_IA_convc1_relu
I0514 14:43:25.633885 29140 net.cpp:425] ia1_plane1_IA_convc1_relu <- ia1_plane1_IA_convc1_conv
I0514 14:43:25.633890 29140 net.cpp:386] ia1_plane1_IA_convc1_relu -> ia1_plane1_IA_convc1_conv (in-place)
…
I0514 14:43:26.474031 29140 net.cpp:399] stem_conv7_plane2_conv -> stem_conv7_plane2_conv
I0514 14:43:26.489662 29140 net.cpp:141] Setting up stem_conv7_plane2_conv
I0514 14:43:26.489688 29140 net.cpp:148] Top shape: 1 192 44 51 (430848)
I0514 14:43:26.489696 29140 net.cpp:156] Memory required for data: 618682116
I0514 14:43:26.489711 29140 layer_factory.hpp:77] Creating layer stem_conv7_plane2_bn
I0514 14:43:26.489722 29140 net.cpp:91] Creating Layer stem_conv7_plane2_bn
I0514 14:43:26.489732 29140 net.cpp:425] stem_conv7_plane2_bn <- stem_conv7_plane2_conv
I0514 14:43:26.489744 29140 net.cpp:386] stem_conv7_plane2_bn -> stem_conv7_plane2_conv (in-place)
I0514 14:43:26.490063 29140 net.cpp:141] Setting up stem_conv7_plane2_bn
I0514 14:43:26.490077 29140 net.cpp:148] Top shape: 1 192 44 51 (430848)
I0514 14:43:26.490084 29140 net.cpp:156] Memory required for data: 620405508
I0514 14:43:26.490098 29140 layer_factory.hpp:77] Creating layer stem_conv7_plane2_scale
I0514 14:43:26.490114 29140 net.cpp:91] Creating Layer stem_conv7_plane2_scale
I0514 14:43:26.490123 29140 net.cpp:425] stem_conv7_plane2_scale <- stem_conv7_plane2_conv
I0514 14:43:26.490131 29140 net.cpp:386] stem_conv7_plane2_scale -> stem_conv7_plane2_conv (in-place)
I0514 14:43:26.490203 29140 layer_factory.hpp:77] Creating layer stem_conv7_plane2_scale
I0514 14:43:26.490432 29140 net.cpp:141] Setting up stem_conv7_plane2_scale
I0514 14:43:26.490444 29140 net.cpp:148] Top shape: 1 192 44 51 (430848)
I0514 14:43:26.490452 29140 net.cpp:156] Memory required for data: 622128900
I0514 14:43:26.490463 29140 layer_factory.hpp:77] Creating layer stem_conv7_plane2_relu
I0514 14:43:26.490475 29140 net.cpp:91] Creating Layer stem_conv7_plane2_relu
I0514 14:43:26.490483 29140 net.cpp:425] stem_conv7_plane2_relu <- stem_conv7_plane2_conv
I0514 14:43:26.490491 29140 net.cpp:386] stem_conv7_plane2_relu -> stem_conv7_plane2_conv (in-place)
I0514 14:43:26.490502 29140 net.cpp:141] Setting up stem_conv7_plane2_relu
I0514 14:43:26.490511 29140 net.cpp:148] Top shape: 1 192 44 51 (430848)
I0514 14:43:26.490519 29140 net.cpp:156] Memory required for data: 623852292
I0514 14:43:26.490530 29140 layer_factory.hpp:77] Creating layer stem_mp7_plane2
I0514 14:43:26.490545 29140 net.cpp:91] Creating Layer stem_mp7_plane2
I0514 14:43:26.490553 29140 net.cpp:425] stem_mp7_plane2 <- stem_concat2_plane2_concat_stem_concat2_plane2_concat_0_split_1
I0514 14:43:26.490564 29140 net.cpp:399] stem_mp7_plane2 -> stem_mp7_plane2
I0514 14:43:26.490635 29140 net.cpp:141] Setting up stem_mp7_plane2
I0514 14:43:26.490643 29140 net.cpp:148] Top shape: 1 160 44 51 (359040)
I0514 14:43:26.490649 29140 net.cpp:156] Memory required for data: 625288452
I0514 14:43:26.490656 29140 layer_factory.hpp:77] Creating layer stem_concat3_plane2_concat
I0514 14:43:26.490661 29140 net.cpp:91] Creating Layer stem_concat3_plane2_concat
I0514 14:43:26.490665 29140 net.cpp:425] stem_concat3_plane2_concat <- stem_conv7_plane2_conv
I0514 14:43:26.490684 29140 net.cpp:425] stem_concat3_plane2_concat <- stem_mp7_plane2
I0514 14:43:26.490695 29140 net.cpp:399] stem_concat3_plane2_concat -> stem_concat3_plane2_concat
I0514 14:43:26.490741 29140 net.cpp:141] Setting up stem_concat3_plane2_concat
I0514 14:43:26.490751 29140 net.cpp:148] Top shape: 1 352 44 51 (789888)
I0514 14:43:26.490757 29140 net.cpp:156] Memory required for data: 628448004
I0514 14:43:26.490763 29140 layer_factory.hpp:77] Creating layer stem_concat3_plane2_concat_stem_concat3_plane2_concat_0_split
I0514 14:43:26.490775 29140 net.cpp:91] Creating Layer stem_concat3_plane2_concat_stem_concat3_plane2_concat_0_split
I0514 14:43:26.490782 29140 net.cpp:425] stem_concat3_plane2_concat_stem_concat3_plane2_concat_0_split <- stem_concat3_plane2_concat
I0514 14:43:26.490792 29140 net.cpp:399] stem_concat3_plane2_concat_stem_concat3_plane2_concat_0_split -> stem_concat3_plane2_concat_stem_concat3_plane2_concat_0_split_0
I0514 14:43:26.490804 29140 net.cpp:399] stem_concat3_plane2_concat_stem_concat3_plane2_concat_0_split -> stem_concat3_plane2_concat_stem_concat3_plane2_concat_0_split_1
I0514 14:43:26.490815 29140 net.cpp:399] stem_concat3_plane2_concat_stem_concat3_plane2_concat_0_split -> stem_concat3_plane2_concat_stem_concat3_plane2_concat_0_split_2
I0514 14:43:26.490825 29140 net.cpp:399] stem_concat3_plane2_concat_stem_concat3_plane2_concat_0_split -> stem_concat3_plane2_concat_stem_concat3_plane2_concat_0_split_3
I0514 14:43:26.490916 29140 net.cpp:141] Setting up stem_concat3_plane2_concat_stem_concat3_plane2_concat_0_split
I0514 14:43:26.490923 29140 net.cpp:148] Top shape: 1 352 44 51 (789888)
I0514 14:43:26.490931 29140 net.cpp:148] Top shape: 1 352 44 51 (789888)
I0514 14:43:26.490938 29140 net.cpp:148] Top shape: 1 352 44 51 (789888)
I0514 14:43:26.490947 29140 net.cpp:148] Top shape: 1 352 44 51 (789888)
I0514 14:43:26.490952 29140 net.cpp:156] Memory required for data: 641086212
I0514 14:43:26.490959 29140 layer_factory.hpp:77] Creating layer ia1_plane2_IA_bypass
I0514 14:43:26.490975 29140 net.cpp:91] Creating Layer ia1_plane2_IA_bypass
I0514 14:43:26.490983 29140 net.cpp:425] ia1_plane2_IA_bypass <- stem_concat3_plane2_concat_stem_concat3_plane2_concat_0_split_0
I0514 14:43:26.490998 29140 net.cpp:399] ia1_plane2_IA_bypass -> ia1_plane2_IA_bypass
I0514 14:43:26.493980 29140 net.cpp:141] Setting up ia1_plane2_IA_bypass
I0514 14:43:26.493989 29140 net.cpp:148] Top shape: 1 256 44 51 (574464)
I0514 14:43:26.493993 29140 net.cpp:156] Memory required for data: 643384068
I0514 14:43:26.493998 29140 layer_factory.hpp:77] Creating layer ia1_plane2_IA_conva_conv
I0514 14:43:26.494004 29140 net.cpp:91] Creating Layer ia1_plane2_IA_conva_conv
I0514 14:43:26.494009 29140 net.cpp:425] ia1_plane2_IA_conva_conv <- stem_concat3_plane2_concat_stem_concat3_plane2_concat_0_split_1
I0514 14:43:26.494015 29140 net.cpp:399] ia1_plane2_IA_conva_conv -> ia1_plane2_IA_conva_conv
I0514 14:43:26.494500 29140 net.cpp:141] Setting up ia1_plane2_IA_conva_conv
I0514 14:43:26.494508 29140 net.cpp:148] Top shape: 1 32 44 51 (71808)
I0514 14:43:26.494510 29140 net.cpp:156] Memory required for data: 643671300
I0514 14:43:26.494518 29140 layer_factory.hpp:77] Creating layer ia1_plane2_IA_conva_relu
I0514 14:43:26.494525 29140 net.cpp:91] Creating Layer ia1_plane2_IA_conva_relu
I0514 14:43:26.494529 29140 net.cpp:425] ia1_plane2_IA_conva_relu <- ia1_plane2_IA_conva_conv
I0514 14:43:26.494537 29140 net.cpp:386] ia1_plane2_IA_conva_relu -> ia1_plane2_IA_conva_conv (in-place)
I0514 14:43:26.494544 29140 net.cpp:141] Setting up ia1_plane2_IA_conva_relu
I0514 14:43:26.494547 29140 net.cpp:148] Top shape: 1 32 44 51 (71808)
I0514 14:43:26.494550 29140 net.cpp:156] Memory required for data: 643958532
I0514 14:43:26.494554 29140 layer_factory.hpp:77] Creating layer ia1_plane2_IA_convb1_conv
I0514 14:43:26.494563 29140 net.cpp:91] Creating Layer ia1_plane2_IA_convb1_conv
I0514 14:43:26.494567 29140 net.cpp:425] ia1_plane2_IA_convb1_conv <- stem_concat3_plane2_concat_stem_concat3_plane2_concat_0_split_2
I0514 14:43:26.494580 29140 net.cpp:399] ia1_plane2_IA_convb1_conv -> ia1_plane2_IA_convb1_conv
I0514 14:43:26.495265 29140 net.cpp:141] Setting up ia1_plane2_IA_convb1_conv
I0514 14:43:26.495280 29140 net.cpp:148] Top shape: 1 32 44 51 (71808)
I0514 14:43:26.495287 29140 net.cpp:156] Memory required for data: 644245764
I0514 14:43:26.495301 29140 layer_factory.hpp:77] Creating layer ia1_plane2_IA_convb1_relu
I0514 14:43:26.495312 29140 net.cpp:91] Creating Layer ia1_plane2_IA_convb1_relu
I0514 14:43:26.495321 29140 net.cpp:425] ia1_plane2_IA_convb1_relu <- ia1_plane2_IA_convb1_conv
I0514 14:43:26.495331 29140 net.cpp:386] ia1_plane2_IA_convb1_relu -> ia1_plane2_IA_convb1_conv (in-place)
I0514 14:43:26.495342 29140 net.cpp:141] Setting up ia1_plane2_IA_convb1_relu
I0514 14:43:26.495352 29140 net.cpp:148] Top shape: 1 32 44 51 (71808)
I0514 14:43:26.495358 29140 net.cpp:156] Memory required for data: 644532996
I0514 14:43:26.495365 29140 layer_factory.hpp:77] Creating layer ia1_plane2_IA_convb2_conv
I0514 14:43:26.495383 29140 net.cpp:91] Creating Layer ia1_plane2_IA_convb2_conv
I0514 14:43:26.495389 29140 net.cpp:425] ia1_plane2_IA_convb2_conv <- ia1_plane2_IA_convb1_conv
I0514 14:43:26.495403 29140 net.cpp:399] ia1_plane2_IA_convb2_conv -> ia1_plane2_IA_convb2_conv
I0514 14:43:26.496325 29140 net.cpp:141] Setting up ia1_plane2_IA_convb2_conv
I0514 14:43:26.496338 29140 net.cpp:148] Top shape: 1 32 44 51 (71808)
I0514 14:43:26.496345 29140 net.cpp:156] Memory required for data: 644820228
I0514 14:43:26.496358 29140 layer_factory.hpp:77] Creating layer ia1_plane2_IA_convb2_relu
I0514 14:43:26.496371 29140 net.cpp:91] Creating Layer ia1_plane2_IA_convb2_relu
I0514 14:43:26.496378 29140 net.cpp:425] ia1_plane2_IA_convb2_relu <- ia1_plane2_IA_convb2_conv
I0514 14:43:26.496387 29140 net.cpp:386] ia1_plane2_IA_convb2_relu -> ia1_plane2_IA_convb2_conv (in-place)
I0514 14:43:26.496398 29140 net.cpp:141] Setting up ia1_plane2_IA_convb2_relu
I0514 14:43:26.496407 29140 net.cpp:148] Top shape: 1 32 44 51 (71808)
I0514 14:43:26.496413 29140 net.cpp:156] Memory required for data: 645107460
I0514 14:43:26.496420 29140 layer_factory.hpp:77] Creating layer ia1_plane2_IA_convc1_conv
I0514 14:43:26.496436 29140 net.cpp:91] Creating Layer ia1_plane2_IA_convc1_conv
I0514 14:43:26.496444 29140 net.cpp:425] ia1_plane2_IA_convc1_conv <- stem_concat3_plane2_concat_stem_concat3_plane2_concat_0_split_3
I0514 14:43:26.496459 29140 net.cpp:399] ia1_plane2_IA_convc1_conv -> ia1_plane2_IA_convc1_conv
I0514 14:43:26.497499 29140 net.cpp:141] Setting up ia1_plane2_IA_convc1_conv
I0514 14:43:26.497516 29140 net.cpp:148] Top shape: 1 32 44 51 (71808)
I0514 14:43:26.497524 29140 net.cpp:156] Memory required for data: 645394692
I0514 14:43:26.497537 29140 layer_factory.hpp:77] Creating layer ia1_plane2_IA_convc1_relu
I0514 14:43:26.497547 29140 net.cpp:91] Creating Layer ia1_plane2_IA_convc1_relu
I0514 14:43:26.497552 29140 net.cpp:425] ia1_plane2_IA_convc1_relu <- ia1_plane2_IA_convc1_conv
I0514 14:43:26.497562 29140 net.cpp:386] ia1_plane2_IA_convc1_relu -> ia1_plane2_IA_convc1_conv (in-place)
I0514 14:43:26.497572 29140 net.cpp:141] Setting up ia1_plane2_IA_convc1_relu
I0514 14:43:26.497582 29140 net.cpp:148] Top shape: 1 32 44 51 (71808)
I0514 14:43:26.497594 29140 net.cpp:156] Memory required for data: 645681924
I0514 14:43:26.497602 29140 layer_factory.hpp:77] Creating layer ia1_plane2_IA_convc2_conv
I0514 14:43:26.497619 29140 net.cpp:91] Creating Layer ia1_plane2_IA_convc2_conv
I0514 14:43:26.497630 29140 net.cpp:425] ia1_plane2_IA_convc2_conv <- ia1_plane2_IA_convc1_conv
I0514 14:43:26.497642 29140 net.cpp:399] ia1_plane2_IA_convc2_conv -> ia1_plane2_IA_convc2_conv
I0514 14:43:26.498558 29140 net.cpp:141] Setting up ia1_plane2_IA_convc2_conv
I0514 14:43:26.498574 29140 net.cpp:148] Top shape: 1 32 44 51 (71808)
I0514 14:43:26.498579 29140 net.cpp:156] Memory required for data: 645969156
I0514 14:43:26.498594 29140 layer_factory.hpp:77] Creating layer ia1_plane2_IA_convc2_relu
I0514 14:43:26.498603 29140 net.cpp:91] Creating Layer ia1_plane2_IA_convc2_relu
I0514 14:43:26.498623 29140 net.cpp:425] ia1_plane2_IA_convc2_relu <- ia1_plane2_IA_convc2_conv
I0514 14:43:26.498634 29140 net.cpp:386] ia1_plane2_IA_convc2_relu -> ia1_plane2_IA_convc2_conv (in-place)
I0514 14:43:26.498646 29140 net.cpp:141] Setting up ia1_plane2_IA_convc2_relu
I0514 14:43:26.498654 29140 net.cpp:148] Top shape: 1 32 44 51 (71808)
I0514 14:43:26.498661 29140 net.cpp:156] Memory required for data: 646256388
I0514 14:43:26.498668 29140 layer_factory.hpp:77] Creating layer ia1_plane2_IA_convc3_conv
I0514 14:43:26.498685 29140 net.cpp:91] Creating Layer ia1_plane2_IA_convc3_conv
I0514 14:43:26.498692 29140 net.cpp:425] ia1_plane2_IA_convc3_conv <- ia1_plane2_IA_convc2_conv
I0514 14:43:26.498703 29140 net.cpp:399] ia1_plane2_IA_convc3_conv -> ia1_plane2_IA_convc3_conv
I0514 14:43:26.500203 29140 net.cpp:141] Setting up ia1_plane2_IA_convc3_conv
I0514 14:43:26.500227 29140 net.cpp:148] Top shape: 1 32 44 51 (71808)
I0514 14:43:26.500234 29140 net.cpp:156] Memory required for data: 646543620
I0514 14:43:26.500249 29140 layer_factory.hpp:77] Creating layer ia1_plane2_IA_convc3_relu
I0514 14:43:26.500262 29140 net.cpp:91] Creating Layer ia1_plane2_IA_convc3_relu
I0514 14:43:26.500272 29140 net.cpp:425] ia1_plane2_IA_convc3_relu <- ia1_plane2_IA_convc3_conv
I0514 14:43:26.500279 29140 net.cpp:386] ia1_plane2_IA_convc3_relu -> ia1_plane2_IA_convc3_conv (in-place)
I0514 14:43:26.500291 29140 net.cpp:141] Setting up ia1_plane2_IA_convc3_relu
I0514 14:43:26.500300 29140 net.cpp:148] Top shape: 1 32 44 51 (71808)
I0514 14:43:26.500304 29140 net.cpp:156] Memory required for data: 646830852
I0514 14:43:26.500311 29140 layer_factory.hpp:77] Creating layer ia1_plane2_IA_concat_concat
I0514 14:43:26.500320 29140 net.cpp:91] Creating Layer ia1_plane2_IA_concat_concat
I0514 14:43:26.500329 29140 net.cpp:425] ia1_plane2_IA_concat_concat <- ia1_plane2_IA_conva_conv
I0514 14:43:26.500336 29140 net.cpp:425] ia1_plane2_IA_concat_concat <- ia1_plane2_IA_convb2_conv
I0514 14:43:26.500345 29140 net.cpp:425] ia1_plane2_IA_concat_concat <- ia1_plane2_IA_convc3_conv
I0514 14:43:26.500355 29140 net.cpp:399] ia1_plane2_IA_concat_concat -> ia1_plane2_IA_concat_concat
I0514 14:43:26.500407 29140 net.cpp:141] Setting up ia1_plane2_IA_concat_concat
I0514 14:43:26.500419 29140 net.cpp:148] Top shape: 1 96 44 51 (215424)
I0514 14:43:26.500427 29140 net.cpp:156] Memory required for data: 647692548
I0514 14:43:26.500432 29140 layer_factory.hpp:77] Creating layer ia1_plane2_IA_convd_conv
I0514 14:43:26.500450 29140 net.cpp:91] Creating Layer ia1_plane2_IA_convd_conv
I0514 14:43:26.500458 29140 net.cpp:425] ia1_plane2_IA_convd_conv <- ia1_plane2_IA_concat_concat
I0514 14:43:26.500471 29140 net.cpp:399] ia1_plane2_IA_convd_conv -> ia1_plane2_IA_convd_conv
I0514 14:43:26.502240 29140 net.cpp:141] Setting up ia1_plane2_IA_convd_conv
I0514 14:43:26.502259 29140 net.cpp:148] Top shape: 1 256 44 51 (574464)
I0514 14:43:26.502265 29140 net.cpp:156] Memory required for data: 649990404
I0514 14:43:26.502279 29140 layer_factory.hpp:77] Creating layer ia1_plane2_IA_convd_relu
I0514 14:43:26.502290 29140 net.cpp:91] Creating Layer ia1_plane2_IA_convd_relu
I0514 14:43:26.502298 29140 net.cpp:425] ia1_plane2_IA_convd_relu <- ia1_plane2_IA_convd_conv
I0514 14:43:26.502315 29140 net.cpp:386] ia1_plane2_IA_convd_relu -> ia1_plane2_IA_convd_conv (in-place)
I0514 14:43:26.502328 29140 net.cpp:141] Setting up ia1_plane2_IA_convd_relu
I0514 14:43:26.502337 29140 net.cpp:148] Top shape: 1 256 44 51 (574464)
I0514 14:43:26.502343 29140 net.cpp:156] Memory required for data: 652288260
I0514 14:43:26.502351 29140 layer_factory.hpp:77] Creating layer ia1_plane2_IA_eltwise
I0514 14:43:26.502362 29140 net.cpp:91] Creating Layer ia1_plane2_IA_eltwise
I0514 14:43:26.502369 29140 net.cpp:425] ia1_plane2_IA_eltwise <- ia1_plane2_IA_bypass
I0514 14:43:26.502378 29140 net.cpp:425] ia1_plane2_IA_eltwise <- ia1_plane2_IA_convd_conv
I0514 14:43:26.502390 29140 net.cpp:399] ia1_plane2_IA_eltwise -> ia1_plane2_IA_eltwise
I0514 14:43:26.502439 29140 net.cpp:141] Setting up ia1_plane2_IA_eltwise
I0514 14:43:26.502460 29140 net.cpp:148] Top shape: 1 256 44 51 (574464)
I0514 14:43:26.502466 29140 net.cpp:156] Memory required for data: 654586116
I0514 14:43:26.502473 29140 layer_factory.hpp:77] Creating layer ia1_plane2_IA_eltwise_relu
I0514 14:43:26.502483 29140 net.cpp:91] Creating Layer ia1_plane2_IA_eltwise_relu
I0514 14:43:26.502490 29140 net.cpp:425] ia1_plane2_IA_eltwise_relu <- ia1_plane2_IA_eltwise
I0514 14:43:26.502499 29140 net.cpp:386] ia1_plane2_IA_eltwise_relu -> ia1_plane2_IA_eltwise (in-place)
I0514 14:43:26.502511 29140 net.cpp:141] Setting up ia1_plane2_IA_eltwise_relu
I0514 14:43:26.502519 29140 net.cpp:148] Top shape: 1 256 44 51 (574464)
I0514 14:43:26.502526 29140 net.cpp:156] Memory required for data: 656883972
I0514 14:43:26.502532 29140 layer_factory.hpp:77] Creating layer ia1_plane2_IA_eltwise_ia1_plane2_IA_eltwise_relu_0_split
I0514 14:43:26.502543 29140 net.cpp:91] Creating Layer ia1_plane2_IA_eltwise_ia1_plane2_IA_eltwise_relu_0_split
I0514 14:43:26.502548 29140 net.cpp:425] ia1_plane2_IA_eltwise_ia1_plane2_IA_eltwise_relu_0_split <- ia1_plane2_IA_eltwise
I0514 14:43:26.502557 29140 net.cpp:399] ia1_plane2_IA_eltwise_ia1_plane2_IA_eltwise_relu_0_split -> ia1_plane2_IA_eltwise_ia1_plane2_IA_eltwise_relu_0_split_0
I0514 14:43:26.502569 29140 net.cpp:399] ia1_plane2_IA_eltwise_ia1_plane2_IA_eltwise_relu_0_split -> ia1_plane2_IA_eltwise_ia1_plane2_IA_eltwise_relu_0_split_1
I0514 14:43:26.502580 29140 net.cpp:399] ia1_plane2_IA_eltwise_ia1_plane2_IA_eltwise_relu_0_split -> ia1_plane2_IA_eltwise_ia1_plane2_IA_eltwise_relu_0_split_2
I0514 14:43:26.502593 29140 net.cpp:399] ia1_plane2_IA_eltwise_ia1_plane2_IA_eltwise_relu_0_split -> ia1_plane2_IA_eltwise_ia1_plane2_IA_eltwise_relu_0_split_3
I0514 14:43:26.502701 29140 net.cpp:141] Setting up ia1_plane2_IA_eltwise_ia1_plane2_IA_eltwise_relu_0_split
I0514 14:43:26.502712 29140 net.cpp:148] Top shape: 1 256 44 51 (574464)
I0514 14:43:26.502719 29140 net.cpp:148] Top shape: 1 256 44 51 (574464)
I0514 14:43:26.502727 29140 net.cpp:148] Top shape: 1 256 44 51 (574464)
I0514 14:43:26.502734 29140 net.cpp:148] Top shape: 1 256 44 51 (574464)
I0514 14:43:26.502740 29140 net.cpp:156] Memory required for data: 666075396
I0514 14:43:26.502748 29140 layer_factory.hpp:77] Creating layer ia2_plane2_IA_conva_conv
I0514 14:43:26.502763 29140 net.cpp:91] Creating Layer ia2_plane2_IA_conva_conv
I0514 14:43:26.502771 29140 net.cpp:425] ia2_plane2_IA_conva_conv <- ia1_plane2_IA_eltwise_ia1_plane2_IA_eltwise_relu_0_split_0
I0514 14:43:26.502786 29140 net.cpp:399] ia2_plane2_IA_conva_conv -> ia2_plane2_IA_conva_conv
I0514 14:43:26.503650 29140 net.cpp:141] Setting up ia2_plane2_IA_conva_conv
I0514 14:43:26.503664 29140 net.cpp:148] Top shape: 1 32 44 51 (71808)
I0514 14:43:26.503671 29140 net.cpp:156] Memory required for data: 666362628
I0514 14:43:26.503685 29140 layer_factory.hpp:77] Creating layer ia2_plane2_IA_conva_relu
I0514 14:43:26.503697 29140 net.cpp:91] Creating Layer ia2_plane2_IA_conva_relu
I0514 14:43:26.503705 29140 net.cpp:425] ia2_plane2_IA_conva_relu <- ia2_plane2_IA_conva_conv
I0514 14:43:26.503715 29140 net.cpp:386] ia2_plane2_IA_conva_relu -> ia2_plane2_IA_conva_conv (in-place)
I0514 14:43:26.503726 29140 net.cpp:141] Setting up ia2_plane2_IA_conva_relu
I0514 14:43:26.503741 29140 net.cpp:148] Top shape: 1 32 44 51 (71808)
I0514 14:43:26.503747 29140 net.cpp:156] Memory required for data: 666649860
I0514 14:43:26.503754 29140 layer_factory.hpp:77] Creating layer ia2_plane2_IA_convb1_conv
I0514 14:43:26.503772 29140 net.cpp:91] Creating Layer ia2_plane2_IA_convb1_conv
I0514 14:43:26.503784 29140 net.cpp:425] ia2_plane2_IA_convb1_conv <- ia1_plane2_IA_eltwise_ia1_plane2_IA_eltwise_relu_0_split_1
I0514 14:43:26.503796 29140 net.cpp:399] ia2_plane2_IA_convb1_conv -> ia2_plane2_IA_convb1_conv
I0514 14:43:26.504670 29140 net.cpp:141] Setting up ia2_plane2_IA_convb1_conv
I0514 14:43:26.504685 29140 net.cpp:148] Top shape: 1 32 44 51 (71808)
I0514 14:43:26.504691 29140 net.cpp:156] Memory required for data: 666937092
I0514 14:43:26.504715 29140 layer_factory.hpp:77] Creating layer ia2_plane2_IA_convb1_relu
I0514 14:43:26.504727 29140 net.cpp:91] Creating Layer ia2_plane2_IA_convb1_relu
I0514 14:43:26.504735 29140 net.cpp:425] ia2_plane2_IA_convb1_relu <- ia2_plane2_IA_convb1_conv
I0514 14:43:26.504746 29140 net.cpp:386] ia2_plane2_IA_convb1_relu -> ia2_plane2_IA_convb1_conv (in-place)
I0514 14:43:26.504758 29140 net.cpp:141] Setting up ia2_plane2_IA_convb1_relu
I0514 14:43:26.504768 29140 net.cpp:148] Top shape: 1 32 44 51 (71808)
I0514 14:43:26.504775 29140 net.cpp:156] Memory required for data: 667224324
I0514 14:43:26.504781 29140 layer_factory.hpp:77] Creating layer ia2_plane2_IA_convb2_conv
I0514 14:43:26.504798 29140 net.cpp:91] Creating Layer ia2_plane2_IA_convb2_conv
I0514 14:43:26.504806 29140 net.cpp:425] ia2_plane2_IA_convb2_conv <- ia2_plane2_IA_convb1_conv
I0514 14:43:26.504817 29140 net.cpp:399] ia2_plane2_IA_convb2_conv -> ia2_plane2_IA_convb2_conv
I0514 14:43:26.505754 29140 net.cpp:141] Setting up ia2_plane2_IA_convb2_conv
I0514 14:43:26.505771 29140 net.cpp:148] Top shape: 1 32 44 51 (71808)
I0514 14:43:26.505777 29140 net.cpp:156] Memory required for data: 667511556
I0514 14:43:26.505792 29140 layer_factory.hpp:77] Creating layer ia2_plane2_IA_convb2_relu
I0514 14:43:26.505802 29140 net.cpp:91] Creating Layer ia2_plane2_IA_convb2_relu
I0514 14:43:26.505811 29140 net.cpp:425] ia2_plane2_IA_convb2_relu <- ia2_plane2_IA_convb2_conv
I0514 14:43:26.505821 29140 net.cpp:386] ia2_plane2_IA_convb2_relu -> ia2_plane2_IA_convb2_conv (in-place)
I0514 14:43:26.505833 29140 net.cpp:141] Setting up ia2_plane2_IA_convb2_relu
I0514 14:43:26.505842 29140 net.cpp:148] Top shape: 1 32 44 51 (71808)
I0514 14:43:26.505848 29140 net.cpp:156] Memory required for data: 667798788
I0514 14:43:26.505854 29140 layer_factory.hpp:77] Creating layer ia2_plane2_IA_convc1_conv
I0514 14:43:26.505872 29140 net.cpp:91] Creating Layer ia2_plane2_IA_convc1_conv
I0514 14:43:26.505879 29140 net.cpp:425] ia2_plane2_IA_convc1_conv <- ia1_plane2_IA_eltwise_ia1_plane2_IA_eltwise_relu_0_split_2
I0514 14:43:26.505892 29140 net.cpp:399] ia2_plane2_IA_convc1_conv -> ia2_plane2_IA_convc1_conv
I0514 14:43:26.506760 29140 net.cpp:141] Setting up ia2_plane2_IA_convc1_conv
I0514 14:43:26.506778 29140 net.cpp:148] Top shape: 1 32 44 51 (71808)
I0514 14:43:26.506784 29140 net.cpp:156] Memory required for data: 668086020
I0514 14:43:26.506798 29140 layer_factory.hpp:77] Creating layer ia2_plane2_IA_convc1_relu
I0514 14:43:26.506808 29140 net.cpp:91] Creating Layer ia2_plane2_IA_convc1_relu
I0514 14:43:26.506815 29140 net.cpp:425] ia2_plane2_IA_convc1_relu <- ia2_plane2_IA_convc1_conv
I0514 14:43:26.506825 29140 net.cpp:386] ia2_plane2_IA_convc1_relu -> ia2_plane2_IA_convc1_conv (in-place)
I0514 14:43:26.506836 29140 net.cpp:141] Setting up ia2_plane2_IA_convc1_relu
I0514 14:43:26.506844 29140 net.cpp:148] Top shape: 1 32 44 51 (71808)
I0514 14:43:26.506850 29140 net.cpp:156] Memory required for data: 668373252
I0514 14:43:26.506857 29140 layer_factory.hpp:77] Creating layer ia2_plane2_IA_convc2_conv
I0514 14:43:26.506872 29140 net.cpp:91] Creating Layer ia2_plane2_IA_convc2_conv
I0514 14:43:26.506880 29140 net.cpp:425] ia2_plane2_IA_convc2_conv <- ia2_plane2_IA_convc1_conv
I0514 14:43:26.506898 29140 net.cpp:399] ia2_plane2_IA_convc2_conv -> ia2_plane2_IA_convc2_conv
I0514 14:43:26.507824 29140 net.cpp:141] Setting up ia2_plane2_IA_convc2_conv
I0514 14:43:26.507838 29140 net.cpp:148] Top shape: 1 32 44 51 (71808)
I0514 14:43:26.507845 29140 net.cpp:156] Memory required for data: 668660484
I0514 14:43:26.507858 29140 layer_factory.hpp:77] Creating layer ia2_plane2_IA_convc2_relu
I0514 14:43:26.507869 29140 net.cpp:91] Creating Layer ia2_plane2_IA_convc2_relu
I0514 14:43:26.507877 29140 net.cpp:425] ia2_plane2_IA_convc2_relu <- ia2_plane2_IA_convc2_conv
I0514 14:43:26.507886 29140 net.cpp:386] ia2_plane2_IA_convc2_relu -> ia2_plane2_IA_convc2_conv (in-place)
I0514 14:43:26.507899 29140 net.cpp:141] Setting up ia2_plane2_IA_convc2_relu
I0514 14:43:26.507908 29140 net.cpp:148] Top shape: 1 32 44 51 (71808)
I0514 14:43:26.507925 29140 net.cpp:156] Memory required for data: 668947716
I0514 14:43:26.507932 29140 layer_factory.hpp:77] Creating layer ia2_plane2_IA_convc3_conv
I0514 14:43:26.507946 29140 net.cpp:91] Creating Layer ia2_plane2_IA_convc3_conv
I0514 14:43:26.507951 29140 net.cpp:425] ia2_plane2_IA_convc3_conv <- ia2_plane2_IA_convc2_conv
I0514 14:43:26.507963 29140 net.cpp:399] ia2_plane2_IA_convc3_conv -> ia2_plane2_IA_convc3_conv
I0514 14:43:26.508896 29140 net.cpp:141] Setting up ia2_plane2_IA_convc3_conv
I0514 14:43:26.508911 29140 net.cpp:148] Top shape: 1 32 44 51 (71808)
I0514 14:43:26.508914 29140 net.cpp:156] Memory required for data: 669234948
I0514 14:43:26.508927 29140 layer_factory.hpp:77] Creating layer ia2_plane2_IA_convc3_relu
I0514 14:43:26.508939 29140 net.cpp:91] Creating Layer ia2_plane2_IA_convc3_relu
I0514 14:43:26.508946 29140 net.cpp:425] ia2_plane2_IA_convc3_relu <- ia2_plane2_IA_convc3_conv
I0514 14:43:26.508957 29140 net.cpp:386] ia2_plane2_IA_convc3_relu -> ia2_plane2_IA_convc3_conv (in-place)
I0514 14:43:26.508967 29140 net.cpp:141] Setting up ia2_plane2_IA_convc3_relu
I0514 14:43:26.508976 29140 net.cpp:148] Top shape: 1 32 44 51 (71808)
I0514 14:43:26.508982 29140 net.cpp:156] Memory required for data: 669522180
I0514 14:43:26.508988 29140 layer_factory.hpp:77] Creating layer ia2_plane2_IA_concat_concat
I0514 14:43:26.508999 29140 net.cpp:91] Creating Layer ia2_plane2_IA_concat_concat
I0514 14:43:26.509006 29140 net.cpp:425] ia2_plane2_IA_concat_concat <- ia2_plane2_IA_conva_conv
I0514 14:43:26.509016 29140 net.cpp:425] ia2_plane2_IA_concat_concat <- ia2_plane2_IA_convb2_conv
I0514 14:43:26.509023 29140 net.cpp:425] ia2_plane2_IA_concat_concat <- ia2_plane2_IA_convc3_conv
I0514 14:43:26.509032 29140 net.cpp:399] ia2_plane2_IA_concat_concat -> ia2_plane2_IA_concat_concat
I0514 14:43:26.509078 29140 net.cpp:141] Setting up ia2_plane2_IA_concat_concat
I0514 14:43:26.509088 29140 net.cpp:148] Top shape: 1 96 44 51 (215424)
I0514 14:43:26.509095 29140 net.cpp:156] Memory required for data: 670383876
I0514 14:43:26.509102 29140 layer_factory.hpp:77] Creating layer ia2_plane2_IA_convd_conv
I0514 14:43:26.509119 29140 net.cpp:91] Creating Layer ia2_plane2_IA_convd_conv
I0514 14:43:26.509126 29140 net.cpp:425] ia2_plane2_IA_convd_conv <- ia2_plane2_IA_concat_concat
I0514 14:43:26.509140 29140 net.cpp:399] ia2_plane2_IA_convd_conv -> ia2_plane2_IA_convd_conv
I0514 14:43:26.510887 29140 net.cpp:141] Setting up ia2_plane2_IA_convd_conv
I0514 14:43:26.510905 29140 net.cpp:148] Top shape: 1 256 44 51 (574464)
I0514 14:43:26.510911 29140 net.cpp:156] Memory required for data: 672681732
I0514 14:43:26.510924 29140 layer_factory.hpp:77] Creating layer ia2_plane2_IA_convd_relu
I0514 14:43:26.510937 29140 net.cpp:91] Creating Layer ia2_plane2_IA_convd_relu
I0514 14:43:26.510946 29140 net.cpp:425] ia2_plane2_IA_convd_relu <- ia2_plane2_IA_convd_conv
I0514 14:43:26.510954 29140 net.cpp:386] ia2_plane2_IA_convd_relu -> ia2_plane2_IA_convd_conv (in-place)
I0514 14:43:26.510967 29140 net.cpp:141] Setting up ia2_plane2_IA_convd_relu
I0514 14:43:26.510975 29140 net.cpp:148] Top shape: 1 256 44 51 (574464)
I0514 14:43:26.510982 29140 net.cpp:156] Memory required for data: 674979588
I0514 14:43:26.510993 29140 layer_factory.hpp:77] Creating layer ia2_plane2_IA_eltwise
I0514 14:43:26.511005 29140 net.cpp:91] Creating Layer ia2_plane2_IA_eltwise
I0514 14:43:26.511014 29140 net.cpp:425] ia2_plane2_IA_eltwise <- ia1_plane2_IA_eltwise_ia1_plane2_IA_eltwise_relu_0_split_3
I0514 14:43:26.511023 29140 net.cpp:425] ia2_plane2_IA_eltwise <- ia2_plane2_IA_convd_conv
I0514 14:43:26.511034 29140 net.cpp:399] ia2_plane2_IA_eltwise -> ia2_plane2_IA_eltwise
I0514 14:43:26.511080 29140 net.cpp:141] Setting up ia2_plane2_IA_eltwise
I0514 14:43:26.511090 29140 net.cpp:148] Top shape: 1 256 44 51 (574464)
I0514 14:43:26.511096 29140 net.cpp:156] Memory required for data: 677277444
I0514 14:43:26.511103 29140 layer_factory.hpp:77] Creating layer ia2_plane2_IA_eltwise_relu
I0514 14:43:26.511113 29140 net.cpp:91] Creating Layer ia2_plane2_IA_eltwise_relu
I0514 14:43:26.511131 29140 net.cpp:425] ia2_plane2_IA_eltwise_relu <- ia2_plane2_IA_eltwise
I0514 14:43:26.511142 29140 net.cpp:386] ia2_plane2_IA_eltwise_relu -> ia2_plane2_IA_eltwise (in-place)
I0514 14:43:26.511152 29140 net.cpp:141] Setting up ia2_plane2_IA_eltwise_relu
I0514 14:43:26.511160 29140 net.cpp:148] Top shape: 1 256 44 51 (574464)
I0514 14:43:26.511167 29140 net.cpp:156] Memory required for data: 679575300
I0514 14:43:26.511173 29140 layer_factory.hpp:77] Creating layer ia2_plane2_IA_eltwise_ia2_plane2_IA_eltwise_relu_0_split
I0514 14:43:26.511183 29140 net.cpp:91] Creating Layer ia2_plane2_IA_eltwise_ia2_plane2_IA_eltwise_relu_0_split
I0514 14:43:26.511190 29140 net.cpp:425] ia2_plane2_IA_eltwise_ia2_plane2_IA_eltwise_relu_0_split <- ia2_plane2_IA_eltwise
I0514 14:43:26.511200 29140 net.cpp:399] ia2_plane2_IA_eltwise_ia2_plane2_IA_eltwise_relu_0_split -> ia2_plane2_IA_eltwise_ia2_plane2_IA_eltwise_relu_0_split_0
I0514 14:43:26.511209 29140 net.cpp:399] ia2_plane2_IA_eltwise_ia2_plane2_IA_eltwise_relu_0_split -> ia2_plane2_IA_eltwise_ia2_plane2_IA_eltwise_relu_0_split_1
I0514 14:43:26.511219 29140 net.cpp:399] ia2_plane2_IA_eltwise_ia2_plane2_IA_eltwise_relu_0_split -> ia2_plane2_IA_eltwise_ia2_plane2_IA_eltwise_relu_0_split_2
I0514 14:43:26.511231 29140 net.cpp:399] ia2_plane2_IA_eltwise_ia2_plane2_IA_eltwise_relu_0_split -> ia2_plane2_IA_eltwise_ia2_plane2_IA_eltwise_relu_0_split_3
I0514 14:43:26.511342 29140 net.cpp:141] Setting up ia2_plane2_IA_eltwise_ia2_plane2_IA_eltwise_relu_0_split
I0514 14:43:26.511351 29140 net.cpp:148] Top shape: 1 256 44 51 (574464)
I0514 14:43:26.511359 29140 net.cpp:148] Top shape: 1 256 44 51 (574464)
I0514 14:43:26.511366 29140 net.cpp:148] Top shape: 1 256 44 51 (574464)
I0514 14:43:26.511374 29140 net.cpp:148] Top shape: 1 256 44 51 (574464)
I0514 14:43:26.511381 29140 net.cpp:156] Memory required for data: 688766724
I0514 14:43:26.511387 29140 layer_factory.hpp:77] Creating layer ia3_plane2_IA_conva_conv
I0514 14:43:26.511404 29140 net.cpp:91] Creating Layer ia3_plane2_IA_conva_conv
I0514 14:43:26.511412 29140 net.cpp:425] ia3_plane2_IA_conva_conv <- ia2_plane2_IA_eltwise_ia2_plane2_IA_eltwise_relu_0_split_0
I0514 14:43:26.511428 29140 net.cpp:399] ia3_plane2_IA_conva_conv -> ia3_plane2_IA_conva_conv
I0514 14:43:26.512291 29140 net.cpp:141] Setting up ia3_plane2_IA_conva_conv
I0514 14:43:26.512306 29140 net.cpp:148] Top shape: 1 32 44 51 (71808)
I0514 14:43:26.512312 29140 net.cpp:156] Memory required for data: 689053956
I0514 14:43:26.512331 29140 layer_factory.hpp:77] Creating layer ia3_plane2_IA_conva_relu
I0514 14:43:26.512341 29140 net.cpp:91] Creating Layer ia3_plane2_IA_conva_relu
I0514 14:43:26.512349 29140 net.cpp:425] ia3_plane2_IA_conva_relu <- ia3_plane2_IA_conva_conv
I0514 14:43:26.512361 29140 net.cpp:386] ia3_plane2_IA_conva_relu -> ia3_plane2_IA_conva_conv (in-place)
I0514 14:43:26.512372 29140 net.cpp:141] Setting up ia3_plane2_IA_conva_relu
I0514 14:43:26.512380 29140 net.cpp:148] Top shape: 1 32 44 51 (71808)
I0514 14:43:26.512387 29140 net.cpp:156] Memory required for data: 689341188
I0514 14:43:26.512394 29140 layer_factory.hpp:77] Creating layer ia3_plane2_IA_convb1_conv
I0514 14:43:26.512408 29140 net.cpp:91] Creating Layer ia3_plane2_IA_convb1_conv
I0514 14:43:26.512421 29140 net.cpp:425] ia3_plane2_IA_convb1_conv <- ia2_plane2_IA_eltwise_ia2_plane2_IA_eltwise_relu_0_split_1
I0514 14:43:26.512435 29140 net.cpp:399] ia3_plane2_IA_convb1_conv -> ia3_plane2_IA_convb1_conv
I0514 14:43:26.513305 29140 net.cpp:141] Setting up ia3_plane2_IA_convb1_conv
I0514 14:43:26.513320 29140 net.cpp:148] Top shape: 1 32 44 51 (71808)
I0514 14:43:26.513326 29140 net.cpp:156] Memory required for data: 689628420
I0514 14:43:26.513339 29140 layer_factory.hpp:77] Creating layer ia3_plane2_IA_convb1_relu
I0514 14:43:26.513350 29140 net.cpp:91] Creating Layer ia3_plane2_IA_convb1_relu
I0514 14:43:26.513365 29140 net.cpp:425] ia3_plane2_IA_convb1_relu <- ia3_plane2_IA_convb1_conv
I0514 14:43:26.513378 29140 net.cpp:386] ia3_plane2_IA_convb1_relu -> ia3_plane2_IA_convb1_conv (in-place)
I0514 14:43:26.513401 29140 net.cpp:141] Setting up ia3_plane2_IA_convb1_relu
I0514 14:43:26.513411 29140 net.cpp:148] Top shape: 1 32 44 51 (71808)
I0514 14:43:26.513417 29140 net.cpp:156] Memory required for data: 689915652
I0514 14:43:26.513424 29140 layer_factory.hpp:77] Creating layer ia3_plane2_IA_convb2_conv
I0514 14:43:26.513442 29140 net.cpp:91] Creating Layer ia3_plane2_IA_convb2_conv
I0514 14:43:26.513448 29140 net.cpp:425] ia3_plane2_IA_convb2_conv <- ia3_plane2_IA_convb1_conv
I0514 14:43:26.513460 29140 net.cpp:399] ia3_plane2_IA_convb2_conv -> ia3_plane2_IA_convb2_conv
I0514 14:43:26.514420 29140 net.cpp:141] Setting up ia3_plane2_IA_convb2_conv
I0514 14:43:26.514437 29140 net.cpp:148] Top shape: 1 32 44 51 (71808)
I0514 14:43:26.514444 29140 net.cpp:156] Memory required for data: 690202884
I0514 14:43:26.514458 29140 layer_factory.hpp:77] Creating layer ia3_plane2_IA_convb2_relu
I0514 14:43:26.514472 29140 net.cpp:91] Creating Layer ia3_plane2_IA_convb2_relu
I0514 14:43:26.514480 29140 net.cpp:425] ia3_plane2_IA_convb2_relu <- ia3_plane2_IA_convb2_conv
I0514 14:43:26.514487 29140 net.cpp:386] ia3_plane2_IA_convb2_relu -> ia3_plane2_IA_convb2_conv (in-place)
I0514 14:43:26.514498 29140 net.cpp:141] Setting up ia3_plane2_IA_convb2_relu
I0514 14:43:26.514506 29140 net.cpp:148] Top shape: 1 32 44 51 (71808)
I0514 14:43:26.514513 29140 net.cpp:156] Memory required for data: 690490116
I0514 14:43:26.514518 29140 layer_factory.hpp:77] Creating layer ia3_plane2_IA_convc1_conv
I0514 14:43:26.514534 29140 net.cpp:91] Creating Layer ia3_plane2_IA_convc1_conv
I0514 14:43:26.514542 29140 net.cpp:425] ia3_plane2_IA_convc1_conv <- ia2_plane2_IA_eltwise_ia2_plane2_IA_eltwise_relu_0_split_2
I0514 14:43:26.514555 29140 net.cpp:399] ia3_plane2_IA_convc1_conv -> ia3_plane2_IA_convc1_conv
I0514 14:43:26.515595 29140 net.cpp:141] Setting up ia3_plane2_IA_convc1_conv
I0514 14:43:26.515607 29140 net.cpp:148] Top shape: 1 32 44 51 (71808)
I0514 14:43:26.515610 29140 net.cpp:156] Memory required for data: 690777348
I0514 14:43:26.515617 29140 layer_factory.hpp:77] Creating layer ia3_plane2_IA_convc1_relu
I0514 14:43:26.515624 29140 net.cpp:91] Creating Layer ia3_plane2_IA_convc1_relu
I0514 14:43:26.515627 29140 net.cpp:425] ia3_plane2_IA_convc1_relu <- ia3_plane2_IA_convc1_conv
I0514 14:43:26.515632 29140 net.cpp:386] ia3_plane2_IA_convc1_relu -> ia3_plane2_IA_convc1_conv (in-place)
I0514 14:43:26.515637 29140 net.cpp:141] Setting up ia3_plane2_IA_convc1_relu
I0514 14:43:26.515641 29140 net.cpp:148] Top shape: 1 32 44 51 (71808)
I0514 14:43:26.515645 29140 net.cpp:156] Memory required for data: 691064580
I0514 14:43:26.515648 29140 layer_factory.hpp:77] Creating layer ia3_plane2_IA_convc2_conv
I0514 14:43:26.515656 29140 net.cpp:91] Creating Layer ia3_plane2_IA_convc2_conv
I0514 14:43:26.515660 29140 net.cpp:425] ia3_plane2_IA_convc2_conv <- ia3_plane2_IA_convc1_conv
I0514 14:43:26.515666 29140 net.cpp:399] ia3_plane2_IA_convc2_conv -> ia3_plane2_IA_convc2_conv
I0514 14:43:26.516100 29140 net.cpp:141] Setting up ia3_plane2_IA_convc2_conv
I0514 14:43:26.516108 29140 net.cpp:148] Top shape: 1 32 44 51 (71808)
I0514 14:43:26.516111 29140 net.cpp:156] Memory required for data: 691351812
I0514 14:43:26.516120 29140 layer_factory.hpp:77] Creating layer ia3_plane2_IA_convc2_relu
I0514 14:43:26.516126 29140 net.cpp:91] Creating Layer ia3_plane2_IA_convc2_relu
I0514 14:43:26.516130 29140 net.cpp:425] ia3_plane2_IA_convc2_relu <- ia3_plane2_IA_convc2_conv
I0514 14:43:26.516134 29140 net.cpp:386] ia3_plane2_IA_convc2_relu -> ia3_plane2_IA_convc2_conv (in-place)
I0514 14:43:26.516140 29140 net.cpp:141] Setting up ia3_plane2_IA_convc2_relu
I0514 14:43:26.516144 29140 net.cpp:148] Top shape: 1 32 44 51 (71808)
I0514 14:43:26.516149 29140 net.cpp:156] Memory required for data: 691639044
I0514 14:43:26.516151 29140 layer_factory.hpp:77] Creating layer ia3_plane2_IA_convc3_conv
I0514 14:43:26.516158 29140 net.cpp:91] Creating Layer ia3_plane2_IA_convc3_conv
I0514 14:43:26.516161 29140 net.cpp:425] ia3_plane2_IA_convc3_conv <- ia3_plane2_IA_convc2_conv
I0514 14:43:26.516172 29140 net.cpp:399] ia3_plane2_IA_convc3_conv -> ia3_plane2_IA_convc3_conv
I0514 14:43:26.516597 29140 net.cpp:141] Setting up ia3_plane2_IA_convc3_conv
I0514 14:43:26.516603 29140 net.cpp:148] Top shape: 1 32 44 51 (71808)
I0514 14:43:26.516607 29140 net.cpp:156] Memory required for data: 691926276
I0514 14:43:26.516613 29140 layer_factory.hpp:77] Creating layer ia3_plane2_IA_convc3_relu
I0514 14:43:26.516618 29140 net.cpp:91] Creating Layer ia3_plane2_IA_convc3_relu
I0514 14:43:26.516620 29140 net.cpp:425] ia3_plane2_IA_convc3_relu <- ia3_plane2_IA_convc3_conv
I0514 14:43:26.516626 29140 net.cpp:386] ia3_plane2_IA_convc3_relu -> ia3_plane2_IA_convc3_conv (in-place)
I0514 14:43:26.516630 29140 net.cpp:141] Setting up ia3_plane2_IA_convc3_relu
I0514 14:43:26.516635 29140 net.cpp:148] Top shape: 1 32 44 51 (71808)
I0514 14:43:26.516638 29140 net.cpp:156] Memory required for data: 692213508
I0514 14:43:26.516641 29140 layer_factory.hpp:77] Creating layer ia3_plane2_IA_concat_concat
I0514 14:43:26.516646 29140 net.cpp:91] Creating Layer ia3_plane2_IA_concat_concat
I0514 14:43:26.516650 29140 net.cpp:425] ia3_plane2_IA_concat_concat <- ia3_plane2_IA_conva_conv
I0514 14:43:26.516654 29140 net.cpp:425] ia3_plane2_IA_concat_concat <- ia3_plane2_IA_convb2_conv
I0514 14:43:26.516659 29140 net.cpp:425] ia3_plane2_IA_concat_concat <- ia3_plane2_IA_convc3_conv
I0514 14:43:26.516662 29140 net.cpp:399] ia3_plane2_IA_concat_concat -> ia3_plane2_IA_concat_concat
I0514 14:43:26.516683 29140 net.cpp:141] Setting up ia3_plane2_IA_concat_concat
I0514 14:43:26.516690 29140 net.cpp:148] Top shape: 1 96 44 51 (215424)
I0514 14:43:26.516692 29140 net.cpp:156] Memory required for data: 693075204
I0514 14:43:26.516695 29140 layer_factory.hpp:77] Creating layer ia3_plane2_IA_convd_conv
I0514 14:43:26.516703 29140 net.cpp:91] Creating Layer ia3_plane2_IA_convd_conv
I0514 14:43:26.516706 29140 net.cpp:425] ia3_plane2_IA_convd_conv <- ia3_plane2_IA_concat_concat
I0514 14:43:26.516713 29140 net.cpp:399] ia3_plane2_IA_convd_conv -> ia3_plane2_IA_convd_conv
I0514 14:43:26.517547 29140 net.cpp:141] Setting up ia3_plane2_IA_convd_conv
I0514 14:43:26.517556 29140 net.cpp:148] Top shape: 1 256 44 51 (574464)
I0514 14:43:26.517560 29140 net.cpp:156] Memory required for data: 695373060
I0514 14:43:26.517565 29140 layer_factory.hpp:77] Creating layer ia3_plane2_IA_convd_relu
I0514 14:43:26.517572 29140 net.cpp:91] Creating Layer ia3_plane2_IA_convd_relu
I0514 14:43:26.517576 29140 net.cpp:425] ia3_plane2_IA_convd_relu <- ia3_plane2_IA_convd_conv
I0514 14:43:26.517580 29140 net.cpp:386] ia3_plane2_IA_convd_relu -> ia3_plane2_IA_convd_conv (in-place)
I0514 14:43:26.517586 29140 net.cpp:141] Setting up ia3_plane2_IA_convd_relu
I0514 14:43:26.517590 29140 net.cpp:148] Top shape: 1 256 44 51 (574464)
I0514 14:43:26.517593 29140 net.cpp:156] Memory required for data: 697670916
I0514 14:43:26.517596 29140 layer_factory.hpp:77] Creating layer ia3_plane2_IA_eltwise
I0514 14:43:26.517602 29140 net.cpp:91] Creating Layer ia3_plane2_IA_eltwise
I0514 14:43:26.517606 29140 net.cpp:425] ia3_plane2_IA_eltwise <- ia2_plane2_IA_eltwise_ia2_plane2_IA_eltwise_relu_0_split_3
I0514 14:43:26.517611 29140 net.cpp:425] ia3_plane2_IA_eltwise <- ia3_plane2_IA_convd_conv
I0514 14:43:26.517618 29140 net.cpp:399] ia3_plane2_IA_eltwise -> ia3_plane2_IA_eltwise
I0514 14:43:26.517639 29140 net.cpp:141] Setting up ia3_plane2_IA_eltwise
I0514 14:43:26.517644 29140 net.cpp:148] Top shape: 1 256 44 51 (574464)
I0514 14:43:26.517647 29140 net.cpp:156] Memory required for data: 699968772
I0514 14:43:26.517650 29140 layer_factory.hpp:77] Creating layer ia3_plane2_IA_eltwise_relu
I0514 14:43:26.517655 29140 net.cpp:91] Creating Layer ia3_plane2_IA_eltwise_relu
I0514 14:43:26.517658 29140 net.cpp:425] ia3_plane2_IA_eltwise_relu <- ia3_plane2_IA_eltwise
I0514 14:43:26.517663 29140 net.cpp:386] ia3_plane2_IA_eltwise_relu -> ia3_plane2_IA_eltwise (in-place)
I0514 14:43:26.517668 29140 net.cpp:141] Setting up ia3_plane2_IA_eltwise_relu
I0514 14:43:26.517678 29140 net.cpp:148] Top shape: 1 256 44 51 (574464)
I0514 14:43:26.517680 29140 net.cpp:156] Memory required for data: 702266628
I0514 14:43:26.517684 29140 layer_factory.hpp:77] Creating layer ia3_plane2_IA_eltwise_ia3_plane2_IA_eltwise_relu_0_split
I0514 14:43:26.517688 29140 net.cpp:91] Creating Layer ia3_plane2_IA_eltwise_ia3_plane2_IA_eltwise_relu_0_split
I0514 14:43:26.517693 29140 net.cpp:425] ia3_plane2_IA_eltwise_ia3_plane2_IA_eltwise_relu_0_split <- ia3_plane2_IA_eltwise
I0514 14:43:26.517696 29140 net.cpp:399] ia3_plane2_IA_eltwise_ia3_plane2_IA_eltwise_relu_0_split -> ia3_plane2_IA_eltwise_ia3_plane2_IA_eltwise_relu_0_split_0
I0514 14:43:26.517701 29140 net.cpp:399] ia3_plane2_IA_eltwise_ia3_plane2_IA_eltwise_relu_0_split -> ia3_plane2_IA_eltwise_ia3_plane2_IA_eltwise_relu_0_split_1
I0514 14:43:26.517706 29140 net.cpp:399] ia3_plane2_IA_eltwise_ia3_plane2_IA_eltwise_relu_0_split -> ia3_plane2_IA_eltwise_ia3_plane2_IA_eltwise_relu_0_split_2
I0514 14:43:26.517746 29140 net.cpp:141] Setting up ia3_plane2_IA_eltwise_ia3_plane2_IA_eltwise_relu_0_split
I0514 14:43:26.517751 29140 net.cpp:148] Top shape: 1 256 44 51 (574464)
I0514 14:43:26.517755 29140 net.cpp:148] Top shape: 1 256 44 51 (574464)
I0514 14:43:26.517760 29140 net.cpp:148] Top shape: 1 256 44 51 (574464)
I0514 14:43:26.517762 29140 net.cpp:156] Memory required for data: 709160196
I0514 14:43:26.517765 29140 layer_factory.hpp:77] Creating layer reducA_mpA_plane2
I0514 14:43:26.517771 29140 net.cpp:91] Creating Layer reducA_mpA_plane2
I0514 14:43:26.517774 29140 net.cpp:425] reducA_mpA_plane2 <- ia3_plane2_IA_eltwise_ia3_plane2_IA_eltwise_relu_0_split_0
I0514 14:43:26.517781 29140 net.cpp:399] reducA_mpA_plane2 -> reducA_mpA_plane2
I0514 14:43:26.517808 29140 net.cpp:141] Setting up reducA_mpA_plane2
I0514 14:43:26.517813 29140 net.cpp:148] Top shape: 1 256 22 26 (146432)
I0514 14:43:26.517817 29140 net.cpp:156] Memory required for data: 709745924
I0514 14:43:26.517819 29140 layer_factory.hpp:77] Creating layer reducA_convb_plane2_conv
I0514 14:43:26.517827 29140 net.cpp:91] Creating Layer reducA_convb_plane2_conv
I0514 14:43:26.517832 29140 net.cpp:425] reducA_convb_plane2_conv <- ia3_plane2_IA_eltwise_ia3_plane2_IA_eltwise_relu_0_split_1
I0514 14:43:26.517838 29140 net.cpp:399] reducA_convb_plane2_conv -> reducA_convb_plane2_conv
I0514 14:43:26.521615 29140 net.cpp:141] Setting up reducA_convb_plane2_conv
I0514 14:43:26.521632 29140 net.cpp:148] Top shape: 1 32 22 26 (18304)
I0514 14:43:26.521639 29140 net.cpp:156] Memory required for data: 709819140
I0514 14:43:26.521654 29140 layer_factory.hpp:77] Creating layer reducA_convb_plane2_relu
I0514 14:43:26.521667 29140 net.cpp:91] Creating Layer reducA_convb_plane2_relu
I0514 14:43:26.521674 29140 net.cpp:425] reducA_convb_plane2_relu <- reducA_convb_plane2_conv
I0514 14:43:26.521684 29140 net.cpp:386] reducA_convb_plane2_relu -> reducA_convb_plane2_conv (in-place)
I0514 14:43:26.521698 29140 net.cpp:141] Setting up reducA_convb_plane2_relu
I0514 14:43:26.521708 29140 net.cpp:148] Top shape: 1 32 22 26 (18304)
I0514 14:43:26.521713 29140 net.cpp:156] Memory required for data: 709892356
I0514 14:43:26.521720 29140 layer_factory.hpp:77] Creating layer reducA_convc1_plane2_conv
I0514 14:43:26.521740 29140 net.cpp:91] Creating Layer reducA_convc1_plane2_conv
I0514 14:43:26.521749 29140 net.cpp:425] reducA_convc1_plane2_conv <- ia3_plane2_IA_eltwise_ia3_plane2_IA_eltwise_relu_0_split_2
I0514 14:43:26.521762 29140 net.cpp:399] reducA_convc1_plane2_conv -> reducA_convc1_plane2_conv
I0514 14:43:26.522176 29140 net.cpp:141] Setting up reducA_convc1_plane2_conv
I0514 14:43:26.522182 29140 net.cpp:148] Top shape: 1 32 44 51 (71808)
I0514 14:43:26.522186 29140 net.cpp:156] Memory required for data: 710179588
I0514 14:43:26.522192 29140 layer_factory.hpp:77] Creating layer reducA_convc1_plane2_relu
I0514 14:43:26.522197 29140 net.cpp:91] Creating Layer reducA_convc1_plane2_relu
I0514 14:43:26.522200 29140 net.cpp:425] reducA_convc1_plane2_relu <- reducA_convc1_plane2_conv
I0514 14:43:26.522212 29140 net.cpp:386] reducA_convc1_plane2_relu -> reducA_convc1_plane2_conv (in-place)
I0514 14:43:26.522217 29140 net.cpp:141] Setting up reducA_convc1_plane2_relu
I0514 14:43:26.522222 29140 net.cpp:148] Top shape: 1 32 44 51 (71808)
I0514 14:43:26.522224 29140 net.cpp:156] Memory required for data: 710466820
I0514 14:43:26.522228 29140 layer_factory.hpp:77] Creating layer reducA_convc2_plane2_conv
I0514 14:43:26.522235 29140 net.cpp:91] Creating Layer reducA_convc2_plane2_conv
I0514 14:43:26.522239 29140 net.cpp:425] reducA_convc2_plane2_conv <- reducA_convc1_plane2_conv
I0514 14:43:26.522245 29140 net.cpp:399] reducA_convc2_plane2_conv -> reducA_convc2_plane2_conv
I0514 14:43:26.522666 29140 net.cpp:141] Setting up reducA_convc2_plane2_conv
I0514 14:43:26.522673 29140 net.cpp:148] Top shape: 1 32 44 51 (71808)
I0514 14:43:26.522676 29140 net.cpp:156] Memory required for data: 710754052
I0514 14:43:26.522682 29140 layer_factory.hpp:77] Creating layer reducA_convc2_plane2_relu
I0514 14:43:26.522689 29140 net.cpp:91] Creating Layer reducA_convc2_plane2_relu
I0514 14:43:26.522693 29140 net.cpp:425] reducA_convc2_plane2_relu <- reducA_convc2_plane2_conv
I0514 14:43:26.522697 29140 net.cpp:386] reducA_convc2_plane2_relu -> reducA_convc2_plane2_conv (in-place)
I0514 14:43:26.522702 29140 net.cpp:141] Setting up reducA_convc2_plane2_relu
I0514 14:43:26.522706 29140 net.cpp:148] Top shape: 1 32 44 51 (71808)
I0514 14:43:26.522709 29140 net.cpp:156] Memory required for data: 711041284
I0514 14:43:26.522713 29140 layer_factory.hpp:77] Creating layer reducA_convc3_plane2_conv
I0514 14:43:26.522721 29140 net.cpp:91] Creating Layer reducA_convc3_plane2_conv
I0514 14:43:26.522724 29140 net.cpp:425] reducA_convc3_plane2_conv <- reducA_convc2_plane2_conv
I0514 14:43:26.522730 29140 net.cpp:399] reducA_convc3_plane2_conv -> reducA_convc3_plane2_conv
I0514 14:43:26.523157 29140 net.cpp:141] Setting up reducA_convc3_plane2_conv
I0514 14:43:26.523164 29140 net.cpp:148] Top shape: 1 32 22 26 (18304)
I0514 14:43:26.523167 29140 net.cpp:156] Memory required for data: 711114500
I0514 14:43:26.523175 29140 layer_factory.hpp:77] Creating layer reducA_convc3_plane2_relu
I0514 14:43:26.523180 29140 net.cpp:91] Creating Layer reducA_convc3_plane2_relu
I0514 14:43:26.523185 29140 net.cpp:425] reducA_convc3_plane2_relu <- reducA_convc3_plane2_conv
I0514 14:43:26.523188 29140 net.cpp:386] reducA_convc3_plane2_relu -> reducA_convc3_plane2_conv (in-place)
I0514 14:43:26.523193 29140 net.cpp:141] Setting up reducA_convc3_plane2_relu
I0514 14:43:26.523197 29140 net.cpp:148] Top shape: 1 32 22 26 (18304)
I0514 14:43:26.523200 29140 net.cpp:156] Memory required for data: 711187716
I0514 14:43:26.523203 29140 layer_factory.hpp:77] Creating layer reducA_concat_plane2_concat
I0514 14:43:26.523208 29140 net.cpp:91] Creating Layer reducA_concat_plane2_concat
I0514 14:43:26.523212 29140 net.cpp:425] reducA_concat_plane2_concat <- reducA_mpA_plane2
I0514 14:43:26.523216 29140 net.cpp:425] reducA_concat_plane2_concat <- reducA_convb_plane2_conv
I0514 14:43:26.523221 29140 net.cpp:425] reducA_concat_plane2_concat <- reducA_convc3_plane2_conv
I0514 14:43:26.523226 29140 net.cpp:399] reducA_concat_plane2_concat -> reducA_concat_plane2_concat
I0514 14:43:26.523248 29140 net.cpp:141] Setting up reducA_concat_plane2_concat
I0514 14:43:26.523254 29140 net.cpp:148] Top shape: 1 320 22 26 (183040)
I0514 14:43:26.523257 29140 net.cpp:156] Memory required for data: 711919876
I0514 14:43:26.523260 29140 layer_factory.hpp:77] Creating layer mergeplanes_concat
I0514 14:43:26.523267 29140 net.cpp:91] Creating Layer mergeplanes_concat
I0514 14:43:26.523270 29140 net.cpp:425] mergeplanes_concat <- reducA_concat_plane0_concat
I0514 14:43:26.523274 29140 net.cpp:425] mergeplanes_concat <- reducA_concat_plane1_concat
I0514 14:43:26.523277 29140 net.cpp:425] mergeplanes_concat <- reducA_concat_plane2_concat
I0514 14:43:26.523283 29140 net.cpp:399] mergeplanes_concat -> mergeplanes_concat
I0514 14:43:26.523300 29140 net.cpp:141] Setting up mergeplanes_concat
I0514 14:43:26.523305 29140 net.cpp:148] Top shape: 1 960 22 26 (549120)
I0514 14:43:26.523314 29140 net.cpp:156] Memory required for data: 714116356
I0514 14:43:26.523318 29140 layer_factory.hpp:77] Creating layer fc2
I0514 14:43:26.523324 29140 net.cpp:91] Creating Layer fc2
I0514 14:43:26.523329 29140 net.cpp:425] fc2 <- mergeplanes_concat
I0514 14:43:26.523334 29140 net.cpp:399] fc2 -> fc2
I0514 14:43:26.552623 29140 net.cpp:141] Setting up fc2
I0514 14:43:26.552647 29140 net.cpp:148] Top shape: 1 2 (2)
I0514 14:43:26.552651 29140 net.cpp:156] Memory required for data: 714116364
I0514 14:43:26.552659 29140 layer_factory.hpp:77] Creating layer fc2_fc2_0_split
I0514 14:43:26.552667 29140 net.cpp:91] Creating Layer fc2_fc2_0_split
I0514 14:43:26.552672 29140 net.cpp:425] fc2_fc2_0_split <- fc2
I0514 14:43:26.552680 29140 net.cpp:399] fc2_fc2_0_split -> fc2_fc2_0_split_0
I0514 14:43:26.552687 29140 net.cpp:399] fc2_fc2_0_split -> fc2_fc2_0_split_1
I0514 14:43:26.552717 29140 net.cpp:141] Setting up fc2_fc2_0_split
I0514 14:43:26.552722 29140 net.cpp:148] Top shape: 1 2 (2)
I0514 14:43:26.552726 29140 net.cpp:148] Top shape: 1 2 (2)
I0514 14:43:26.552729 29140 net.cpp:156] Memory required for data: 714116380
I0514 14:43:26.552732 29140 layer_factory.hpp:77] Creating layer probt
I0514 14:43:26.552741 29140 net.cpp:91] Creating Layer probt
I0514 14:43:26.552743 29140 net.cpp:425] probt <- fc2_fc2_0_split_0
I0514 14:43:26.552749 29140 net.cpp:399] probt -> probt
I0514 14:43:26.552794 29140 net.cpp:141] Setting up probt
I0514 14:43:26.552799 29140 net.cpp:148] Top shape: 1 2 (2)
I0514 14:43:26.552803 29140 net.cpp:156] Memory required for data: 714116388
I0514 14:43:26.552805 29140 layer_factory.hpp:77] Creating layer acc
I0514 14:43:26.552810 29140 net.cpp:91] Creating Layer acc
I0514 14:43:26.552814 29140 net.cpp:425] acc <- fc2_fc2_0_split_1
I0514 14:43:26.552819 29140 net.cpp:425] acc <- label
I0514 14:43:26.552824 29140 net.cpp:399] acc -> acc
I0514 14:43:26.552829 29140 net.cpp:141] Setting up acc
…
